DeepAcTS/networks/intermediary/OLD_Runs/intermediary_valnet_rX_4500.pth (torch, 3231 bytes, 4 tensors)

fc1.weight f4 [64, 4]
-0.4071486 0.2932006 0.34873798 0.15859722 -0.2651464 0.39909312 0.66312546 0.2683589
-0.022511065 0.08034158 0.21859473 7.8737736e-05 -0.32163686 0.1359673 0.3119152 -0.039816506
-0.04935791 0.19541647 0.8282547 -0.08282131 -0.63526577 -0.06768888 0.7006892 -0.27707735
0.09919246 -0.5448827 0.34366512 0.26441523 -3.1412833 -0.22648145 6.128984 2.8978097
-0.73285717 0.2624295 0.45066848 0.69824433 -0.455567 -0.27726722 0.18508007 0.3787598
-0.031536598 0.19693998 0.24403104 0.5711401 0.026603824 -0.38323703 0.7927834 -0.22519445
-0.50947577 0.5408485 1.0720338 0.12115355 -0.65901244 0.25299484 0.7601123 0.6111017
-0.41004774 0.46158051 0.7500974 0.18094295 -2.844257 -0.11967378 5.8240542 2.934927
-3.3909085 0.13840267 5.6284466 2.9123025 0.13047583 0.25772607 0.28819597 0.40733007
-2.7590516 -0.45228246 5.6542764 2.3312106 0.10967161 -0.4350007 -0.19838066 0.24824359
-0.77482957 0.15626715 0.9929117 0.010019443 -3.6087778 -0.4264581 5.4919524 2.7257743
-0.110989094 0.003243629 0.4578727 0.39951676 -0.6019223 -0.12614743 1.2082164 -0.04625206
-0.0554571 -0.046194836 0.69188833 0.018258588 0.22961034 0.20506142 0.5991342 0.025670577
-0.23047897 -0.16669752 0.1984225 0.46148756 -0.63378465 0.07357532 0.21534193 0.29749256
0.07729246 -0.3233237 0.7855871 0.09355159 -0.12851332 0.07982891 0.47753674 0.110187076
0.037004594 -0.0442135 1.1120489 -0.14239275 0.03189934 -0.40814322 0.27595276 -0.27645758
0.0351516 -0.32012013 -0.37134078 0.37311593 0.10973008 -0.48895633 0.36522803 -0.15646562
0.19671927 -0.28890526 0.16863808 0.025515333 -0.6590912 -0.032103077 0.2997046 0.035060406
0.04166767 0.122351624 0.49888864 0.65041167 0.90437996 -1.1938779 -1.9154943 0.2181132
0.41780132 0.2916076 0.0070119067 0.7269644 -0.08197615 0.71922654 0.71616966 -0.029486176
-0.14192991 -0.16749914 0.29216945 0.534817 -0.38493684 -0.23845728 0.70592964 0.29207253
-0.56743497 0.017403027 1.1168768 -0.15591696 -0.7463693 -0.25341496 0.6938711 -0.10976747
0.24385582 -0.41290548 0.16744359 0.3141003 0.18386522 0.2343208 0.082775645 0.57604694
-0.60038894 0.97236 1.9845166 -0.14404617 0.2838402 0.037107583 0.23701955 0.49362332
0.02890512 -0.008937854 0.24505538 0.10455976 0.099797204 -0.30453214 -0.2922784 0.53328425
0.044003665 -0.19083196 0.1804735 -0.102862895 -0.12869327 -0.22814433 -0.040571526 -0.0392881
-0.7010231 0.36271808 0.8568257 -0.091714405 -0.63699716 -0.34440494 0.7139098 0.1382131
-0.011438573 0.111663654 0.9201907 0.4900872 0.15629227 -0.7322998 -0.25945902 0.025093205
-0.9686266 -0.36578047 0.87513274 -0.17428021 3.1876132 0.7180042 -5.4752774 -2.4866521
2.9893456 -0.27487728 -4.5367174 -2.5220938 0.17302777 0.29430842 0.6733825 -0.031873073
1.4042068 -1.1865408 -2.1315496 0.18333453 -0.55268633 -0.022352826 -0.045760706 0.44338784
0.0959758 -0.123579435 0.18818177 0.2303389 -1.6283628 -0.9542692 2.1937432 0.77252704
00000000: c875 d0be 641e 963e c98d b23e 4f67 223e
00000010: 45c1 87be ef55 cc3e 97c2 293f 5666 893e
00000020: 2069 b8bc 208a a43d 4cd7 5f3e 0020 a538
00000030: 96ad a4be 033b 0b3e 59b3 9f3e a216 23bd
00000040: 852b 4abd 411b 483e 8008 543f 389e a9bd
00000050: c7a0 22bf 78a0 8abd 5e60 333f 15dd 8dbe
00000060: 6b25 cb3d 6f7d 0bbf e0f4 af3e 6f61 873e
00000070: c90a 49c0 c1ea 67be a320 c440 b775 3940
00000080: 879c 3bbf 295d 863e 05be e63e 24c0 323f
00000090: 1440 e9be f8f5 8dbe a185 3d3e ceec c13e
000000a0: 852c 01bd a2aa 493e 46e3 793e 3d36 123f
000000b0: 43f0 d93c a537 c4be daf3 4a3f 6099 66be
000000c0: 016d 02bf 0c75 0a3f 6738 893f 5a1f f83d
000000d0: 0ab5 28bf 8a88 813e b896 423f 2971 1c3f
000000e0: c7f1 d1be 4854 ec3e 6206 403f 1c49 393e
000000f0: 4f08 36c0 8717 f5bd a75e ba40 d8d5 3b40
00000100: a504 59c0 6eb9 0d3e 3c1c b440 2a63 3a40
00000110: 759b 053e acf4 833e 6c8e 933e 918d d03e
00000120: 4d94 30c0 9191 e7be d5ef b440 8e32 1540
00000130: 829b e03d 69b8 debe 4d24 4bbe 9133 7e3e
00000140: 3b5b 46bf 7f04 203e 762f 7e3f 9728 243c
00000150: 37f6 66c0 b758 dabe 13be af40 1673 2e40
00000160: 404e e3bd 1093 543b 4a6e ea3e 768d cc3e
00000170: 9417 1abf cb2c 01be d6a6 9a3f cd72 3dbd
00000180: fc26 63bd cc36 3dbd 981f 313f 0993 953c
00000190: f91e 6b3e 9ffb 513e dc60 193f 1a4b d23c
000001a0: ae02 6cbe c1b2 2abe 452f 4b3e 1948 ec3e
000001b0: b63f 22bf a8ae 963d 9882 5c3e f250 983e
000001c0: 824b 9e3d af8a a5be 3c1c 493f fa97 bf3d
000001d0: ff98 03be 577d a33d b27f f43e c3a9 e13d
000001e0: 2192 173d 3719 35bd 9e57 8e3f 68cf 11be
000001f0: e2a8 023d 26f8 d0be ae49 8d3e d98b 8dbe
00000200: 20fb 0f3d c9e6 a3be 6120 bebe 0d09 bf3e
00000210: 2aba e03d 7c58 fabe 2bff ba3e 8638 20be
00000220: c770 493e 64eb 93be 76af 2c3e 8805 d13c
00000230: 33ba 28bf 847e 03bd e272 993e 809b 0f3d
00000240: b8ab 2a3d 7d93 fa3d 556e ff3e 6181 263f
00000250: 7285 673f fed0 98bf eb2e f5bf 1159 5f3e
00000260: 0eea d53e 974d 953e 23c4 e53b 571a 3a3f
00000270: 1de3 a7bd 3b1f 383f e556 373f fe8c f1bc
00000280: 1356 11be e584 2bbe 3c97 953e c4e9 083f
00000290: 7116 c5be 252e 74be ceb7 343f 888a 953e
000002a0: 6b43 11bf cb90 8e3c d2f5 8e3f b2a8 1fbe
000002b0: 0f12 3fbf 9bbf 81be 89a1 313f c4cd e0bd
000002c0: 57b5 793e 5968 d3be 5576 2b3e c1d1 a03e
000002d0: 2a47 3c3e cbf1 6f3e 4786 a93d d077 133f
000002e0: 17b3 19bf 96ec 783f a404 fe3f d780 13be
000002f0: 8153 913e 1ffe 173d 41b5 723e 32bc fc3e
00000300: 6eca ec3c 1470 12bc ccef 7a3e 6d23 d63d
00000310: 7a62 cc3d a3eb 9bbe 84a5 95be 5185 083f
00000320: 303d 343d 7469 43be 0cce 383e c8a9 d2bd
00000330: 2bc8 03be ab9e 69be 542e 26bd 8fec 20bd
00000340: 4076 33bf 2fb6 b93e ee58 5b3f c3d4 bbbd
00000350: 3f12 23bf d855 b0be cbc2 363f bc87 0d3e
00000360: da68 3bbc eaaf e43d 9e91 6b3f b6ec fa3e
00000370: 150b 203e 0078 3bbf d0d7 84be 4490 cd3c
00000380: eaf7 77bf 9447 bbbe b308 603f 8376 32be
00000390: db01 4c40 20cf 373f 7935 afc0 4f25 1fc0
000003a0: 7051 3f40 b7bc 8cbe ca2c 91c0 fc69 21c0
000003b0: 312e 313e 98af 963e cc62 2c3f 578d 02bd
000003c0: 0cbd b33f 92e0 97bf 4f6b 08c0 0cbc 3b3e
000003d0: da7c 0dbf 461d b7bc 946f 3bbd bb03 e33e
000003e0: f68e c43d 3717 fdbd b9b2 403e f6dd 6b3e
000003f0: 316e d0bf fc4a 74bf 4a66 0c40 55c4 453f

fc1.bias f4 [64]
1.8138002 1.3663701 -0.32921374 1.804911 1.5389729 1.7376928 1.7172544 0.77429694
1.7289708 1.6852479 1.3047558 1.5937046 1.464514 1.5212169 1.6155974 1.3194544
-0.84099543 1.4863836 -1.1932578 1.2784054 1.2414268 -0.44839716 1.3254471 1.1382842
1.21104 1.4000726 1.583693 1.5891335 1.082763 -0.30024046 1.3296618 1.5560715
1.512204 1.8581165 1.8467609 1.5016739 1.6176596 0.2511246 1.5284828 -0.26546413
1.7899231 1.7519442 1.240337 1.6642234 1.6247364 1.8261999 0.14002083 1.4201959
1.8273277 1.9213454 -0.45428306 1.87539 1.4651946 1.7464379 1.396093 1.2405387
1.3088192 -0.7180939 0.30843154 1.7879483 0.0054608434 1.2999437 1.5529532 -0.8860568
00000000: 9b2a e83f 37e5 ae3f b48e a8be 5307 e73f
00000010: 10fd c43f b86c de3f fece db3f 5338 463f
00000020: ea4e dd3f 34b6 d73f 3d02 a73f 83fe cb3f
00000030: 3275 bb3f 3cb7 c23f e5cb ce3f e2e3 a83f
00000040: 7a4b 57bf d141 be3f acbc 98bf caa2 a33f
00000050: 13e7 9e3f 5094 e5be 40a8 a93f 4cb3 913f
00000060: 5c03 9b3f 9435 b33f 74b6 ca3f ba68 cb3f
00000070: fa97 8a3f 1eb9 99be 5c32 aa3f 5a2d c73f
00000080: e78f c13f c3d6 ed3f a962 ec3f da36 c03f
00000090: 780f cf3f 6793 803e 53a5 c33f eaea 87be
000000a0: 331c e53f b53f e03f 5dc3 9e3f 4605 d53f
000000b0: 5df7 cf3f ebc0 e93f 9f61 0f3e fbc8 b53f
000000c0: e0e5 e93f a5ee f53f ca97 e8be c80c f03f
000000d0: 7f8b bb3f 478b df3f 2db3 b23f f9c9 9e3f
000000e0: 6387 a73f 00d5 37bf bdea 9d3e 7ddb e43f
000000f0: e0f0 b23b 8e64 a63f 2cc7 c63f 9ed4 62bf

fc2.weight f4 [2, 64]
-1.0864916 -0.9326493 0.060118675 -1.1138667 -0.92811525 -1.0496826 -1.0407933 2.9660366
-1.1671778 -0.9737766 -0.86977977 -1.1815861 -1.1064976 -1.1995586 -1.0922867 3.158035
2.632551 -1.0728518 2.2718387 -0.67329067 -0.7181314 2.383787 -0.8678157 -0.5104031
-0.7813617 -1.0197886 -0.8782676 -1.1766227 -0.52024907 0.050619304 -0.8337517 -1.070741
-0.89908606 -1.1326549 -1.1325039 -1.109134 -1.0422075 -0.6659244 -1.2319577 0.18171075
-0.9558873 -1.0716305 -0.6784363 -0.98033184 -0.92580914 -1.1485983 -1.2440082 -1.2070866
-1.1191548 -1.026429 0.078868285 -0.9900315 -0.8377646 -1.1531664 -1.2784138 -1.0891191
-0.7795188 2.1125045 1.1555814 -0.9238396 -2.3602915 -0.8122416 -1.1975539 0.013039547
-1.0070747 -0.91840637 -0.036927313 -0.878845 -0.70850873 -0.81239015 -1.160549 1.6651983
-1.1959672 -0.9628826 -0.9317639 -1.0214717 -0.86118263 -1.3047348 -0.90972257 1.4181961
2.841018 -1.1294618 2.91539 -0.8868459 -0.698568 2.2938323 -0.83109045 -0.59284616
-0.71888375 -0.72479814 -1.0819113 -1.0252073 -0.6728053 -0.11547428 -0.67819387 -0.7897365
-0.9457395 -0.9466316 -0.9226677 -0.99785334 -1.3149257 -1.1791117 -1.1839799 -1.2646766
-1.1589018 -1.0452014 -0.57709914 -1.0379267 -0.9432077 -1.1588321 -2.004903 -1.1454419
-0.86315256 -1.0822729 0.09167935 -0.9764536 -0.5992668 -1.1722552 -1.3428077 -1.0197107
-0.85667986 2.722594 2.3452623 -0.7233425 -1.6442354 -0.98214036 -1.052111 1.9550474
00000000: 2812 8bbf 1bc2 6ebf 003f 763d 2f93 8ebf
00000010: f698 6dbf 005c 86bf b738 85bf 8bd3 3d40
00000020: 1566 95bf 6c49 79bf e3a9 5ebf 373e 97bf
00000030: b7a1 8dbf 238b 99bf 0dd0 8bbf 3f1d 4a40
00000040: b77b 2840 3553 89bf ce65 1140 c75c 2cbf
00000050: 76d7 37bf f78f 1840 2b29 5ebf c7a9 02bf
00000060: 5207 48bf 6f88 82bf 25d6 60bf 939b 96bf
00000070: 0b2f 05bf 3056 4f3d c070 55bf 0b0e 89bf
00000080: 812a 66bf d6fa 90bf e3f5 90bf 1af8 8dbf
00000090: 0e67 85bf 057a 2abf cab0 9dbf 6212 3a3e
000000a0: 08b5 74bf 302b 89bf 00ae 2dbf 07f7 7abf
000000b0: d401 6dbf 4505 93bf a93b 9fbf d081 9abf
000000c0: 7740 8fbf 0762 83bf b285 a13d b472 7dbf
000000d0: be77 56bf f59a 93bf 10a3 a3bf 4168 8bbf
000000e0: 8b8e 47bf 4633 0740 17ea 933f c180 6cbf
000000f0: 040f 17c0 11ef 4fbf 7249 99bf d3a3 553c
00000100: d3e7 80bf ae1c 6bbf 1841 17bd fcfb 60bf
00000110: d460 35bf cdf8 4fbf df8c 94bf 3825 d53f
00000120: 7415 99bf 797f 76bf 1488 6ebf 96bf 82bf
00000130: 7776 5cbf 8d01 a7bf 94e3 68bf 7387 b53f
00000140: 3dd3 3540 3492 90bf c095 3a40 5508 63bf
00000150: 5ad5 32bf 26ce 1240 58c2 54bf c4c4 17bf
00000160: c408 38bf 5f8c 39bf 127c 8abf fe39 83bf
00000170: f83c 2cbf c87d ecbd 1d9e 2dbf 2c2c 4abf
00000180: fc1b 72bf 7356 72bf f333 6cbf 5173 7fbf
00000190: 7c4f a8bf 22ed 96bf a78c 97bf ece0 a1bf
000001a0: e556 94bf 29c9 85bf c5bc 13bf c8da 84bf
000001b0: 0f76 71bf 9c54 94bf 5550 00c0 d79d 92bf
000001c0: 91f7 5cbf eb87 8abf 62c2 bb3d ddf8 79bf
000001d0: 8d69 19bf 750c 96bf 1fe1 abbf e185 82bf
000001e0: 5f4f 5bbf fb3e 2e40 c718 1640 f92c 39bf
000001f0: 4e76 d2bf 8d6d 7bbf 93ab 86bf fe3e fa3f

fc2.bias f4 [2]
-0.9192732 -0.88616276
00000000: 7d55 6bbf 90db 62bf
