DeepAcTS/networks/intermediary/OLD_Runs/intermediary_transnet_rX_500.pth (torch, 39559 bytes, 10 tensors)

fc1.weight f4 [64, 5]
0	0xbf1a76d8	-0.6033759
1	0x3cd7b225	0.026330063
2	0xbe0ac1c2	-0.13550475
3	0x3e6b4f97	0.2297958
4	0x3ed8fde3	0.423812
5	0xbf0f60c6	-0.5600704
6	0x3e3370c6	0.17523488
7	0xbecb4af7	-0.3970563
8	0xbe99a9bc	-0.3001231
9	0xbbc2087c	-0.0059214216
10	0x3b981eec	0.004642358
11	0xbd48d99f	-0.049035665
12	0xbb392c40	-0.0028255135
13	0x3dae5c91	0.085137494
14	0x3edbf9fe	0.42964166
15	0xbee8c2bd	-0.45461074
16	0xbd722861	-0.05912054
17	0xbdc43d66	-0.09582023
18	0xbc932f3a	-0.017966855
19	0x3e375f57	0.17907463
20	0x3f1762eb	0.5913531
21	0xbcc73b09	-0.024320142
22	0x3bd7ed0a	0.0065895366
23	0x3dfd65c9	0.123729296
24	0x3db94174	0.09045687
25	0xbf069421	-0.52569777
26	0xbeb322c3	-0.3498746
27	0xbf01fec7	-0.50779384
28	0xbea66224	-0.3249675
29	0xbdc95870	-0.09831321
30	0xbed29c0a	-0.41134673
31	0x3c00f46f	0.0078707775
32	0xbed5ff12	-0.41796166
33	0xbe54f10f	-0.20795082
34	0x3af397a5	0.0018584622
35	0xbe924206	-0.28565997
36	0xbdf4ba36	-0.119495794
37	0xbf19945e	-0.59992015
38	0xbe23f01b	-0.16009562
39	0xbe0aac2a	-0.13542238
40	0xbf285a20	-0.6576252
41	0xbf7a7ac9	-0.97843605
42	0xbf598625	-0.84970313
43	0xbf8d5a5c	-1.10432
44	0x3fac3c2e	1.3455865
45	0x3f0dbc28	0.5536523
46	0x3f05db5e	0.5228785
47	0x3e6edbc0	0.23326015
48	0x3e2dcf92	0.16973713
49	0xbd95e1fc	-0.07318494
50	0xbde55213	-0.11197295
51	0xbf06d52b	-0.5266902
52	0x3e58ea35	0.21183093
53	0xbf25911d	-0.6467455
54	0x3e509f98	0.2037338
55	0xbf21a609	-0.63143975
56	0x3dfdc5fe	0.1239128
57	0xbef6a1bf	-0.48170277
58	0xbecbd66f	-0.39812037
59	0x3e98e8d8	0.29865146
60	0xbee66650	-0.44999933
61	0xbd6775ab	-0.0565087
62	0xbd2e0948	-0.04248932
63	0xbe79cc87	-0.24394427
64	0x3e959c24	0.29220688
65	0x3da67781	0.08128262
66	0x3e015d64	0.12633282
67	0xbe2c074b	-0.16799657
68	0xbede8b31	-0.4346557
69	0x3efac81d	0.489808
70	0x3e143973	0.1447504
71	0xbee9908e	-0.456181
72	0x3e24cc42	0.16093543
73	0xbf07584d	-0.5286911
74	0x3df253fe	0.118324265
75	0xbf28d150	-0.65944386
76	0x3db7ca5a	0.089741424
77	0xbf0a0543	-0.5391428
78	0x3e8d0cf9	0.2754896
79	0x3f1d7cfe	0.6151885
80	0xbf015c94	-0.5053189
81	0xbeca5a85	-0.39522186
82	0x3e3984cf	0.18117069
83	0xbebddebc	-0.37083995
84	0x3e5ae434	0.21376115
85	0xbf27297b	-0.6529767
86	0xbe1a814a	-0.15088382
87	0x3c7d17f8	0.015447609
88	0x3e6f5ff8	0.23376453
89	0x3f199e51	0.60007197
90	0xbf11d57c	-0.56966376
91	0x3e760f5f	0.24029301
92	0x3d018824	0.031623974
93	0xbf036d97	-0.51339096
94	0x3f008f2c	0.5021846
95	0xbda0f4ba	-0.07859178
96	0x3e584f51	0.21124007
97	0xbe4f9cdc	-0.20274681
98	0xbe7872c7	-0.24262534
99	0x3ed483f9	0.41506937
100	0xbf70c705	-0.9405368
101	0xbf8d3acf	-1.1033572
102	0xbf2e2ffe	-0.6804198
103	0xbf80a875	-1.0051409
104	0x3f561ddb	0.83639306
105	0xbece2074	-0.40259135
106	0x3c4c81cf	0.012482121
107	0xbdd6a84d	-0.104813196
108	0xbf044c9f	-0.51679415
109	0x3dcf62d0	0.10126269
110	0xbb8dbb00	-0.0043252707
111	0xbeb3429a	-0.3501175
112	0x3d5b2996	0.053506456
113	0x3e464fc0	0.1936636
114	0x3f2e5547	0.6809887
115	0xbf073ec0	-0.52830124
116	0xbe297309	-0.16547789
117	0xbec6e00e	-0.38842815
118	0x3dc75a64	0.097340375
119	0x3e8d980c	0.27655065
120	0xbeae00bb	-0.33984932
121	0x3e9261be	0.28590196
122	0xbcfa13c3	-0.030527001
123	0x3ee420bd	0.44556227
124	0x3eed34c5	0.46329322
125	0xbf13e9e0	-0.5777874
126	0x3eb2d324	0.34926713
127	0xbddd4cc5	-0.10805658
128	0xbe89deae	-0.26927704
129	0xbddf761b	-0.10911199
130	0xbecbb795	-0.397885
131	0xbe858323	-0.26076612
132	0x3c995786	0.018718492
133	0x3e779933	0.24179535
134	0x3d6ae8ef	0.05735105
135	0xbe9ad668	-0.30241704
136	0xbdc6ce67	-0.09707337
137	0xbe939963	-0.28827962
138	0xbc56bc86	-0.013106471
139	0x3f0c3e13	0.5478222
140	0xbf9d40a8	-1.2285357
141	0xbf97cc04	-1.1859136
142	0xbefe7b63	-0.49703512
143	0xbfae6bc0	-1.3626633
144	0x3f331372	0.69951546
145	0xbef46d1d	-0.47739497
146	0x3d4fab53	0.050700497
147	0xbebb66bf	-0.36601827
148	0x3e7e366b	0.24825446
149	0x3e7a1d55	0.24425252
150	0xbe6330ca	-0.2218658
151	0x3e99b357	0.30019638
152	0xbe945555	-0.28971353
153	0xbead23f1	-0.33816484
154	0x3ed993c3	0.42495546
155	0xbecb2b08	-0.39681268
156	0x3ee49bfd	0.4465026
157	0xbbcad208	-0.0061895885
158	0x3dd23f5d	0.10265992
159	0x3d2da35c	0.04239212
160	0x3e8d1e23	0.27562055
161	0x3e5fbb76	0.21848854
162	0x3ea5e534	0.3240143
163	0xbf11d813	-0.5697033
164	0xbd8f9723	-0.07011249
165	0xbf1978e2	-0.5995008
166	0xbd84f4b8	-0.06491989
167	0xbecaae2d	-0.3958601
168	0x3e0fffe1	0.14062454
169	0x3f31a037	0.69385093
170	0x3e15c4ac	0.14625806
171	0xbc854304	-0.016267307
172	0x3e5da2e7	0.21644174
173	0xbc97464f	-0.018466143
174	0x3db2442a	0.087044075
175	0xbf54a5b4	-0.8306534
176	0xbf881e11	-1.0634176
177	0xbf85a6ff	-1.0441588
178	0xbfa19f81	-1.2626802
179	0x3f97464b	1.1818327
180	0xbf4a28a9	-0.7896829
181	0xbf2d1fe2	-0.67626774
182	0xbf148872	-0.580207
183	0xbfa2a423	-1.270634
184	0x3f8135b9	1.009452
185	0xbe906fd2	-0.28210312
186	0xbe5efddf	-0.21776532
187	0xbece7ccf	-0.40329596
188	0x3e802fd6	0.25036496
189	0x3e724d16	0.23662218
190	0xbf014624	-0.5049765
191	0xbd5adf9c	-0.053435907
192	0xbf242a1c	-0.64126754
193	0x3e8fdb54	0.28097022
194	0x3dac3c62	0.084099546
195	0xbf0d12c6	-0.5510677
196	0xbf03bd54	-0.51460767
197	0xbddb409e	-0.10705684
198	0xbd559d6d	-0.052152086
199	0x3f10a162	0.5649625
200	0x3dfb60e1	0.122743376
201	0x3dbc3c5c	0.091912
202	0xbf08c205	-0.5342105
203	0x3e33558e	0.17513105
204	0x3e429d14	0.19005233
205	0xbdde1dcf	-0.10845529
206	0xbe9d07a3	-0.3066989
207	0xbdd49176	-0.10379307
208	0x3d91bb90	0.07115853
209	0x3f0c3896	0.54773843
210	0xbf033d19	-0.512651
211	0x3e5dbb63	0.21653514
212	0xbe886b56	-0.2664439
213	0x3efc4758	0.4927318
214	0x3d35557f	0.04427099
215	0x3ebf972d	0.37420025
216	0x3e8ba110	0.27271318
217	0x3f08deb7	0.53464836
218	0xbd51fc46	-0.051265977
219	0x3ec5f304	0.3866197
220	0xbf1a6468	-0.6030946
221	0xbef75085	-0.4830362
222	0xbef3d03e	-0.47619814
223	0x3e1a533e	0.15070817
224	0xbe5b4c59	-0.21415843
225	0xbee82e58	-0.45347857
226	0x3d7fff43	0.062499296
227	0xbf22a1e1	-0.6352826
228	0x3e289def	0.16466497
229	0xbd7819cd	-0.06057148
230	0xbf216040	-0.6303749
231	0xbf90ecc8	-1.132226
232	0xbf55958c	-0.83431315
233	0xbf48a993	-0.7838375
234	0x3f42a12d	0.76027185
235	0xbf174205	-0.5908511
236	0x3e9bf562	0.3046065
237	0xbeedd2da	-0.4644993
238	0xbed00cdc	-0.4063481
239	0x3ecc80c5	0.39941993
240	0xbf7723b0	-0.9653883
241	0xbf4119e8	-0.75430155
242	0xbf0ebb16	-0.5575422
243	0xbf9405ba	-1.1564248
244	0x3fa4f810	1.2888203
245	0x3e2d65ad	0.16933317
246	0x3df7e42b	0.121040665
247	0xbed141bb	-0.4087046
248	0xbeb97c23	-0.3622752
249	0x3f237f0c	0.63865733
250	0xbf386af2	-0.72038186
251	0xbf9496c1	-1.1608506
252	0xbf1a0760	-0.60167503
253	0xbf16366c	-0.5867679
254	0x3faf4ccf	1.3695315
255	0x3ebf9abb	0.37422737

fc1.bias f4 [64]
0	0x3e8408e4	0.25788033
1	0x3e8edf98	0.27904963
2	0x3f326245	0.696812
3	0x3d385ad4	0.045008495
4	0x3d1fa9ca	0.038980283
5	0x3ec66f1e	0.3875665
6	0x3f0ac63f	0.5420875
7	0x3f286d17	0.6579146
8	0x3f5e0144	0.8672068
9	0xbe505740	-0.20345783
10	0x3e2a3b29	0.1662413
11	0x3eee03e6	0.4648735
12	0x3ef971b0	0.4871955
13	0x3d994f9a	0.07485886
14	0x3ef51b41	0.47872356
15	0x3e7af9a7	0.24509297
16	0x3f1aebb3	0.605159
17	0x3ca17b82	0.019712213
18	0xbc4235cb	-0.011853646
19	0x3f052053	0.5200245
20	0x3f990558	1.1954756
21	0x3edbd154	0.42933142
22	0x3f0ea36b	0.55718106
23	0x3f1504c8	0.5821042
24	0xbd7e95f4	-0.062154725
25	0x3ebd7106	0.37000293
26	0x3f28198c	0.6566398
27	0x3ef5809c	0.47949684
28	0x3f60a339	0.8774906
29	0x3ecee010	0.4040532
30	0x3e6e322d	0.23261328
31	0xbe04a9f0	-0.12955451
32	0x3eaf0db3	0.3419014
33	0xbdeba65d	-0.11506341
34	0x3f1f8a2b	0.623202
35	0x3f1e5737	0.6185183
36	0x3fa60bb5	1.2972323
37	0x3f0a5295	0.5403226
38	0x3ba00cd4	0.0048843417
39	0x3ea609de	0.32429403
40	0x3eec3ee9	0.46141747
41	0x3ead4a57	0.3384578
42	0xbcaa2606	-0.020770084
43	0xbe9a60a2	-0.3015185
44	0x3e45d4db	0.19319479
45	0x3d660782	0.056159504
46	0x3f9735f1	1.1813337
47	0x3f0f6554	0.5601399
48	0x3f7cb229	0.9870935
49	0x3e2ff5ab	0.17183559
50	0x3f8f2d25	1.1185652
51	0xbe97df1d	-0.2966241
52	0x3e54c301	0.20777513
53	0x3e85b3aa	0.26113635
54	0xbc6a2832	-0.01429181
55	0xbea54c5e	-0.32284826
56	0x3f26a025	0.6508811
57	0x3f39dfd3	0.72607154
58	0x3db16b74	0.08663073
59	0x3f2af56f	0.6678075
60	0x3ea9c5a8	0.33158612
61	0xbc2df4e2	-0.010617467
62	0x3dbfdf1c	0.093687266
63	0x3f290021	0.6601582

fc2.weight f4 [64, 64]
0	0x3dbb2c75	0.09139339
1	0xbd6d26f1	-0.057898466
2	0x3d1403b2	0.036136337
3	0x3cdddff0	0.02708432
4	0x3be49220	0.0069754273
5	0xbd8df11d	-0.06930754
6	0xbc856b6d	-0.016286576
7	0x3d9f409d	0.07775996
8	0xbe1b90bc	-0.1519193
9	0x3dca570a	0.09879883
10	0xbe0e2c96	-0.13884196
11	0x3c37cf48	0.011218853
12	0xbe082ea4	-0.13299042
13	0xbd8a7924	-0.06761387
14	0x3ce03500	0.027369022
15	0x3d7fe906	0.062478088
16	0x3cb2ac07	0.021810545
17	0xbdba195c	-0.09086868
18	0xbdd37f08	-0.10326964
19	0xbe03b38b	-0.12861459
20	0xbd4df36a	-0.050280966
21	0xbc1aa867	-0.009439564
22	0xbe1a5561	-0.15071632
23	0xbde2b483	-0.11069586
24	0x3d4b2db0	0.049604118
25	0xbdd3be67	-0.10339051
26	0xbd6b313f	-0.05742001
27	0x3d8161ce	0.06317483
28	0xbde173ac	-0.11008391
29	0xbdd8d7c7	-0.10588031
30	0xbc51ad2a	-0.012797633
31	0xbdaa79e4	-0.0832403
32	0x3cb63488	0.022241846
33	0xbda8fb06	-0.08251004
34	0xbccd71ef	-0.025078742
35	0xbdcda49e	-0.10041164
36	0x3c5a6033	0.0133286
37	0x3d5b7595	0.05357893
38	0xbd99a2e6	-0.075017735
39	0x3cc1a6d0	0.023639113
40	0xbd3c803b	-0.046020728
41	0xbcc37f3c	-0.023864381
42	0x3dbede8c	0.09319791
43	0xbd979091	-0.07400621
44	0xbdf3f662	-0.11912228
45	0x3d0144dc	0.03155981
46	0xbdc651a2	-0.09683539
47	0x3d8a8f13	0.067655705
48	0xbdadd3f8	-0.084876955
49	0xbbe2cbf3	-0.0069212853
50	0xbdd19cdc	-0.10234997
51	0x3df09df2	0.11748876
52	0x3d98c48a	0.07459362
53	0xbd59e83a	-0.053199984
54	0xbcfaa509	-0.030596273
55	0xbd77a2ac	-0.06045787
56	0x3ca24831	0.019809814
57	0xbe2c4043	-0.16821389
58	0x3d5a1b78	0.053248852
59	0x3c1bb051	0.009502486
60	0xbe0d5e04	-0.13805395
61	0xbd4e4647	-0.05035999
62	0x3d608559	0.05481467
63	0x3cd4f12c	0.025993906
64	0x3e03c412	0.12867764
65	0x3e7ea2f5	0.2486685
66	0x3e8872be	0.2665004
67	0x3e5594b6	0.2085751
68	0x3dcf9098	0.10135001
69	0x3e0c1435	0.13679583
70	0x3e12f330	0.14350581
71	0x3db75d13	0.089532994
72	0x3f856122	1.0420268
73	0x3e06cb9f	0.13163613
74	0x3e780595	0.2422088
75	0x3e505318	0.20344198
76	0x3e35b4f8	0.17744815
77	0x3e30e66c	0.17275399
78	0x3e7a0652	0.24416474
79	0x3da7a570	0.081858516
80	0x3e1ae4a3	0.1512628
81	0x3e9d306e	0.3070101
82	0x3e4e50d2	0.20148018
83	0x3e3fb709	0.18722166
84	0x3f9837d1	1.1892034
85	0x3db0c589	0.08631427
86	0x3e46fbcb	0.19431989
87	0x3e91d81b	0.28485188
88	0x3e914637	0.28373882
89	0x3e973c24	0.2953807
90	0x3e7c6037	0.24646078
91	0x3e20b2c9	0.15693201
92	0x3f5ef929	0.8709894
93	0x3d84902e	0.064728126
94	0x3e1a8901	0.15091325
95	0x3d5b84eb	0.053593557
96	0x3e8172bd	0.2528285
97	0x3e831a9b	0.25606236
98	0x3e90ab56	0.2825572
99	0x3f7e4c4a	0.9933516
100	0x3f8048d4	1.0022225
101	0x3dcda801	0.1004181
102	0x3eb9898b	0.3623775
103	0x3e1ec40d	0.15504475
104	0x3e8b96ea	0.27263576
105	0x3e8f2191	0.27955297
106	0x3ea743de	0.32668966
107	0x3c69ad92	0.014262574
108	0x3db267a3	0.087111734
109	0x3eb8e24e	0.36110157
110	0x3f803098	1.001483
111	0x3debeead	0.11520133
112	0x3f868c20	1.0511513
113	0x3e82f11d	0.2557458
114	0x3f8c4d05	1.0961004
115	0x3d6ccd08	0.05781272
116	0x3e7b370e	0.2453272
117	0x3ebbcf34	0.3668152
118	0x3e725084	0.23663527
119	0x3d9b6d6b	0.07589229
120	0x3e589ad2	0.2115281
121	0x3ea187e3	0.31548986
122	0x3ebd2956	0.369456
123	0x3e7919d9	0.24326266
124	0x3e2f6e39	0.1713189
125	0x3e0bc3f9	0.13648976
126	0x3e925f91	0.28588536
127	0x3e9a6361	0.30153945
128	0xbd2f2b23	-0.042765748
129	0x3d9c09c0	0.07619047
130	0x3cec5f54	0.02885405
131	0xbb2a8d80	-0.0026024282
132	0x3dcf306e	0.10116659
133	0x3cc0ba18	0.023526236
134	0xbccc037e	-0.024904009
135	0xbd9d982a	-0.076950386
136	0xbd06d17f	-0.032914635
137	0xbdbbc1b4	-0.09167805
138	0xbd7d3544	-0.061818376
139	0xbd24380a	-0.040092506
140	0x3da7f0a0	0.082001925
141	0x3da55cd5	0.08074347
142	0x3d81dd62	0.063410535
143	0xbdc3ef49	-0.095671244
144	0x3de5e887	0.11225992
145	0xbc25add4	-0.010112245
146	0xbdb85fb6	-0.090026304
147	0xbe044dd1	-0.1292031
148	0x3c518b38	0.01278954
149	0xbe06a382	-0.13148311
150	0xbdc96f3e	-0.09835671
151	0x3dbf5f4d	0.09344349
152	0xbcfb6b20	-0.03069073
153	0xbd05f4a0	-0.032703996
154	0x3dbcd1f6	0.09219734
155	0x3d30be24	0.043150082
156	0xbd496998	-0.049172968
157	0xbc015cf7	-0.0078957
158	0x3da0191b	0.078172885
159	0xbc84e448	-0.016222134
160	0xbcdbb0fc	-0.026817791
161	0x3d259c27	0.04043212
162	0x3d65ef54	0.056136444
163	0xbbb3b7a0	-0.0054845363
164	0x3b05b266	0.0020400523
165	0xbd593b19	-0.053034876
166	0x3db88182	0.09009077
167	0x3de2bdcc	0.11071357
168	0x3dcee264	0.10101774
169	0xbde11e7b	-0.10992142
170	0x3d1c5ed8	0.038176388
171	0xbd05b8e4	-0.03264703
172	0xbba16d40	-0.0049263537
173	0xbd9af230	-0.07565725
174	0x3dd2a4fa	0.10285373
175	0xbde56d6e	-0.11202513
176	0xbdfffe67	-0.12499695
177	0x3db7d7a5	0.08976678
178	0x3dda2a14	0.10652557
179	0xbd4e0ce8	-0.050305277
180	0x3d0f89a0	0.03504336
181	0xbd615eb0	-0.05502194
182	0xbd823a50	-0.063587785
183	0xbdf7d556	-0.121012375
184	0xbdd46210	-0.103702664
185	0x3ccce55b	0.025011709
186	0xbd81ce84	-0.06338218
187	0xbdcbd2d2	-0.0995232
188	0x3ced83f3	0.028993582
189	0xbd330bce	-0.04371243
190	0x3de93bfc	0.11388394
191	0x3d3c2edd	0.04594313
192	0xbdbc2b1c	-0.0918791
193	0x3da92cb2	0.08260478
194	0xbd938c6e	-0.07204519
195	0xbde93582	-0.11387159
196	0xbd9a88b0	-0.07545602
197	0xbcd0c720	-0.025485575
198	0x3da01236	0.078159735
199	0x3d9a2a5a	0.07527609
200	0x3d743a7c	0.059626088
201	0x3b819c40	0.003955394
202	0x3cc3ea10	0.02391532
203	0x3dc37e50	0.095455766
204	0xbd771e20	-0.060331464
205	0x3d1d038c	0.03833346
206	0xbd93d4d2	-0.07218327
207	0x3dc3c4d2	0.09559025
208	0xbddcd2c0	-0.10782385
209	0xbdffd120	-0.12491059
210	0x3cf574c0	0.029962897
211	0xbda908e8	-0.08253652
212	0xbdfe136e	-0.1240605
213	0xbd489c10	-0.048976958
214	0x3d0575a0	0.03258288
215	0xbde232e6	-0.11044864
216	0xbd2e4b64	-0.042552367
217	0xbdbd158a	-0.09232624
218	0xbdba919c	-0.09109804
219	0x3c7466b0	0.014917061
220	0x3d73c560	0.059514403
221	0xbdf12546	-0.117746875
222	0xbcdee040	-0.02720654
223	0x3d330e2c	0.043714687
224	0xbc959c10	-0.018262893
225	0x3cb8b180	0.022545576
226	0x3d479f10	0.04873568
227	0x3d45c2dc	0.048281536
228	0xbde8dfb0	-0.1137079
229	0x3dc4994c	0.095995516
230	0x3d8e6c82	0.0695429
231	0xbdc1ed46	-0.094690844
232	0x3d776c3c	0.060405955
233	0xbc9c8a70	-0.01910898
234	0x3cb4f540	0.0220896
235	0x3d81a424	0.063301355
236	0xbd4625f8	-0.048376054
237	0x3b680580	0.003540367
238	0xbc83cd38	-0.016089067
239	0xbdf45c2e	-0.119316444
240	0x3d355f80	0.04428053
241	0x3c2477a0	0.010038286
242	0x3ca3f7f8	0.020015702
243	0xbc0ba050	-0.008522108
244	0xbdc6e0d4	-0.09710851
245	0xb9c47000	-0.0003746748
246	0xbca369b0	-0.019947857
247	0xbdf8f09e	-0.12155269
248	0x3dedc61c	0.11610052
249	0x3c59b1e0	0.013287038
250	0x3ddc0f7c	0.10745141
251	0xbcc2cf28	-0.02378042
252	0x3d9a91f8	0.075473726
253	0x3ddcbb0c	0.10777864
254	0x3db36b9e	0.08760761
255	0x3db224f8	0.086984575

fc2.bias f4 [64]
0	0x3d76a900	0.060219765
1	0x3e4c48d1	0.19949652
2	0xbd9b50af	-0.075837485
3	0xbd745854	-0.05965455
4	0xbc929310	-0.01789239
5	0x3f09fec2	0.53904355
6	0xbc915c60	-0.017744243
7	0x3ea137ff	0.31488034
8	0x3eaf9b5c	0.34298217
9	0x3e8d78a9	0.2763112
10	0x3e51357b	0.20430557
11	0x3dbccc38	0.09218639
12	0xbcc8d16e	-0.024513926
13	0x3df175be	0.11790036
14	0x3e6df6c6	0.23238668
15	0x3e9e607e	0.30932993
16	0x3de1c3e5	0.11023692
17	0x3e43d396	0.19123682
18	0x3e4e834d	0.20167275
19	0xbdfa7ff6	-0.12231438
20	0x3de195b3	0.11014881
21	0x3e8572a8	0.26064038
22	0x3e9ed35f	0.31020638
23	0x3e8a48ed	0.27008763
24	0x3d4424ad	0.04788654
25	0x3e621d62	0.22081521
26	0xbdfb078f	-0.12257301
27	0x3ea0bf82	0.3139611
28	0x3e8d5efb	0.27611527
29	0x3eae2a65	0.3401672
30	0xbaef36fd	-0.0018250641
31	0xbdb3f95c	-0.08787796
32	0x3c51e139	0.012810045
33	0x3e003e43	0.12523751
34	0x3ea4bf84	0.32177365
35	0x3ea53f67	0.32274935
36	0x3e962df8	0.29331946
37	0x3e9596f6	0.29216737
38	0x3dd63a0b	0.104602896
39	0x3e39066b	0.18068855
40	0x3eb5b033	0.35485992
41	0x3ea99191	0.3311887
42	0x3ea9dde6	0.33177108
43	0x3e66c94d	0.22537728
44	0x3e23b603	0.159874
45	0x3cdcad03	0.026937967
46	0x3e5b9bcb	0.21446149
47	0x3e9f47ef	0.31109568
48	0x3e4dca77	0.20096765
49	0x3e8ccbc1	0.27499202
50	0x3eb34fdf	0.35021874
51	0x3dd4f6e6	0.10398655
52	0x3e336036	0.1751717
53	0x3ea1991e	0.31562132
54	0x3e6643b0	0.22486758
55	0x3d79cd02	0.060986526
56	0xbdcd0120	-0.1000998
57	0x3eb00961	0.34382156
58	0x3e8e206f	0.2775912
59	0x3ea876f5	0.32903257
60	0xbd8f385c	-0.069931716
61	0x3eb1582c	0.34637582
62	0x3e49372a	0.1964995
63	0x3e893e60	0.268054

fc3.weight f4 [64, 64]
0	0x3d6fa13c	0.058503374
1	0xbda9484a	-0.08265741
2	0x3d71e8e4	0.059059992
3	0xbd3a262c	-0.04544656
4	0x3d13484c	0.03595762
5	0x3d5c4544	0.053776994
6	0x3dbddb3c	0.09270331
7	0xbd33a9e4	-0.043863192
8	0x3df1d020	0.11807275
9	0xbdc77cd6	-0.097406074
10	0xbd381cdc	-0.044949397
11	0x3de8e668	0.113720715
12	0x3da916fa	0.082563356
13	0xbdb0af9e	-0.08627246
14	0x3d19feec	0.037596628
15	0xbdcc86da	-0.099866584
16	0x3d9d0f02	0.07668878
17	0x3da029b8	0.07820457
18	0x3c2d52b0	0.010578796
19	0xbda5f5c0	-0.08103514
20	0xbdb6fb60	-0.08934665
21	0x3dc872c8	0.09787518
22	0xbdd56014	-0.10418716
23	0x3d5648bc	0.05231546
24	0x3ddf353e	0.10898827
25	0x3dc6cdb0	0.097072005
26	0x3cc6c1a0	0.02426225
27	0x3d961db0	0.07329881
28	0x3d041c10	0.032253325
29	0x3c897770	0.016780585
30	0x3db080d2	0.086183205
31	0xbd458fe4	-0.048232928
32	0xbcbc92b0	-0.023019165
33	0xbdbfe120	-0.09369111
34	0x3ddd0aea	0.10793097
35	0xbd08c680	-0.03339243
36	0xbd94dbe6	-0.07268505
37	0xbcab4fe0	-0.02091211
38	0xbdf1a3d6	-0.11798827
39	0x3bc01860	0.0058622807
40	0xbd60b50c	-0.05486016
41	0x3cf90d30	0.030401796
42	0xbdc4809e	-0.09594844
43	0xbdaa908a	-0.0832835
44	0xbd6215e4	-0.055196658
45	0xb9776c00	-0.00023595989
46	0x3d1dff98	0.03857383
47	0xbda9594a	-0.08268984
48	0xbd0df9e0	-0.034662127
49	0xbdb5b396	-0.08872144
50	0x3df488e0	0.11940169
51	0x3d919ece	0.07110368
52	0xbc2404d0	-0.010010913
53	0xbce71b58	-0.02821128
54	0xbd851846	-0.064987704
55	0xbdebb054	-0.11508241
56	0xbaed1700	-0.001808852
57	0x3d21249c	0.039341554
58	0xbdb6d376	-0.08927052
59	0x3c1b7bb0	0.009489939
60	0xbc836e68	-0.016043857
61	0x3db31148	0.087435305
62	0x3d871094	0.06594959
63	0x3ce0f528	0.02746065
64	0x3e032401	0.12806703
65	0x3ec0ee4d	0.3768181
66	0xbba9e140	-0.0051843226
67	0x3d3db6f8	0.04631707
68	0x3df2d35a	0.11856718
69	0x3f17be79	0.59275013
70	0x3defb582	0.11704542
71	0x3e1ffe9e	0.15624472
72	0x3e94cba6	0.2906162
73	0x3e939ec3	0.28832063
74	0x3e88054a	0.26566535
75	0x3e83dc14	0.25753844
76	0x3d6023de	0.054721706
77	0x3e3294ee	0.17439625
78	0x3eaf4d9a	0.34238893
79	0x3eb93c4e	0.3617882
80	0x3e8e1b3a	0.27755147
81	0x3eb59691	0.35466436
82	0x3e84bc1f	0.25924775
83	0xbd98fae5	-0.07469729
84	0x3e976838	0.295717
85	0x3e9b8c49	0.30380467
86	0x3eb779f6	0.35835236
87	0x3ecf91a9	0.40540817
88	0x3e457fc0	0.19287014
89	0x3e7b299b	0.2452759
90	0x3e0a9403	0.13533024
91	0x3e91d6c0	0.28484154
92	0x3e5ead4c	0.21745795
93	0x3eb6f474	0.35733378
94	0xbb2e41a1	-0.002658941
95	0x3c49e336	0.012322238
96	0xbc82129a	-0.01587801
97	0x3eaec69f	0.3413591
98	0x3e84368c	0.25822866
99	0x3ec78ddd	0.3897542
100	0x3e221b84	0.15830809
101	0x3e8ee2d3	0.27907428
102	0x3e7a1455	0.24421819
103	0x3e32bb9c	0.1745438
104	0x3e9cd281	0.30629352
105	0x3e494125	0.19653757
106	0x3e9ee2e4	0.3103248
107	0x3e2094b2	0.15681723
108	0x3e4c71b0	0.19965243
109	0x3d5766fd	0.05258845
110	0x3e12741c	0.14302105
111	0x3eaa2275	0.33229414
112	0x3ec3dde6	0.38255233
113	0x3eab4319	0.3344963
114	0x3e3923ff	0.18080138
115	0x3e9beb3c	0.30452907
116	0x3e5ad764	0.21371228
117	0x3e802f32	0.25036007
118	0x3e962f06	0.2933275
119	0x3e9c2fef	0.3050532
120	0x3c763bcc	0.015028905
121	0x3e5e285b	0.21695082
122	0x3ea63bcb	0.32467493
123	0x3ea09081	0.31360248
124	0x3d2be484	0.041965976
125	0x3eb0995a	0.34491998
126	0x3e20a0a7	0.15686284
127	0x3e9c5260	0.30531597
128	0xbdcbf050	-0.09957945
129	0xbd33d01c	-0.04389964
130	0xbc9f0968	-0.019413665
131	0xbdb925ae	-0.0904039
132	0xbdf3f13e	-0.11911248
133	0xbcfe61a8	-0.031052426
134	0xbc89b9e0	-0.016812265
135	0xbde222be	-0.11041783
136	0x3d9d4ecc	0.07681045
137	0x3c08bc23	0.008345637
138	0xbe093bd9	-0.13401736
139	0x3ab0aa80	0.0013478547
140	0xbdcc7474	-0.09983149
141	0xbbf7a2a0	-0.007557228
142	0x3dab3a68	0.083607495
143	0x3dd8a9ac	0.10579237
144	0xbdff12c2	-0.1245475
145	0xbcc6361e	-0.024195727
146	0xbd901c47	-0.070366435
147	0x3bc936a0	0.006140545
148	0xbb41288a	-0.0029473626
149	0xbe0daae3	-0.1383472
150	0x3cf741a6	0.03018267
151	0xbd48c8b8	-0.049019545
152	0xbdaf4eda	-0.085599616
153	0xbd5e923c	-0.05433868
154	0x3d42eb64	0.047587767
155	0xbd6695ec	-0.05629532
156	0x3d0a9699	0.033835027
157	0xbce91c6d	-0.028455937
158	0x3d05f9a8	0.032708794
159	0xbcb2bca8	-0.021818474
160	0xbb349400	-0.0027554035
161	0xbdb91fe8	-0.09039289
162	0x3d7d9460	0.06190908
163	0xbd343488	-0.04399541
164	0xbd8387ff	-0.064224236
165	0x3c3b5072	0.011432754
166	0xbd09877f	-0.033576485
167	0x3d552267	0.05203476
168	0xbd0e832b	-0.03479306
169	0x3da14e3c	0.0787625
170	0xbbb4f600	-0.0055224895
171	0x3d9f18ce	0.07768403
172	0x3d170664	0.03687133
173	0xbcdd8180	-0.02703929
174	0x3db4c2ee	0.088262424
175	0xbdb6da5e	-0.08928369
176	0xbdefe5b2	-0.11713733
177	0x3cb8815b	0.022522619
178	0xbd6bdb7b	-0.05758236
179	0x3cb0a0c0	0.021561027
180	0x3d178b71	0.036998216
181	0xbd4bfb64	-0.04980029
182	0x3ca67385	0.020318756
183	0x3db5787a	0.0886087
184	0x3da62c1c	0.08113882
185	0x3d93a700	0.07209587
186	0xbe11d0b5	-0.14239772
187	0xbd8e9357	-0.069616966
188	0xbcc61558	-0.0241801
189	0xbca6b634	-0.020350553
190	0x3d885eb4	0.06658688
191	0xbd2748d8	-0.040840954
192	0x3d9c2f2c	0.07626185
193	0xbdc269f2	-0.09492864
194	0x3de8311a	0.113374904
195	0xbd9a0706	-0.07520871
196	0x3de3fb6c	0.11131939
197	0xbd2a4b14	-0.041575506
198	0xbd8c3f5e	-0.06848024
199	0xbd0e8a78	-0.034800023
200	0x3d2a38cc	0.041558072
201	0xbd5736bc	-0.052542433
202	0xbdb52338	-0.08844608
203	0xbcb4b228	-0.022057608
204	0x3da2c266	0.07947235
205	0xbde14868	-0.110001385
206	0xbd1ada30	-0.037805736
207	0xbc3fc570	-0.011704788
208	0xbc11e590	-0.00890483
209	0xbd765254	-0.060137108
210	0xbd2159b4	-0.03939219
211	0xbddfa0e2	-0.10919358
212	0xba34c600	-0.00068959594
213	0xbdafe734	-0.0858902
214	0x3d2d30a0	0.0422827
215	0x3dd65938	0.10466236
216	0xbc94c868	-0.018161967
217	0xbd0f60b4	-0.035004333
218	0x3cbf9750	0.023387581
219	0xbd35a760	-0.044349074
220	0x3ccdc8d8	0.025120184
221	0xbc8d6688	-0.017260805
222	0xbd14f95c	-0.03637062
223	0xbc70c6b0	-0.014695808
224	0x3d96230e	0.07330905
225	0x3df99bfe	0.12187956
226	0x3d0cf0e8	0.034409434
227	0xbc75f830	-0.015012786
228	0xbd152ae0	-0.036417842
229	0xbdcd4e08	-0.10024649
230	0x3d38fae8	0.045161158
231	0xbd4edd8c	-0.050504252
232	0xbdd06e20	-0.10177255
233	0xbd524bd8	-0.05134186
234	0xbdf3e644	-0.11909154
235	0xbd874f50	-0.066069245
236	0xbd9b18fc	-0.07573125
237	0x3de610ce	0.11233674
238	0x3ba34e20	0.0049836785
239	0xbd318340	-0.04333806
240	0x3d9f53be	0.077796444
241	0xbd760dc0	-0.060071707
242	0x3da428d0	0.08015597
243	0x3bc2f4e0	0.0059496015
244	0x3d8aa3fe	0.0676956
245	0xbd9db1a8	-0.07699901
246	0xbd1ab3e0	-0.0377692
247	0xbd8f79ee	-0.07005678
248	0x3de9acde	0.11409925
249	0xbd94f3ea	-0.072730854
250	0x3bbc7520	0.005751267
251	0x3c854bf8	0.016271576
252	0xbdc3a504	-0.095529586
253	0xbdd7f254	-0.10544267
254	0xbdf0b176	-0.11752598
255	0x3c34ba00	0.011030674

fc3.bias f4 [64]
0	0xbde8951a	-0.11356564
1	0x3e09c56b	0.13454215
2	0xbd52ef5c	-0.051497802
3	0x3d195bfc	0.03744124
4	0x3fe1eeb4	1.7650971
5	0x3e495687	0.19661914
6	0x3dde5944	0.1085687
7	0x3e29bdb5	0.16576274
8	0x3ea995e6	0.33122176
9	0x3e9dba41	0.30806163
10	0x3e070638	0.13185966
11	0xbd3384c4	-0.043827787
12	0x3e272406	0.16322336
13	0xbdfa1956	-0.12211864
14	0x3dff459a	0.12464447
15	0xbdba02f0	-0.090825915
16	0xbcb41f52	-0.021987591
17	0x3ea2abe1	0.31771758
18	0x3e36cdb5	0.17851909
19	0xbdd0dcc8	-0.10198361
20	0xbe087840	-0.13327122
21	0x3c8919d2	0.016735945
22	0x3e44f95e	0.19235751
23	0x3e7b4fcb	0.24542157
24	0xbd33e76e	-0.04392188
25	0x3e56f5e3	0.20992236
26	0x3d1cf6c8	0.038321286
27	0xbdb4170a	-0.08793457
28	0x3d60fb98	0.05492744
29	0xbd85cffb	-0.0653381
30	0x3d8c9553	0.06864419
31	0xbde1267c	-0.109936684
32	0x3e842050	0.25805902
33	0x3e9bb467	0.30411074
34	0x3e1d1fcc	0.15344161
35	0xbe11eaf4	-0.14249784
36	0xbc82c313	-0.01596216
37	0x3e208e86	0.15679368
38	0x3e58347d	0.21113773
39	0x3e76e85e	0.24112079
40	0x3ea3e362	0.32009417
41	0xbd16a652	-0.03677971
42	0x3e9cf6de	0.30657095
43	0x3dead7d4	0.11466947
44	0xbcdb3260	-0.02675742
45	0x3dce5437	0.100746565
46	0x3d855608	0.0651055
47	0xbca0b8c4	-0.019619353
48	0x3e294940	0.16531849
49	0x3e820f87	0.2540247
50	0xbcd5e53d	-0.026110286
51	0x3e381ecd	0.179805
52	0x3ea72382	0.32644278
53	0x3be991e5	0.0071279877
54	0xbe14159b	-0.14461367
55	0xbcac73f8	-0.021051392
56	0x3e9eea8f	0.3103833
57	0xbde3a03c	-0.11114547
58	0x3c0666c0	0.008203208
59	0x3e1618ef	0.14657949
60	0xbca96450	-0.020677716
61	0x3c194f0e	0.009357227
62	0x3e823de2	0.25437838
63	0x3e87a0d7	0.264899

mean_fc.weight f4 [4, 64]
0	0x3d0d8914	0.034554556
1	0xbef33bd3	-0.4750658
2	0x3c2b7ca1	0.010466726
3	0x3db03e30	0.08605611
4	0xc0025b14	-2.036809
5	0xbf132c6e	-0.5748967
6	0xbf0fc6f5	-0.5616296
7	0xbf0cf931	-0.55067736
8	0xbf3851cf	-0.7199983
9	0xbf15bc56	-0.584905
10	0xbf04ef57	-0.51927704
11	0x3ba36d40	0.004987389
12	0xbf0f52f6	-0.55985963
13	0xbb183c52	-0.0023229313
14	0xbf0b2208	-0.543488
15	0x3d8df074	0.069306284
16	0xbc87ddbf	-0.016585229
17	0xbf2f2399	-0.6841369
18	0xbf032f82	-0.51244366
19	0x3dd49982	0.10380842
20	0xbc635d8f	-0.013877287
21	0xbc209062	-0.009800049
22	0xbf1f5d01	-0.6225129
23	0xbef850df	-0.484992
24	0xbc0dacdc	-0.00864717
25	0xbea60622	-0.32426554
26	0x3d93a75a	0.07209654
27	0xbdc434dc	-0.095803946
28	0xbdcd45e0	-0.10023093
29	0x3d9d9e45	0.07696203
30	0xbefc5f5d	-0.49291506
31	0xbd8eb29e	-0.06967662
32	0xbf0b8fd0	-0.54516315
33	0xbef20b90	-0.47274446
34	0xbef2b7c9	-0.47405842
35	0xbcfa0700	-0.030520916
36	0x3da5f164	0.08102682
37	0xbf162fda	-0.58666766
38	0xbf031e82	-0.51218426
39	0xbf030a26	-0.5118736
40	0xbf0142c5	-0.5049251
41	0xbcf02138	-0.029312715
42	0xbf065124	-0.5246756
43	0x3c358808	0.011079796
44	0xbd26d7a0	-0.04073298
45	0xbcdea72f	-0.027179329
46	0xbc73bae2	-0.014876099
47	0x3dde43ec	0.10852799
48	0xbf174bfb	-0.5910031
49	0xbf076901	-0.528946
50	0x3d9ee215	0.077579655
51	0xbf0e8c31	-0.55682665
52	0xbf06e60e	-0.52694786
53	0xbd87a908	-0.06624037
54	0x3dbec925	0.09315709
55	0x3cb22ce0	0.021749914
56	0xbf0c5afd	-0.5482634
57	0x3b4cd040	0.0031252056
58	0xbda97048	-0.08273369
59	0xbf1a8103	-0.60353106
60	0x3ddff1e4	0.10934809
61	0xbdaf7906	-0.08568005
62	0xbef6b8e5	-0.48187938
63	0xbf0aff64	-0.54295945
64	0xbd71e1c8	-0.059053212
65	0xbf1ec6b9	-0.62021977
66	0x3d3a8820	0.045539975
67	0xbd2a6a04	-0.04160501
68	0xc0023395	-2.0343983
69	0xbf3bfcdf	-0.73432726
70	0xbf0e4e3e	-0.5558814
71	0xbf0aa64a	-0.54159987
72	0xbf227043	-0.6345255
73	0xbf06f807	-0.5272221
74	0xbf12f8e9	-0.57411057
75	0xbcbfd9b0	-0.023419231
76	0xbec96e99	-0.39342192
77	0xbbe7b529	-0.0070711565
78	0xbefe9cd1	-0.49729016
79	0x3da8d6b4	0.08244076
80	0xbdc1ea92	-0.09468569
81	0xbf047116	-0.51735055
82	0xbf0ca147	-0.5493359
83	0xbce7a0c0	-0.028274894
84	0x3d270ac5	0.040781755
85	0x3da04cb8	0.07827133
86	0xbf2234ae	-0.6336163
87	0xbefee59a	-0.49784547
88	0xbdbe50d5	-0.09292761
89	0xbe878d2e	-0.264749
90	0x3c7b7dad	0.015349788
91	0xbd72b1a8	-0.059251457
92	0x3be322d5	0.0069316425
93	0xbd9ea3f3	-0.077461146
94	0xbe9ff4e4	-0.31241524
95	0xbdbbcb0a	-0.09169586
96	0xbeed8093	-0.46387157
97	0xbf10632d	-0.5640133
98	0xbf1c041b	-0.60943764
99	0x3d183748	0.037162095
100	0x3d453dc9	0.048154626
101	0xbeddf02f	-0.43347308
102	0xbee0f3fc	-0.43936145
103	0xbef16cf8	-0.4715345
104	0xbf1f3f82	-0.6220628
105	0xbd74cee3	-0.059767615
106	0xbf020cad	-0.5080059
107	0xbcfd595f	-0.030926405
108	0xbd7f33a8	-0.062305123
109	0xbd8d2d84	-0.06893447
110	0xbb09f2e4	-0.0021049315
111	0x3dc077bd	0.09397838
112	0xbf24915b	-0.64284295
113	0xbeb8dbfd	-0.36105338
114	0x3d9baebf	0.076016895
115	0xbf131f95	-0.57470065
116	0xbef0464a	-0.46928626
117	0xbde060a7	-0.10955935
118	0x3c4abe10	0.012374416
119	0x3ded5f96	0.11590497
120	0xbec72842	-0.38897902
121	0x3dc77ab8	0.097402036
122	0x3dddccb6	0.10830061
123	0xbf0e9955	-0.55702716
124	0x3d0de7b4	0.034644797
125	0xbda64222	-0.081180826
126	0xbf2961a2	-0.661646
127	0xbed0459d	-0.4067811
128	0x3dcdc482	0.100472465
129	0xbe9a603d	-0.3015155
130	0x3dc088c0	0.09401083
131	0xbae61b80	-0.0017555803
132	0xc00d2ed4	-2.2059832
133	0xbe9f8082	-0.3115273
134	0xbec6cbd1	-0.38827375
135	0xbe9b1f16	-0.30297154
136	0xbef15e63	-0.47142324
137	0xbe8f67f0	-0.28008986
138	0xbe5ab858	-0.21359384
139	0xbd3eef58	-0.046614975
140	0xbeab538c	-0.3346218
141	0x3d3d00b3	0.046143245
142	0xbe586d37	-0.21135412
143	0xbcae99ae	-0.021313515
144	0x3dbc1601	0.091838844
145	0xbe9b8545	-0.30375114
146	0xbf053c43	-0.5204508
147	0xbd926552	-0.071482316
148	0xbd02e51b	-0.031956773
149	0xbd892f09	-0.06698424
150	0xbee96772	-0.45586735
151	0xbe84009b	-0.25781712
152	0x3d756da3	0.05991901
153	0xbf21b9b7	-0.63174003
154	0x3d459d20	0.04824555
155	0x3dd0c088	0.101929724
156	0x3d867a1a	0.06566258
157	0xbd94de51	-0.07268966
158	0xbe886962	-0.266429
159	0x3c282720	0.010263234
160	0xbe930af9	-0.2871931
161	0xbec2f3c3	-0.380766
162	0xbeaf21a5	-0.34205356
163	0x3d666e36	0.05625745
164	0x3d841b5c	0.06450531
165	0xbea31c3a	-0.31857473
166	0xbe9df73b	-0.30852684
167	0xbec8de3f	-0.3923206
168	0xbeb23b52	-0.34810883
169	0x3d60bff6	0.05487057
170	0xbe799fa0	-0.24377298
171	0xbd3880ba	-0.04504464
172	0x3d4003e4	0.04687871
173	0x3deb2a6c	0.11482701
174	0xbc19a118	-0.009376787
175	0x3cf96786	0.030444872
176	0xbe9900b8	-0.2988336
177	0xbeb5a2dd	-0.35475817
178	0xbc07a639	-0.008279377
179	0xbe898a72	-0.26863438
180	0xbeeb65b4	-0.4597603
181	0x3d94091f	0.07228302
182	0xbe040a06	-0.12894449
183	0xb9d8d000	-0.00041353703
184	0xbea9b359	-0.33144644
185	0xbd245cf4	-0.04012771
186	0x3c030d40	0.0079987645
187	0xbec5ef6a	-0.3865922
188	0xbdbd3e58	-0.09240407
189	0xbef6c6ea	-0.48198634
190	0xbebdd6b3	-0.37077865
191	0xbec6186a	-0.386905
192	0xbd3d1b04	-0.046168342
193	0xbe97285a	-0.29522973
194	0xbd853dae	-0.06505905
195	0x3d2cdb28	0.04220119
196	0xc00a6b72	-2.162808
197	0xbe7b22a4	-0.24524933
198	0xbeb5cccb	-0.35507807
199	0xbe434578	-0.19069469
200	0xbd24f299	-0.04027042
201	0xbda52bad	-0.08064971
202	0xbe5986a9	-0.21242775
203	0xbd127808	-0.035759002
204	0xbe617d11	-0.22020365
205	0x3c5bb2fa	0.013409371
206	0xbe6edc46	-0.23326215
207	0x3b7cf386	0.00385973
208	0xbca470bd	-0.020073289
209	0xbe26543c	-0.1624307
210	0xbeea57c9	-0.457701
211	0xbd8b727a	-0.06808944
212	0x3d3e1676	0.04640814
213	0xbc5ebcbf	-0.013594805
214	0xbf1c7d37	-0.6112856
215	0xbe1d98c3	-0.15390305
216	0x3d7b5bf9	0.06136701
217	0xbf2736ec	-0.6531818
218	0xbd4eac80	-0.050457478
219	0x3d5418f4	0.05178161
220	0xbcc5798b	-0.024105808
221	0x3ddb9f07	0.107236914
222	0xbe673824	-0.2258001
223	0xbdba4186	-0.09094529
224	0xbe2ba651	-0.16762663
225	0xbe0fd836	-0.14047322
226	0xbe781241	-0.24225713
227	0xbd56d76e	-0.052451544
228	0xbadc8904	-0.0016825502
229	0xbdae943c	-0.08524367
230	0xbe5ec51c	-0.21754879
231	0xbdc2937e	-0.09500788
232	0xbdcb6215	-0.09930817
233	0xbd052be2	-0.032512553
234	0xbe1bfa69	-0.15232243
235	0x3dc48b2c	0.095968574
236	0xbc178550	-0.009248093
237	0xbdf6a2d2	-0.12042774
238	0xbd0e187c	-0.03469132
239	0x3cf7dd33	0.030256843
240	0xbcedfcb0	-0.029051155
241	0xbe424078	-0.18969905
242	0xbdfe9953	-0.12431588
243	0xbe64baaf	-0.22336839
244	0xbd96e36f	-0.07367598
245	0x3d41608e	0.047211222
246	0xbda5c814	-0.080948025
247	0x3d39123c	0.045183405
248	0xbe2ddaa2	-0.16977933
249	0x3d680744	0.056647554
250	0x3df4cca6	0.11953096
251	0xbe70297b	-0.23453324
252	0xbcfaf908	-0.030636325
253	0xbeb8e594	-0.36112654
254	0xbe906d88	-0.28208566
255	0xbe498dcb	-0.19682996

mean_fc.bias f4 [4]
0	0xbea9f912	-0.33197838
1	0xbebd20e1	-0.36939147
2	0xbe8e8918	-0.2783897
3	0xbdfd88a1	-0.123795755

var_fc.weight f4 [4, 64]
0	0x3d896410	0.067085385
1	0xbe18101d	-0.14849897
2	0x3d94d74d	0.07267628
3	0x3d024c0c	0.031810805
4	0x3c0ffbde	0.008788077
5	0xbdd6f64f	-0.104961984
6	0x3c8cec95	0.017202655
7	0xbd01a31e	-0.0316497
8	0xbd131bfb	-0.035915356
9	0x3d70d139	0.05879328
10	0xbe1c3ea7	-0.15258275
11	0xbdbef540	-0.093241215
12	0x3c00ef40	0.007869542
13	0x3ca39fa1	0.019973578
14	0xbc3f5c50	-0.011679724
15	0xbbb694e1	-0.005571947
16	0x3db83474	0.0899438
17	0x3ce228e8	0.027607396
18	0x3d24071f	0.040045854
19	0xbdcd33c0	-0.10019636
20	0x3c698c3e	0.014254628
21	0x3d2548bc	0.040352568
22	0x3d20609d	0.039154638
23	0xbd5a60cb	-0.053314965
24	0x3dd33a97	0.103139095
25	0xbdec0ef2	-0.11526288
26	0xbe0c7b0b	-0.13718812
27	0x3ddb8e34	0.107204825
28	0x3c58e15c	0.013237324
29	0x3d38340a	0.044971503
30	0xbdc07b09	-0.09398467
31	0x3dab7dfc	0.08373639
32	0x3d0385e1	0.0321101
33	0xbd97dd31	-0.07415236
34	0xbd9cd2d0	-0.07657397
35	0xbd2abb67	-0.041682627
36	0xbdb5ca1d	-0.08876441
37	0xbd8b2851	-0.06794799
38	0x3c80b722	0.015712325
39	0xbe26c942	-0.16287711
40	0x3b981a1d	0.004641785
41	0x3dd8cf65	0.10586432
42	0xbe4147f5	-0.18875106
43	0x3da0a69f	0.078442805
44	0x3df01b46	0.11723952
45	0xbd4b8fc8	-0.049697667
46	0x3db45350	0.08804953
47	0xbd10327e	-0.035204403
48	0xbca43c6c	-0.020048343
49	0xbdc60a74	-0.096699625
50	0xbbabdc95	-0.0052448013
51	0xbe3c7778	-0.18404949
52	0xbe0de7a2	-0.13857892
53	0xbd2394b5	-0.03993674
54	0x3d3d1a5f	0.046167728
55	0xbdee80fc	-0.116456956
56	0x3d2ed8b8	0.042687148
57	0xbd3e1a24	-0.04641165
58	0xbd17ba84	-0.03704311
59	0x3c75b591	0.014996902
60	0x3dccf606	0.10007863
61	0xbe10bfae	-0.1413562
62	0x3cda24fd	0.026628966
63	0xbd7feac6	-0.062479757
64	0xbd6ef074	-0.058334783
65	0xbd2b8ed9	-0.041884277
66	0x3d4e1b97	0.05031928
67	0x3c8cef20	0.017203867
68	0x3c2ce803	0.010553363
69	0xbc8edde2	-0.017439786
70	0xbc55d736	-0.013051799
71	0xbe0c07db	-0.13674872
72	0xbd3b88b8	-0.045784682
73	0xbe3bb047	-0.18328963
74	0xba1f3485	-0.00060731947
75	0x3de4f6b6	0.11179869
76	0xbda058c6	-0.07829432
77	0xbda4fb79	-0.08055777
78	0x3cad34ea	0.021143395
79	0x3d23af82	0.0399623
80	0x3d67960d	0.056539584
81	0xbdc390a4	-0.095490724
82	0xb7ba5c1a	-2.2215816e-05
83	0x3da5f3ea	0.081031635
84	0x3d051171	0.032487337
85	0x3ddac61c	0.106823176
86	0xbddc43db	-0.1075513
87	0xbd727a05	-0.0591984
88	0xbd7c276c	-0.061561033
89	0x3cf1bc5c	0.029508762
90	0xbb8f226c	-0.004368117
91	0xbdbf8fbe	-0.093535885
92	0xbd82e1ad	-0.063907005
93	0xbb7d762a	-0.0038675168
94	0xbdaaeba8	-0.08345729
95	0x3de98dd0	0.11404002
96	0xbd9e5763	-0.077315114
97	0xbd97b726	-0.0740798
98	0xbcbee372	-0.023301814
99	0x3d5fc6f0	0.05463308
100	0xbd2935d6	-0.041311108
101	0x3cc26d7a	0.023733843
102	0x3d4b00c7	0.04956129
103	0xbc16378f	-0.00916852
104	0xbd14fa8d	-0.036371756
105	0xbc85f353	-0.016351378
106	0xbe2acd99	-0.16679992
107	0xbd99ae05	-0.07503895
108	0x3a861500	0.0010229647
109	0x3d8707dc	0.06593296
110	0x3db6949f	0.08915066
111	0x3d5d962a	0.054098286
112	0x3d037df4	0.03210254
113	0xbdf021a3	-0.11725166
114	0x3cd41bfb	0.025892248
115	0xbe2fb56b	-0.17159049
116	0xbae33d87	-0.0017337062
117	0x3d3d0ae9	0.046152983
118	0xbdb1f807	-0.086898856
119	0xbdec4b1e	-0.11537765
120	0xbe4c4aa4	-0.19950348
121	0xbdc47eb2	-0.09594478
122	0x3daf18b0	0.08549631
123	0x3c102586	0.008798009
124	0x3defc1a4	0.11706856
125	0xbe085d33	-0.13316803
126	0x3d231b48	0.03982094
127	0x3a9c0591	0.0011903514
128	0x3d060104	0.032715812
129	0x3cbe3acb	0.023221394
130	0xbb3b43fa	-0.0028574453
131	0x3d1779c4	0.03698136
132	0x3beeaf72	0.0072840983
133	0xbc24ef5f	-0.010066836
134	0x3df8be66	0.121456906
135	0xbda996f1	-0.08280743
136	0xbd355bc8	-0.044276983
137	0xbe3ac7ed	-0.18240328
138	0x3d55e4ac	0.05222003
139	0xbdf1ee6e	-0.11813055
140	0xbe38f540	-0.18062305
141	0xbd952b29	-0.07283623
142	0x3bb92172	0.005649739
143	0xbd5d22cb	-0.05398826
144	0xbac9f0cc	-0.0015406846
145	0x3d1c4e0e	0.038160376
146	0x3d445f1c	0.047942266
147	0x3db1b674	0.08677378
148	0x3d2d5b19	0.042323206
149	0xbdbfdb2d	-0.09367976
150	0x3d0d0c04	0.034435287
151	0x3d26bb51	0.040705983
152	0xbc2f2504	-0.010689978
153	0xbddfeecb	-0.10934218
154	0x3d65eaf5	0.056132276
155	0xbb9d3a20	-0.004798189
156	0xbd170dc2	-0.036878355
157	0x3d5aa7c6	0.053382657
158	0xbdac2c61	-0.08406902
159	0xbd02668c	-0.031836078
160	0xbe2045eb	-0.15651672
161	0x3d17b16a	0.03703443
162	0xbe1f49f9	-0.15555562
163	0xbdad0a6e	-0.08449255
164	0xbde89c05	-0.11357883
165	0xbc8287bb	-0.015933862
166	0xbd2a463f	-0.0415709
167	0xbde99162	-0.11404683
168	0xbe5c5888	-0.21518147
169	0x3a619a67	0.00086060766
170	0xbcbb875f	-0.022891698
171	0xbdea7d6b	-0.11449703
172	0x3dafe070	0.0858773
173	0xbba23002	-0.0049495706
174	0x3d9fcc4b	0.07802638
175	0x3dd9afb1	0.106292136
176	0x3d253a9b	0.040339094
177	0xbe3ab7d1	-0.18234183
178	0xbceeb044	-0.029136784
179	0xbe53eb14	-0.20695144
180	0x3c862895	0.016376773
181	0x3da06c94	0.0783321
182	0xbb0378ed	-0.002006109
183	0x3df53250	0.11972487
184	0x3c345468	0.011006452
185	0x3c106f20	0.008815557
186	0xbca275e0	-0.019831598
187	0xbdbca152	-0.09210457
188	0x3d57bff0	0.05267328
189	0xbe4625ce	-0.19350359
190	0xbda296e7	-0.079389386
191	0x3d2b0ab8	0.04175827
192	0x3d175068	0.036941916
193	0x3e10bf2d	0.14135428
194	0x3d8635dc	0.065532416
195	0x3d9db25a	0.077000335
196	0x3cde0617	0.027102513
197	0x3d810483	0.06299689
198	0xbd9a83b1	-0.075446494
199	0x3cfee03a	0.031112779
200	0x3d2eecf2	0.042706437
201	0x3d7ae1f0	0.061250627
202	0xbe27d253	-0.16388826
203	0xbd932a82	-0.07185842
204	0x3da64210	0.08118069
205	0xbccca65e	-0.024981674
206	0xbc461d73	-0.012091982
207	0x3dd47a32	0.103748694
208	0x3d87bf24	0.06628254
209	0x3d2eef60	0.042708755
210	0xbc6c01ed	-0.014404756
211	0xbd577354	-0.05260022
212	0x3cdd5631	0.027018638
213	0x3babe143	0.005245359
214	0x3d9b90f6	0.075960085
215	0xbaac0c49	-0.001312622
216	0xbd603e11	-0.05474669
217	0xbda036f7	-0.07822984
218	0x3d846b0a	0.064657286
219	0xbd029074	-0.031876042
220	0x3ddb1461	0.10697246
221	0xbc964824	-0.018344946
222	0x3dee3954	0.11632028
223	0xbddaedc4	-0.106898814
224	0x3da7970f	0.08183109
225	0x3d9ebab7	0.07750457
226	0x3daf9e46	0.0857511
227	0xbdd5eba6	-0.10445337
228	0xbde7cadd	-0.1131799
229	0x3c24aa2f	0.010050341
230	0xbddad156	-0.10684459
231	0x3d0f017d	0.03491353
232	0x3e6d424b	0.2316982
233	0x3dbdbf25	0.092649736
234	0x3d086750	0.03330165
235	0xbcf0e298	-0.029404923
236	0xbd86c988	-0.06581408
237	0x3c0921c7	0.00836987
238	0x3dde89f9	0.1086616
239	0x3ddb7d8e	0.10717307
240	0x3b56e6a0	0.0032791272
241	0x3d56e82b	0.052467506
242	0xbd8b6013	-0.06805434
243	0x3d841a30	0.06450307
244	0x3d790dc8	0.06080416
245	0x3d91ee40	0.07125521
246	0x3da3cd5d	0.07998154
247	0xbda033b2	-0.0782236
248	0x3dc1489b	0.094376765
249	0xbdd5c6bc	-0.10438296
250	0x3cf11d08	0.029432788
251	0x3d364d26	0.04450717
252	0x3dbd7858	0.092514694
253	0x3e1decf6	0.15422425
254	0x3d5fe735	0.054663856
255	0x3d9266e0	0.07148528

var_fc.bias f4 [4]
0	0xbe17c81b	-0.14822428
1	0xbd20c4da	-0.039250232
2	0xbe0aeabf	-0.13566111
3	0x3e05078e	0.12991163
