DeepAcTS/networks/intermediary/OLD_Runs/intermediary_valnet_rX_end.pth (torch, 3231 bytes, 4 tensors)

fc1.weight f4 [64, 4]
-0.42602286 0.2965677 0.4161633 0.18835881 -0.28623968 0.40182012 0.73152196 0.29862973
-0.022511065 0.08034158 0.21859473 7.8737736e-05 -0.33453983 0.1410472 0.37670577 -0.0114406785
-0.06114396 0.20081924 0.89260834 -0.054678082 -0.6475822 -0.062447563 0.76522213 -0.24883224
0.07061913 -0.54714465 0.41403568 0.29750955 -3.4485967 -0.15733144 6.6946106 3.114411
-0.7551 0.26522076 0.5193404 0.7283762 -0.47990295 -0.27764517 0.25397846 0.4107157
-0.055537656 0.19871853 0.3135795 0.6020892 0.0103300745 -0.37911767 0.85906434 -0.19603844
-0.52192146 0.5460647 1.1366549 0.14943449 -0.6836511 0.25467184 0.8297291 0.6420239
-0.42495245 0.46610215 0.815835 0.20980577 -3.1746085 -0.059798915 6.3969097 3.1591842
-3.6390164 0.21147943 6.15032 3.1009665 0.107040964 0.25974372 0.35741365 0.43805623
-3.0011487 -0.379826 6.1651015 2.5127623 0.07436379 -0.43889028 -0.12699863 0.28153315
-0.7957525 0.15905945 1.0613565 0.040312253 -3.8683863 -0.37085864 6.0227733 2.9312992
-0.13078906 0.006636493 0.52573454 0.42929804 -0.6295023 -0.12530348 1.2791835 -0.014599829
-0.07411453 -0.04273396 0.75937116 0.04802919 0.22055694 0.21122189 0.6621325 0.053115256
-0.26166412 -0.16846192 0.2697094 0.49419567 -0.6502891 0.077642135 0.28174466 0.3267034
0.044537295 -0.32589653 0.8579185 0.12708229 -0.12851332 0.07982891 0.47753674 0.110187076
0.022828696 -0.039471652 1.1775607 -0.11365363 0.021475697 -0.40237153 0.3395634 -0.24869156
0.008882806 -0.32210752 -0.30139688 0.40630597 0.094753906 -0.4844614 0.43094587 -0.12760912
0.18273945 -0.28412127 0.23391645 0.05413674 -0.6768949 -0.02842265 0.36667106 0.06457661
0.011633771 0.12171438 0.5705139 0.6829478 0.99646276 -1.2604817 -2.070482 0.22795974
0.3979552 0.29486665 0.07477821 0.7567781 -0.1769396 0.7862105 0.8445245 -0.059302248
-0.1724888 -0.16938426 0.36352327 0.56782365 -0.4064646 -0.23650692 0.7742686 0.32272944
-0.58353525 0.02160614 1.1833565 -0.12667458 -0.77026707 -0.2515489 0.7632647 -0.078930736
0.21962728 -0.41310465 0.23659046 0.34604058 0.16202982 0.2368201 0.1513662 0.6064267
-0.72985774 1.0484834 2.1809225 -0.14462757 0.26445708 0.040597163 0.30458134 0.52326226
0.016933504 -0.0035865407 0.30941793 0.13270514 0.07397632 -0.3058942 -0.22244392 0.5661093
0.044003665 -0.19083196 0.1804735 -0.102862895 -0.14987858 -0.22546332 0.027787896 -0.009021126
-0.7106662 0.36871496 0.92020553 -0.06406925 -0.6598937 -0.34271333 0.7827884 0.16907118
-0.034560412 0.11417804 0.9891654 0.52039737 0.1342949 -0.73226136 -0.19311248 0.055781677
-0.9978977 -0.36522534 0.94533706 -0.14291516 3.4725006 0.6663781 -6.03155 -2.7107797
3.2824929 -0.330449 -5.1031156 -2.757743 0.16036832 0.2994671 0.73813945 -0.0035198133
1.5358421 -1.2636971 -2.3153982 0.20116833 -0.58493763 -0.025267571 0.025980443 0.4770767
0.07924113 -0.11958023 0.2546717 0.25959384 -1.87287 -0.9666452 2.6166697 0.9492296
00000000: ab1f dabe b9d7 973e 5b13 d53e 22e1 403e
00000010: 028e 92be 5ebb cd3e 0645 3b3f ffe5 983e
00000020: 2069 b8bc 208a a43d 4cd7 5f3e 0020 a538
00000030: ce48 abbe ad6e 103e 94df c03e af71 3bbc
00000040: 1772 7abd 8fa3 4d3e fb81 643f 20f6 5fbd
00000050: f2c7 25bf 04c9 7fbd 99e5 433f e1cd 7ebe
00000060: c3a0 903d ac11 0cbf 7cfc d33e 2c53 983e
00000070: cfb5 5cc0 7e1b 21be 403a d640 8352 4740
00000080: 3c4e 41bf 04cb 873e 7ef3 043f dd76 3a3f
00000090: d7b5 f5be 8227 8ebe 7709 823e 5449 d23e
000000a0: 747b 63bd df7c 4b3e 7e8d a03e 8522 1a3f
000000b0: 793f 293c b61b c2be a4eb 5b3f 4dbe 48be
000000c0: a59c 05bf e5ca 0b3f e87d 913f 5b05 193e
000000d0: c203 2fbf 5964 823e 2069 543f ae5b 243f
000000e0: 5e93 d9be f1a4 ee3e 90da 503f 53d7 563e
000000f0: c92c 4bc0 b5ef 74bd 7cb3 cc40 1330 4a40
00000100: a5e5 68c0 108e 583e 6ccf c440 3c76 4640
00000110: 4b38 db3d 21fd 843e ecfe b63e e848 e03e
00000120: d212 40c0 8e78 c2be 8348 c540 19d1 2040
00000130: 0b4c 983d 3ab6 e0be ee0b 02be 1d25 903e
00000140: 70b6 4bbf 7be0 223e 88da 873f 761e 253d
00000150: a493 77c0 2fe1 bdbe 8fba c040 689a 3b40
00000160: 91ed 05be f076 d93b 8a96 063f f4cc db3e
00000170: 1027 21bf 8e4f 00be 49bc a33f 1f34 6fbc
00000180: 5cc9 97bd ce09 2fbd 2666 423f 42ba 443d
00000190: aed9 613e 8d4a 583e 8481 293f 628f 593d
000001a0: d7f8 85be 4881 2cbe 5a17 8a3e 3707 fd3e
000001b0: 5979 26bf d702 9f3d d640 903e ab45 a73e
000001c0: bd6c 363d e9db a6be 8ca0 5b3f dc21 023e
000001d0: ff98 03be 577d a33d b27f f43e c3a9 e13d
000001e0: 3f03 bb3c 07ad 21bd 4fba 963f 3cc3 e8bd
000001f0: cded af3c a403 cebe 41db ad3e 00a9 7ebe
00000200: 3089 113c 47eb a4be b150 9abe 5607 d03e
00000210: 560e c23d 530b f8be f0a4 dc3e f7ab 02be
00000220: 0d20 3b3e 5878 91be cb87 6f3e 7cbe 5d3d
00000230: fc48 2dbf 9ed6 e8bc 4fbc bb3e be40 843d
00000240: 929b 3e3c 6445 f93d 330d 123f abd5 2e3f
00000250: 2f18 7f3f 7757 a1bf c782 04c0 476e 693e
00000260: c9c0 cb3e c3f8 963e 5125 993d 36bc 413f
00000270: a82f 35be 1745 493f c232 583f eae6 72bd
00000280: e7a0 30be 1173 2dbe b91f ba3e e45c 113f
00000290: 211c d0be df2e 72be 7836 463f cb3c a53e
000002a0: 9162 15bf 5cff b03c 3a78 973f fbb6 01be
000002b0: 3930 45bf 04cb 80be 5165 433f 70a6 a1bd
000002c0: f9e5 603e 7482 d3be c544 723e 3b2c b13e
000002d0: 25eb 253e f880 723e beff 1a3e c83e 1b3f
000002e0: f5d7 3abf b434 863f 3c94 0b40 4019 14be
000002f0: eb66 873e 3649 263d 16f2 9b3e 84f4 053f
00000300: 22b8 8a3c 2b0c 6bbb 076c 9e3e dbe3 073e
00000310: e680 973d 2a9e 9cbe 57c8 63be 8aec 103f
00000320: 303d 343d 7469 43be 0cce 383e c8a9 d2bd
00000330: c579 19be dbdf 66be 71a3 e33c 58cd 13bc
00000340: 38ee 35bf 35c8 bc3e 9792 6b3f bd36 83bd
00000350: cbee 28bf 1f78 afbe d264 483f ff20 2d3e
00000360: 388f 0dbd 2dd6 e93d f239 7d3f c338 053f
00000370: 9a84 093e 7b75 3bbf 47bf 45be 547b 643d
00000380: 3976 7fbf d1fe babe 9c01 723f 5a58 12be
00000390: 733d 5e40 c197 2a3f 7502 c1c0 6a7d 2dc0
000003a0: 5d14 5240 9c30 a9be b94c a3c0 dc7e 30c0
000003b0: 9837 243e c053 993e b5f6 3c3f abac 66bb
000003c0: 7996 c43f d4c0 a1bf 7c2f 14c0 12ff 4d3e
000003d0: 79be 15bf f0fd cebc f0d4 d43c 6643 f43e
000003e0: 2c49 a23d 7be6 f4bd 5464 823e 7ce9 843e
000003f0: 34ba efbf 0f76 77bf 8477 2740 b600 733f

fc1.bias f4 [64]
1.917216 1.4700024 -0.32921374 1.9076954 1.6417156 1.8404002 1.8197223 0.89999384
1.8326075 1.7880079 1.4083441 1.696861 1.5672961 1.6246276 1.7187198 1.4752052
-0.912512 1.5898839 -1.301527 1.3807082 1.3452398 -0.42604518 1.429192 1.2421134
1.3146867 1.5022619 1.6864369 1.6923579 1.1854783 -0.30024046 1.4328394 1.6584293
1.61465 1.961154 1.9496917 1.6050066 1.7203534 0.25095636 1.6319842 -0.28217793
1.8925067 1.8552438 1.3439058 1.7677104 1.7276669 1.9296889 0.19106187 1.5237103
1.9299864 2.0239053 -0.45428306 1.9788897 1.5676275 1.8497415 1.4996592 1.3432353
1.4119495 -0.7701622 0.30058944 1.8908225 0.010009562 1.4022923 1.6561846 -1.009223
00000000: 5567 f53f 0a29 bc3f b48e a8be 5d2f f43f
00000010: bd23 d23f 3c92 eb3f a9ec e83f ff65 663f
00000020: e292 ea3f 71dd e43f 9f44 b43f be32 d93f
00000030: 299d c83f ccf3 cf3f 03ff db3f 86d3 bc3f
00000040: 639a 69bf 5181 cb3f 7098 a6bf 0cbb b03f
00000050: d130 ac3f 9822 dabe c3ef b63f 92fd 9e3f
00000060: a747 a83f 1e4a c03f 2add d73f 2f9f d83f
00000070: c1bd 973f 1eb9 99be 4867 b73f 6947 d43f
00000080: daac ce3f 1807 fb3f 7f8f f93f db70 cd3f
00000090: 8a34 dc3f 5a7d 803e dce4 d03f a079 90be
000000a0: a93d f23f a178 ed3f 1b05 ac3f 5644 e23f
000000b0: 3024 dd3f 0c00 f73f b9a5 433e f008 c33f
000000c0: cb09 f73f aa87 0140 ca97 e8be 424c fd3f
000000d0: 05a8 c83f 54c4 ec3f d5f4 bf3f 22ef ab3f
000000e0: c3ba b43f 5a29 45bf dce6 993e 7906 f23f
000000f0: 25ff 233c 507e b33f dbfd d33f 382e 81bf

fc2.weight f4 [2, 64]
-1.1663375 -1.020347 0.060118675 -1.1884714 -1.004839 -1.1200782 -1.1238666 3.269696
-1.2582239 -1.0577437 -0.9632488 -1.2564955 -1.189594 -1.2919521 -1.1751995 3.4705136
2.8936522 -1.1625214 2.505881 -0.7544211 -0.79970217 2.6429253 -0.9579649 -0.59341747
-0.863682 -1.099534 -0.96498466 -1.2605317 -0.6062913 0.050619304 -0.91269904 -1.1405066
-0.9820402 -1.2072742 -1.2104113 -1.1865909 -1.135024 -0.78066736 -1.326891 0.20627287
-1.0434439 -1.1570125 -0.75555986 -1.0562232 -1.0103167 -1.2384101 -1.4246173 -1.298636
-1.1986085 -1.1113598 0.078868285 -1.0643857 -0.9123178 -1.2349663 -1.372397 -1.1633753
-0.8543301 2.363643 1.3086264 -1.0004673 -2.6143026 -0.89846224 -1.2815015 0.14907087
-1.0844094 -0.9992956 -0.036927313 -0.95379645 -0.78526753 -0.888469 -1.2330133 1.7691671
-1.2744174 -1.0377336 -1.0077482 -1.0958952 -0.9442266 -1.3844378 -0.9901289 1.4853665
3.1160438 -1.2059274 3.248011 -0.9571108 -0.78283143 2.4999092 -0.9075964 -0.67644745
-0.79689676 -0.8003042 -1.1564816 -1.1031988 -0.7487752 -0.11547428 -0.7565891 -0.8602996
-1.0164618 -1.0185667 -0.99486166 -1.0755625 -1.390594 -1.2860771 -1.2576112 -1.4850229
-1.2333232 -1.1219525 -0.6594437 -1.1160226 -1.0149947 -1.2337576 -2.162296 -1.2194662
-0.93740326 -1.153656 0.09167935 -1.0485901 -0.6795665 -1.2495689 -1.420777 -1.0874226
-0.937365 2.987444 2.640849 -0.7979508 -1.7634575 -1.0580294 -1.126186 2.3206558
00000000: 8c4a 95bf bb9a 82bf 003f 763d d51f 98bf
00000010: 909e 80bf b95e 8fbf dcda 8fbf b342 5140
00000020: 7b0d a1bf 2564 87bf 7997 76bf d8d4 a0bf
00000030: 9e44 98bf b05e a5bf f06c 96bf e51c 5e40
00000040: 9931 3940 80cd 94bf 5b60 2040 be21 41bf
00000050: 48b9 4cbf b025 2940 303d 75bf 35ea 17bf
00000060: 431a 5dbf 88bd 8cbf 3c09 77bf 1a59 a1bf
00000070: e835 1bbf 3056 4f3d a5a6 69bf 1ffc 91bf
00000080: fd66 7bbf f687 9abf c2ee 9abf 36e2 97bf
00000090: 7748 91bf d1d9 47bf 90d7 a9bf 3239 533e
000000a0: 928f 85bf fc18 94bf 5f6c 41bf 5232 87bf
000000b0: 0f52 81bf 3984 9ebf dc59 b6bf b439 a6bf
000000c0: 016c 99bf 0a41 8ebf b285 a13d ca3d 88bf
000000d0: a98d 69bf 6013 9ebf b4aa afbf 7be9 94bf
000000e0: 61b5 5abf ed45 1740 1281 a73f 500f 80bf
000000f0: bc50 27c0 9f01 66bf 3e08 a4bf 09a6 183e
00000100: edcd 8abf d6d1 7fbf 1841 17bd 012c 74bf
00000110: 4b07 49bf b472 63bf 61d3 9dbf 1174 e23f
00000120: 1c20 a3bf 74d4 84bf e5fd 80bf 4b46 8cbf
00000130: d6b8 71bf 4235 b1bf 1679 7dbf 7d20 be3f
00000140: 436d 4740 d45b 9abf 6adf 4f40 3705 75bf
00000150: a467 48bf 83fe 1f40 3d58 68bf a92b 2dbf
00000160: 6d01 4cbf bce0 4cbf 9707 94bf 9e35 8dbf
00000170: bbaf 3fbf c87d ecbd d3af 41bf 983c 5cbf
00000180: 6c1b 82bf 6560 82bf 41af 7ebf 08ac 89bf
00000190: fcfe b1bf 2d9e a4bf 67f9 a0bf 3b15 bebf
000001a0: 89dd 9dbf 249c 8fbf 4dd1 28bf d4d9 8ebf
000001b0: 59eb 81bf c5eb 9dbf 0f63 0ac0 7817 9cbf
000001c0: a9f9 6fbf 00ab 93bf 62c2 bb3d 3338 86bf
000001d0: 12f8 2dbf e0f1 9fbf 05dc b5bf aa30 8bbf
000001e0: 27f7 6fbf 4832 3f40 ac03 2940 8146 4cbf
000001f0: fab8 e1bf 826d 87bf dd26 90bf a085 1440

fc2.bias f4 [2]
-0.99338716 -0.9577764
00000000: 9f4e 7ebf d630 75bf
