DeepAcTS/networks/intermediary/OLD_Runs/intermediary_polnet_rX_500.pth (torch, 3231 bytes, 4 tensors)

fc1.weight f4 [64, 4]
0	0x3e883e0e	0.26609844
1	0xbdccd61f	-0.10001778
2	0x3d5fc5d0	0.054632008
3	0x3ebb5504	0.365883
4	0xbdc0e37a	-0.09418388
5	0xbe91470f	-0.28374526
6	0x3e94a639	0.29033068
7	0xbf124509	-0.5713659
8	0xbf0352a5	-0.5129798
9	0xbe6123d4	-0.21986324
10	0x3d4f72f4	0.050646737
11	0xbe717092	-0.23578098
12	0xbee21a60	-0.44160748
13	0xbd8bea5a	-0.068318084
14	0x3e82854d	0.25492325
15	0xbeb69c30	-0.35666037
16	0x3e14d17e	0.1453304
17	0xbf21c0cb	-0.63184804
18	0xbd0337bd	-0.032035578
19	0x3f1c8cb7	0.61152214
20	0x3e716618	0.23574102
21	0xbe3b4149	-0.18286623
22	0x3ea65bee	0.32492012
23	0xbe99a116	-0.3000571
24	0xbf177260	-0.591589
25	0xbe95f1df	-0.29286095
26	0xbe3b401f	-0.18286179
27	0xbe9bc68a	-0.3042491
28	0xbee6ab4b	-0.4505256
29	0x3dfcb019	0.123382755
30	0x3bc1b6c2	0.005911679
31	0xbe04041a	-0.1289219
32	0x3f2c544a	0.67316115
33	0xbd9e2d5c	-0.07723495
34	0x3d75a3f8	0.059970826
35	0xbecf0030	-0.4042983
36	0xbde68bef	-0.11257159
37	0xbe68ce64	-0.22734982
38	0x3eb765db	0.35819897
39	0xbe15faaa	-0.14646402
40	0xbe06241f	-0.13099717
41	0x3a3b5091	0.0007145489
42	0x3d693b2e	0.056941204
43	0xbe0232e6	-0.12714729
44	0x3e92032d	0.28518048
45	0xbe9210e8	-0.28528523
46	0xbe6778a0	-0.22604609
47	0xbe441579	-0.19148816
48	0x3d61e154	0.05514653
49	0xbe220da6	-0.15825519
50	0xbde5c1e6	-0.11218624
51	0xbd5c85f9	-0.053838704
52	0x3ed09f96	0.40746754
53	0x3e4ac3f8	0.19801319
54	0x3e6f5fa7	0.23376332
55	0xbd4832fd	-0.04887675
56	0xbe243744	-0.16036707
57	0x3ed127b1	0.40850595
58	0x3e5ace1c	0.21367687
59	0xbe54b44e	-0.20771906
60	0xbe9f6eaa	-0.31139117
61	0x3eea270f	0.45732924
62	0x3e244011	0.16040064
63	0x3d9f0d4d	0.07766209
64	0xbe39c787	-0.1814252
65	0x3e1079d7	0.14108978
66	0x3ee17291	0.4403272
67	0xbe4aadbb	-0.19792835
68	0xbef5f3ee	-0.48037666
69	0xbed2392a	-0.41059238
70	0xbf0504b3	-0.51960295
71	0xbdda0937	-0.10646289
72	0xbc957b4e	-0.018247273
73	0xbe5d4ea9	-0.21612038
74	0xbf092df4	-0.53585744
75	0xbc04d02e	-0.0081062745
76	0xbd971f19	-0.07378978
77	0x3eebf098	0.46081996
78	0x3e3eb4ca	0.18623653
79	0xbf0c1401	-0.54718024
80	0x3eb27b63	0.34859762
81	0xbdc71e24	-0.09722546
82	0x3ea0e6d7	0.31426117
83	0x3e087e6b	0.13329475
84	0x3eb5eaf3	0.35530815
85	0xbedf0a61	-0.43562606
86	0x3e1a9a80	0.15098
87	0xbdbb7357	-0.09152859
88	0xbe90d196	-0.282849
89	0xbee67632	-0.4501205
90	0xbe81d12c	-0.25354898
91	0x3d88c996	0.066790745
92	0xbeaafff9	-0.33398417
93	0xbe4bf914	-0.19919235
94	0x3e913c5a	0.28366357
95	0x3f35e655	0.71054584
96	0xbf071022	-0.5275899
97	0x3e60f91a	0.21970025
98	0x3e88268c	0.2659191
99	0xbd4cc6f3	-0.04999442
100	0xbd8852a2	-0.06656386
101	0x3eebf7f8	0.46087623
102	0xbebc148c	-0.36734426
103	0x3e83f200	0.2577057
104	0xbe4ca828	-0.19986022
105	0x3df9313c	0.12167594
106	0xbeb470d7	-0.3524234
107	0xbed29871	-0.4113193
108	0xbc363c36	-0.011122754
109	0xbf08dfc9	-0.5346647
110	0x3e3949d6	0.18094572
111	0xbe985a5b	-0.29756436
112	0x3e6a2858	0.22866952
113	0xbebb7cee	-0.3661875
114	0xbebfbf33	-0.3745056
115	0x3e0c0b82	0.13676265
116	0xbe37e4dd	-0.17958398
117	0x3e227a7f	0.15867041
118	0x3e4d3032	0.20037916
119	0x3ec4bb9e	0.3842439
120	0x3d48b31e	0.048998944
121	0xbe54fca3	-0.20799498
122	0xbf1c483f	-0.6104774
123	0x3e2a37a0	0.16622782
124	0x3e6fb174	0.23407537
125	0x3e829d6c	0.25510728
126	0x3eb05031	0.3443618
127	0x3eafe4e9	0.34354332
128	0x3e1c0d7c	0.15239519
129	0x3edfb1bc	0.43690288
130	0x3e804530	0.25052786
131	0x3e59aad7	0.21256576
132	0xbe047193	-0.1293395
133	0x3e8c0641	0.2734852
134	0x3e941cb3	0.28928146
135	0xbd6ae8d2	-0.05735094
136	0x3e08e636	0.13369069
137	0x3e6c16d4	0.23055583
138	0xbf01aa40	-0.50650406
139	0xbe685449	-0.22688402
140	0x3e94ff0d	0.29100838
141	0xbe66842b	-0.22511356
142	0x3e7a4fe2	0.24444535
143	0x3e944a63	0.28963003
144	0xbdb93b5b	-0.09044524
145	0x3d64c9e5	0.055856604
146	0xbe5862dc	-0.21131462
147	0x3efbc58f	0.49174163
148	0x3dd98ca0	0.10622525
149	0xbe868abc	-0.2627772
150	0x3ecdbdee	0.40183967
151	0xbe798924	-0.24368721
152	0xbecf0434	-0.40432894
153	0x3dac0874	0.0840005
154	0x3dfe0fa9	0.12405331
155	0xbe22d0bc	-0.15899938
156	0xbe29d741	-0.16586019
157	0xbe8a3f15	-0.27001253
158	0xbec81676	-0.39079636
159	0xbe610b2f	-0.21976922
160	0x3cbd1726	0.023082327
161	0x3e9b1f53	0.30297336
162	0xbe246b43	-0.16056542
163	0xbdec455e	-0.11536668
164	0xbd04f149	-0.03245667
165	0x3e9a3208	0.30116296
166	0x3e9de118	0.30835795
167	0xbed26497	-0.4109237
168	0xbe821d63	-0.25413045
169	0xbef63c1e	-0.4809274
170	0x3e1699c8	0.147071
171	0x3e7fa95a	0.24966946
172	0xbc470e86	-0.012149459
173	0x3d92b38e	0.071631536
174	0xbe7ec66a	-0.24880376
175	0xbbc79fd4	-0.006092051
176	0xbeae9960	-0.3410139
177	0x3cc74a21	0.02432734
178	0xbd1dc4ec	-0.038517877
179	0xbeda4f08	-0.4263842
180	0x3ebe322d	0.37147656
181	0xbdfc5d8f	-0.123225324
182	0x3eb9feb5	0.3632714
183	0x3df9af5c	0.1219165
184	0x3e366750	0.17812848
185	0x3dc4c142	0.096071735
186	0x3d7cff95	0.06176718
187	0x3eceeacc	0.4041351
188	0x3ccf6cf2	0.025320504
189	0x3edf8cbe	0.43662065
190	0x3de301a7	0.110842995
191	0xbed4ff4a	-0.4160102
192	0xbd9b816a	-0.07593043
193	0xbe1a8d0a	-0.15092865
194	0xbeacc2a0	-0.33742237
195	0xbeb861f7	-0.3601224
196	0xbdc2aabf	-0.095052235
197	0x3e2783df	0.16358899
198	0x3ec5bdd9	0.38621405
199	0xbdbfeacc	-0.09370956
200	0xbe36c3bf	-0.17848109
201	0x3d42afcc	0.047530934
202	0xbe5a959b	-0.21346132
203	0xbe90f164	-0.28309166
204	0x3e0e2976	0.13883004
205	0x3ecb776a	0.39739543
206	0xbcc9bd93	-0.024626529
207	0x3ea50626	0.32231253
208	0x3e5a8434	0.21339494
209	0x3ed5191b	0.41620716
210	0xbbcf9e6e	-0.006336025
211	0xbd41b20c	-0.04728894
212	0x3e4a860b	0.19777696
213	0xbe89a5a2	-0.2688418
214	0x3ea867eb	0.32891783
215	0x3def3555	0.11680094
216	0x3ed2282a	0.41046268
217	0xbea7d088	-0.32776284
218	0xbe52c973	-0.2058466
219	0x3e2045b8	0.15651596
220	0x3d05bde0	0.032651782
221	0x3e5587a0	0.20852518
222	0xbdada9ee	-0.08479677
223	0x3dc23080	0.09481907
224	0x3dae154a	0.08500154
225	0x39ba3816	0.00035518472
226	0xbc784518	-0.015153192
227	0xbc9f820e	-0.019471195
228	0x3e12a302	0.14319995
229	0xbe5868b5	-0.21133693
230	0xbe34e5f8	-0.17665851
231	0xbedf224f	-0.43580863
232	0xbe448f28	-0.19195235
233	0x3e2b2f10	0.16717172
234	0xbebadbe7	-0.36495897
235	0xbe11d4bb	-0.14241306
236	0x3f1e97a7	0.61950153
237	0xbe91203c	-0.28344905
238	0xbf19d9f0	-0.6009817
239	0xbe3aa9a7	-0.1822878
240	0x3e66bbb9	0.22532548
241	0x3cf8bf9b	0.030364802
242	0xbec3f595	-0.38273302
243	0x3d64a2fd	0.0558195
244	0xbec36d17	-0.38169166
245	0x3e9661e8	0.29371572
246	0x3de6435e	0.11243318
247	0xbee01e8b	-0.43773302
248	0x3e874ea2	0.2642718
249	0x3e1355fd	0.1438827
250	0x3f38d7ef	0.7220449
251	0xbd6e2040	-0.058136225
252	0x3d8f6901	0.0700245
253	0xbe407674	-0.18795186
254	0x3d3c788d	0.046013404
255	0xbe9b8000	-0.30371094

fc1.bias f4 [64]
0	0xbed80f1a	-0.42199022
1	0xbe1242e2	-0.14283326
2	0xbedd2c22	-0.43197733
3	0x3ec31ea1	0.38109306
4	0x3a42dc56	0.00074333453
5	0xbeb3c6a2	-0.35112482
6	0xbef3a9ef	-0.47590587
7	0x3e967bf9	0.2939146
8	0x3e21da1c	0.15805858
9	0x3ea68d87	0.32529852
10	0xbecc71b1	-0.3993049
11	0xbd30300c	-0.04301457
12	0x3e5cf756	0.21578726
13	0x3e9fb0b1	0.31189492
14	0x3eba1956	0.36347455
15	0x3e9e266d	0.30888692
16	0x3e3089c3	0.17240052
17	0x3ae4f564	0.0017468152
18	0xbeab60c4	-0.33472264
19	0x3db0e7a0	0.08637929
20	0x3e8dee2f	0.27720782
21	0xbeb634d8	-0.35587192
22	0xbec634c4	-0.38712132
23	0xbe3d70de	-0.18500087
24	0x3e8428c7	0.2581236
25	0x3e42a19e	0.19006965
26	0x3ed71135	0.42005315
27	0xbe733f48	-0.23754609
28	0xbf13a557	-0.57674164
29	0xbeab4e24	-0.33458054
30	0x3ef00d1b	0.46885
31	0x3efa8d29	0.48935822
32	0x3e780ba4	0.2422319
33	0xbcc86bc1	-0.024465444
34	0xbdfe610d	-0.12420855
35	0x3e4dfee3	0.20116763
36	0x3e3c0790	0.1836226
37	0xbedbbb7e	-0.42916483
38	0xbee8d6e8	-0.4547646
39	0x3f078886	0.52942693
40	0x3bb5b5a3	0.0055453344
41	0x3cfd998f	0.030957012
42	0xbd88578d	-0.06657324
43	0x3e9731c1	0.29530147
44	0x3ebb79ed	0.3661646
45	0x3e77e5a3	0.24208693
46	0xbf080ad1	-0.53141505
47	0xbe83cd13	-0.25742397
48	0xbeb473cc	-0.35244596
49	0x3ded670a	0.11591919
50	0x3ef2c8c4	0.47418797
51	0x3e119b73	0.14219455
52	0x3eb2a455	0.34891
53	0x3deda179	0.11603064
54	0x3ec40dc0	0.3829174
55	0xbed48f54	-0.415156
56	0x3ef7765a	0.48332483
57	0x3eb46479	0.35232905
58	0x3ecd5cf0	0.40109968
59	0x3ec1fec1	0.37889674
60	0xbdfc637d	-0.123236634
61	0x3cc9bbde	0.024625715
62	0xbea11c60	-0.3146696
63	0xbd905d89	-0.070490904

fc2.weight f4 [2, 64]
0	0xbd612ff2	-0.054977365
1	0xbc1081a3	-0.00881997
2	0xbe2525b6	-0.16127667
3	0xbd807855	-0.062729515
4	0xbe0c8802	-0.13723758
5	0x3e3c87fe	0.18411252
6	0x3e3dd770	0.18539214
7	0xbd59e017	-0.053192224
8	0xbc85ebfb	-0.016347876
9	0xbdb7e25b	-0.08978721
10	0x3d5f0f4d	0.05445795
11	0xbd0d6ca0	-0.03452742
12	0xbd111fa2	-0.035430558
13	0x3da3ee70	0.08004463
14	0x3d221f76	0.039580785
15	0x3dbf954a	0.093546465
16	0x3df6d57f	0.1205244
17	0xbd492543	-0.0491078
18	0xbde56d2a	-0.11202462
19	0xbd01d16e	-0.03169387
20	0xb99ea4fb	-0.00030259028
21	0xbe2a29d2	-0.16617516
22	0xbdf0e66f	-0.11762702
23	0xbe6540c5	-0.22387989
24	0x3d03eb5f	0.03220689
25	0x3ca03c32	0.019559953
26	0xbabb9642	-0.0014311748
27	0xbdb5405a	-0.08850165
28	0x3cb94ef8	0.022620663
29	0xbd8b2b43	-0.06795361
30	0xbe081ace	-0.13291475
31	0xbdce004b	-0.1005865
32	0x3de5f2c3	0.11227944
33	0x3d56797d	0.052361954
34	0x3ddec967	0.10878258
35	0x3b9ffa40	0.004882127
36	0xbdf79a4d	-0.120899774
37	0xbd0d4710	-0.0344916
38	0xbe614193	-0.21997671
39	0x3cdc3af3	0.026883578
40	0x3d1b6dd9	0.037946556
41	0x3e0081c3	0.125495
42	0xbe17089e	-0.14749381
43	0x3e50ef2b	0.20403735
44	0xbcb91620	-0.022593558
45	0xbc5f14bb	-0.013615782
46	0xbd8664a8	-0.065621674
47	0xbd72fdb3	-0.059323978
48	0x3d24fbb1	0.040279094
49	0x3e13e456	0.14442572
50	0x3e173a4d	0.14768334
51	0xbdbe280a	-0.092849806
52	0x3e1cb181	0.15302087
53	0xbe4dd630	-0.20101237
54	0xbcbedf15	-0.023299733
55	0x3d36cd1e	0.04462921
56	0x3c9fb8f5	0.019497374
57	0x3de9d115	0.11416832
58	0x3d8cb457	0.068703346
59	0x3c83fbc1	0.016111257
60	0x3cf69483	0.030100113
61	0x3e0243fd	0.12721248
62	0xbe60a7b7	-0.21938978
63	0xbcbcfb6f	-0.023069112
64	0x3d10b7fa	0.035331704
65	0xbdf6686d	-0.120316364
66	0x3de76885	0.112992324
67	0xbd414444	-0.047184244
68	0x3e3bb608	0.18331158
69	0xbd8ac39a	-0.06775589
70	0xbe3179a7	-0.17331563
71	0xbcf440fe	-0.029816147
72	0xbc4bc951	-0.012438134
73	0xbd3d20e6	-0.046173953
74	0xbd9d454b	-0.07679232
75	0x3d27eef8	0.040999383
76	0xbaa3235d	-0.0012446452
77	0x3c7d4ddf	0.01546046
78	0x3e21d7b3	0.15804939
79	0xbab0bb28	-0.0013483511
80	0x3dbec047	0.09314018
81	0xbddff507	-0.10935407
82	0x3d7c6c27	0.06162658
83	0xbdb33ed4	-0.08752218
84	0x3d829322	0.063757196
85	0x3d67c646	0.056585573
86	0xbd3083fa	-0.043094613
87	0x3e4e4789	0.20144476
88	0x3d639533	0.05556221
89	0xbe09ed03	-0.13469319
90	0xbdd58b8b	-0.10427006
91	0x3e0a0046	0.13476667
92	0x3e10d314	0.1414302
93	0x3e4864b7	0.1956967
94	0xbc5ad7ac	-0.013357084
95	0xbc32d150	-0.010914162
96	0xbdbeb17c	-0.09311196
97	0x3dd0fbc3	0.1020427
98	0xbe2e44d3	-0.17018442
99	0xbd9a1632	-0.07523765
100	0x3d0ac47c	0.03387879
101	0xbd3a29fc	-0.045450196
102	0x3e37e834	0.17959672
103	0xbd25d4c9	-0.04048613
104	0x3ca1b6e0	0.019740522
105	0x3b4181a4	0.0029526735
106	0x3c27ec22	0.01024917
107	0x3a1ef916	0.00060643384
108	0x3d993dc0	0.07482481
109	0x3de1718d	0.11007986
110	0x3df4db62	0.119559065
111	0xbe262d46	-0.16228208
112	0xbd1e7fa0	-0.03869593
113	0x3d97e236	0.07416193
114	0x3d3a1dc1	0.04543853
115	0xbdaa9215	-0.08328644
116	0x3d8f70b8	0.07003921
117	0x3db6bc76	0.08922665
118	0x3df1c229	0.11804611
119	0xbb80c830	-0.003930114
120	0xbd12b273	-0.035814714
121	0xbe1cbed5	-0.15307172
122	0xbcef959b	-0.029246142
123	0x3c4ea0f5	0.012611617
124	0xbdcba262	-0.099430814
125	0x3da9a2b4	0.08282986
126	0x3e384ed8	0.17998827
127	0x3d14acf8	0.03629777

fc2.bias f4 [2]
0	0xbd5d7400	-0.054065704
1	0x3dd23816	0.10264604
