DeepAcTS/networks/intermediary/OLD_Runs/intermediary_valnet_rX_4000.pth (torch, 3231 bytes, 4 tensors)

fc1.weight f4 [64, 4]
000000 20 13 ca be 10 ae 8f 3e c5 bb 94 3e ca 3e 0e 3e
       -0.39467716 0.28062487 0.29049507 0.1389114
000010 c9 57 7f be f7 a8 c6 3e f2 72 1a 3f 4b 74 7d 3e
       -0.24935831 0.38800785 0.6033164 0.24751393
000020 20 69 b8 bc 20 8a a4 3d 4c d7 5f 3e 00 20 a5 38
       -0.022511065 0.08034158 0.21859473 7.8737736e-05
000030 96 a5 a2 be 99 09 f5 3d a6 f1 83 3e 47 a7 67 bd
       -0.31766957 0.11964721 0.257703 -0.056556012
000040 f9 fb 40 bd 59 9b 36 3e b9 59 46 3f b7 b6 ca bd
       -0.0471153 0.17832698 0.77480656 -0.09898131
000050 73 ea 21 bf 75 1a ad bd 6c a5 25 3f c8 38 96 be
       -0.63248366 -0.08452312 0.6470554 -0.29340196
000060 fb 2b ff 3d f7 b0 0c bf e2 f0 8f 3e 9d a2 75 3e
       0.124595605 -0.54957527 0.28113467 0.23987813
000070 1d e6 37 c0 1a 57 98 be 0f 66 b1 40 3c 37 2b 40
       -2.87342 -0.29753953 5.5437083 2.6752462
000080 00 18 37 bf 92 24 81 3e 22 c4 c7 3e ee 43 2d 3f
       -0.71520996 0.25223213 0.39016825 0.6768178
000090 31 73 df be 1b d8 91 be b3 75 ff 3d a2 3d b6 3e
       -0.43642572 -0.28485188 0.12473621 0.35593897
0000a0 06 d5 36 bc e6 c7 40 3e 65 88 3a 3e 24 6a 0c 3f
       -0.011159187 0.18826255 0.18216093 0.5484946
0000b0 31 94 10 3d 93 83 cb be 46 80 3c 3f d2 68 79 be
       0.035297576 -0.3974882 0.7363323 -0.24356392
0000c0 87 9a 01 bf be 30 06 3f 0b 53 82 3f 09 60 d6 3d
       -0.50626415 0.52418125 1.0181593 0.10467536
0000d0 81 5d 23 bf c4 59 7a 3e 88 bf 32 3f e1 a3 16 3f
       -0.6381455 0.24448305 0.69823503 0.5884381
0000e0 ed 72 ce be 87 99 e4 3e 5c c8 31 3f 47 1e 27 3e
       -0.40322056 0.44648382 0.6944635 0.16320144
0000f0 f0 b7 23 c0 41 5e 3b be 7a 7a a7 40 79 55 2d 40
       -2.5581017 -0.18297674 5.2337008 2.7083418
000100 e9 df 4a c0 ff 15 75 3d 9e b0 a2 40 2a bd 2d 40
       -3.1699164 0.05983543 5.0840597 2.7146707
000110 78 5b 19 3e 09 43 7e 3e b7 67 68 3e d9 48 c5 3e
       0.14976299 0.2483026 0.22695814 0.3853214
000120 d2 03 23 c0 b7 cd 08 bf 57 df a3 40 95 12 09 40
       -2.5471082 -0.53438896 5.121013 2.1417592
000130 b2 b6 13 3e 40 59 df be 53 9d 86 be 24 ac 63 3e
       0.14425161 -0.4362278 -0.26291904 0.22233635
000140 09 8f 42 bf ab 27 14 3e c0 f3 6e 3f f6 6a 2c bc
       -0.75999504 0.14468257 0.93340683 -0.010523548
000150 db 4f 58 c0 ad d0 f9 be 1e 16 9e 40 7f d0 20 40
       -3.379874 -0.4879202 4.9402 2.5127256
000160 d6 71 c6 bd 2a 1b 12 bc 56 34 cc 3e 1b 4b c2 3e
       -0.09689681 -0.008917609 0.3988368 0.37947926
000170 e5 f4 13 bf f6 9e 08 be 3b 82 92 3f dc 54 8f bd
       -0.57795554 -0.13341889 1.1445993 -0.069986075
000180 bb 8a 31 bd 70 9f 71 bd 2a 37 22 3f 98 70 b0 ba
       -0.043345194 -0.058989942 0.63365424 -0.001346129
000190 14 c1 69 3e c9 f3 3e 3e 85 2a 0c 3f 11 86 30 3c
       0.2282756 0.18647684 0.5475238 0.010774151
0001a0 c6 90 4e be da 51 2f be ae 74 09 3e 02 91 df 3e
       -0.20172414 -0.17121068 0.13423416 0.4366532
0001b0 f4 eb 1f bf 81 a2 73 3d d9 7c 22 3e 4a d7 8e 3e
       -0.6246941 0.059481148 0.15867938 0.27898628
0001c0 e3 f8 de 3d 7f ea a6 be 88 37 38 3f eb 5f 89 3d
       0.10887315 -0.3260078 0.71959734 0.06707748
0001d0 ff 98 03 be 57 7d a3 3d b2 7f f4 3e c3 a9 e1 3d
       -0.12851332 0.07982891 0.47753674 0.110187076
0001e0 99 12 2e 3d 04 7a 75 bd 7e 4a 87 3f 03 88 23 be
       0.042498205 -0.059930816 1.0569608 -0.15969853
0001f0 f1 59 04 3d 2a 19 da be 88 e2 64 3e 79 7a 95 be
       0.032312337 -0.42597324 0.2235204 -0.29195002
000200 ce eb 68 3d 0a 26 a7 be 74 9a dd be 99 ea b2 3e
       0.056865506 -0.3264621 -0.432819 0.3494461
000210 7c f8 ee 3d 96 04 01 bf 89 82 9e 3e 1e 6b 32 be
       0.116684884 -0.5039762 0.30958965 -0.17423674
000220 af 43 4f 3e cb e4 9b be a8 a3 e8 3d fc 02 06 3c
       0.20240663 -0.30447993 0.1135934 0.0081794225
000230 70 fb 25 bf 9d 3b 3a bd 9c 18 78 3e e0 f5 82 3c
       -0.6483679 -0.045467008 0.24228138 0.015986383
000240 f0 7d 8f 3d fa 09 f1 3d df 2f de 3e bb 03 20 3f
       0.070064425 0.11769481 0.43395898 0.6250569
000250 b3 25 59 3f 93 e9 8f bf f8 a0 e1 bf 30 dc 58 3e
       0.8482315 -1.1243156 -1.7627249 0.21177745
000260 20 49 dd 3e 00 2e 8f 3e 81 1b 55 bd 54 f4 34 3f
       0.43219852 0.27964783 -0.052028183 0.70685315
000270 c9 2f c4 3c da 99 2d 3f a4 14 12 3f 10 49 bd bc
       0.023948567 0.67812884 0.57062745 -0.023106128
000280 06 ca e9 bd b0 90 30 be 7b 9b 69 3e e6 94 02 3f
       -0.11415486 -0.17242694 0.22813217 0.5100845
000290 05 4b bd be f7 b8 7f be 98 82 25 3f e3 f7 8a 3e
       -0.36971298 -0.24972902 0.64652395 0.27142248
0002a0 40 55 0f bf a8 96 25 3b f2 c4 87 3f f6 20 32 be
       -0.55989456 0.00252668 1.0606978 -0.17395386
0002b0 b0 27 3a bf 74 99 86 be 2a f7 21 3f b8 e6 06 be
       -0.7271681 -0.2628895 0.6326777 -0.1317395
0002c0 21 d7 86 3e 42 3e d7 be ef 31 da 3d 4c 01 95 3e
       0.26336005 -0.42039686 0.10654055 0.29102552
0002d0 ec b8 4d 3e df 37 65 3e cd 81 b8 3c cb 07 0e 3f
       0.20090073 0.22384594 0.022522831 0.5548064
0002e0 09 04 fc be 74 f4 61 3f fc 7c e6 3f 0e ff 04 be
       -0.4922183 0.8826363 1.8006892 -0.1298792
0002f0 d4 4e 98 3e c8 19 cb 3c 91 99 36 3e 48 92 f2 3e
       0.2974764 0.024792567 0.17832018 0.4737723
000300 71 fe 01 3d 49 f4 d2 bc 2f fc 43 3e b6 aa b4 3d
       0.031736795 -0.02575125 0.19139169 0.08821623
000310 db 83 f7 3d 08 88 9f be 5a 21 b5 be 68 89 02 3f
       0.12085696 -0.3115847 -0.35377008 0.50990915
000320 30 3d 34 3d 74 69 43 be 0c ce 38 3e c8 a9 d2 bd
       0.044003665 -0.19083196 0.1804735 -0.102862895
000330 59 5f e7 bd bc f8 74 be 20 57 cd bd ef 1e 76 bd
       -0.11297483 -0.2392301 -0.100263834 -0.060088094
000340 9e d4 33 bf 98 27 b0 3e b7 21 4e 3f 0b 48 da bd
       -0.70246303 0.34405208 0.80520195 -0.10658272
000350 00 9e 1e bf cb 8a b5 be 25 53 27 3f f3 33 ef 3d
       -0.6195984 -0.35457453 0.65361243 0.116798304
000360 a4 c9 f5 3b d6 05 d1 3d 6d f1 5b 3f 71 bc ef 3e
       0.007500844 0.10206191 0.8591526 0.46823457
000370 23 8a 31 3e f5 77 3d bf 8f ae a1 be be 43 91 3b
       0.17337851 -0.74011165 -0.3157849 0.0044331243
000380 d7 56 70 bf 9b c2 be be 57 1c 50 3f 00 cd 49 be
       -0.9388251 -0.37257847 0.81293243 -0.19707108
000390 e5 8f 3a 40 df 47 49 3f 4f f7 9c c0 46 99 10 c0
       2.9150326 0.7862529 -4.905189 -2.259355
0003a0 c9 2c 2d 40 ba 22 55 be dd 0f 7d c0 d4 df 11 c0
       2.7058585 -0.20814028 -3.9540932 -2.2792864
0003b0 94 f7 34 3e 6e 42 8e 3e ab 84 1e 3f a5 da 46 bd
       0.17672569 0.27785057 0.61921185 -0.04854836
0003c0 c4 bf a5 3f 32 28 8e bf 18 a5 f7 bf 4d 8f 33 3e
       1.2949147 -1.1106017 -1.9347258 0.17535134
0003d0 04 e0 05 bf 7c 2d cd bc 65 46 e2 bd f3 8f d5 3e
       -0.52294946 -0.025046103 -0.11048583 0.41711387
0003e0 90 58 d8 3d 19 b5 0c be 84 69 06 3e 65 b6 58 3e
       0.10563767 -0.13740958 0.13126189 0.21163328
0003f0 01 df b1 bf a1 ec 6f bf a1 ef e1 3f 02 8b 16 3f
       -1.389618 -0.9372044 1.7651254 0.5880586

fc1.bias f4 [64]
000000 a5 d3 da 3f c8 8e a1 3f b4 8e a8 be 37 b3 d9 3f
       1.7095839 1.2621698 -0.32921374 1.7007817
000010 3f a6 b7 3f 9a 19 d1 3f b1 af ce 3f 9f 17 23 3f
       1.4347609 1.6335938 1.6147367 0.6370792
000020 ee 03 d0 3f 94 83 ca 3f 53 bd 99 3f 4c a8 be 3f
       1.6251199 1.5821404 1.2010902 1.489511
000030 31 1f ae 3f 2c 7a b5 3f ee 71 c1 3f d2 1d 92 3f
       1.3603269 1.4177909 1.5112894 1.141535
000040 dc 8b 4a bf 15 fa b0 3f eb 82 8c bf a3 9d 96 3f
       -0.7911966 1.3826319 -1.0977453 1.1766857
000050 9a 86 91 3f b3 69 f8 be 00 4a 9c 3f 31 67 84 3f
       1.1369202 -0.48518142 1.2210083 1.0343992
000060 87 a2 8d 3f e7 e9 a5 3f 51 96 bd 3f da 10 be 3f
       1.1065224 1.2962006 1.4811498 1.4848893
000070 78 09 7b 3f 1e b9 99 be 4f d3 9c 3f 5e e1 b9 3f
       0.98061323 -0.30024046 1.2251986 1.4521902
000080 01 61 b4 3f a4 80 e0 3f aa 0c df 3f 1b df b2 3f
       1.4092103 1.7539258 1.742574 1.3974336
000090 dd fb c1 3f e2 0a 78 3e d8 4f b6 3f 6a 52 6b be
       1.5154988 0.24222901 1.4243116 -0.22980657
0000a0 9a fa d7 3f fc ed d2 3f a4 5b 91 3f 15 bd c7 3f
       1.6873353 1.6478877 1.1356091 1.5604578
0000b0 87 c1 c2 3f b2 73 dc 3f 8e 88 9c 3d fb 71 a8 3f
       1.521531 1.7222807 0.07643233 1.3159784
0000c0 c6 92 dc 3f 98 bc e8 3f ca 97 e8 be d8 bb e2 3f
       1.7232292 1.8182554 -0.45428306 1.7713575
0000d0 4c 3b ae 3f a5 41 d2 3f bc 6d a5 3f 8b 9d 91 3f
       1.3611846 1.6426283 1.2924113 1.1376203
0000e0 b4 5f 9a 3f f7 fd 26 bf 74 87 a7 3e 79 82 d7 3f
       1.2060456 -0.6523127 0.3272053 1.6836692
0000f0 ff d7 69 3b dc 57 99 3f 3f 70 b9 3f 64 38 46 bf
       0.0035681722 1.1979938 1.448738 -0.77429795

fc2.weight f4 [2, 64]
000000 f3 61 80 bf 56 b3 57 bf 00 3f 76 3d f8 63 84 bf
       -1.0029892 -0.8425802 0.060118675 -1.0343008
000010 19 79 58 bf e3 70 79 bf 38 d5 76 bf 1d 9b 2a 40
       -0.8455978 -0.97437876 -0.96419096 2.6657174
000020 1d 9a 8a bf 20 74 65 bf 80 3b 48 bf bb 5f 8d bf
       -1.0828282 -0.8963032 -0.7821579 -1.104484
000030 ee 56 82 bf 6c a6 8e bf cc a8 80 bf 0d 1d 36 40
       -1.0182779 -1.1144538 -1.0051513 2.845523
000040 2c 83 18 40 5c ae 7b bf 7a 4d 03 40 fa 56 19 bf
       2.383006 -0.98312926 2.0516038 -0.5989834
000050 91 8f 22 bf d3 d5 08 40 e0 88 48 bf 9f e8 db be
       -0.63500315 2.1380508 -0.78333855 -0.42950913
000060 e3 a2 32 bf 0c 40 6f bf 67 63 4c bf 5f 13 8c bf
       -0.69779795 -0.934571 -0.79839176 -1.0943412
000070 9a 6c e1 be 30 56 4f 3d 96 41 40 bf 94 56 7f bf
       -0.4402817 0.050619304 -0.75100076 -0.9974148
000080 66 60 52 bf 7a 3a 87 bf c0 cd 86 bf e5 e6 83 bf
       -0.8217834 -1.0564721 -1.053154 -1.0304838
000090 1b b6 74 bf 1d cc 10 bf 0c 19 92 bf 66 53 29 3e
       -0.9559037 -0.5656145 -1.1413894 0.1653572
0000a0 4a 00 60 bf 6f c5 7d bf a1 24 19 bf 04 6a 67 bf
       -0.8750044 -0.99129385 -0.59821516 -0.9039614
0000b0 a3 d4 58 bf c8 b6 87 bf 90 ec 83 bf bd 65 8f bf
       -0.8469946 -1.0602655 -1.0306568 -1.1202923
0000c0 35 c0 84 bf 37 77 72 bf b2 85 a1 3d 1d bc 69 bf
       -1.0371157 -0.9471316 0.078868285 -0.91302663
0000d0 9d cb 41 bf 65 ab 89 bf 17 6e 98 bf 00 c2 82 bf
       -0.75701314 -1.075543 -1.1908597 -1.0215454
0000e0 d2 ee 34 bf e6 a8 f0 3f e3 73 83 3f 29 3b 57 bf
       -0.7067691 1.8801544 1.0269741 -0.84074646
0000f0 37 33 07 c0 e9 ab 3b bf 66 b1 8e bf 54 72 c4 bd
       -2.112501 -0.7330919 -1.1147888 -0.09592119
000100 3e 3a 6f bf f0 71 57 bf 18 41 17 bd 6a 34 4f bf
       -0.93448246 -0.8415823 -0.036927313 -0.8093935
000110 64 4a 23 bf 34 d4 3d bf 05 6d 8b bf 4c 6c c6 3f
       -0.63785386 -0.7415192 -1.0892645 1.55018
000120 15 2a 8f bf 0c 90 63 bf da 89 5b bf 87 7d 73 bf
       -1.1184717 -0.88891673 -0.8575722 -0.95113415
000130 8d 82 48 bf 56 e5 9c bf 64 8c 55 bf ba c9 ab 3f
       -0.78324205 -1.2257488 -0.83417344 1.3420937
000140 96 bf 23 40 9a 40 87 bf 00 3d 25 40 2b 6f 51 bf
       2.5585685 -1.056659 2.5818481 -0.81810254
000150 f4 00 1e bf 4e c5 04 40 9b 8e 41 bf b5 b4 02 bf
       -0.61720204 2.0745425 -0.75608224 -0.5105699
000160 e0 ff 24 bf 13 cb 27 bf 7c 14 81 bf eb 0e 73 bf
       -0.64452934 -0.6554424 -1.0084376 -0.9494464
000170 68 19 19 bf c8 7d ec bd 5b c8 1a bf 18 67 39 bf
       -0.5980439 -0.11547428 -0.6046197 -0.72422934
000180 f6 73 60 bf be e8 60 bf 89 bb 5a bf 83 65 6c bf
       -0.8767694 -0.87855136 -0.85442406 -0.92342395
000190 99 d2 9e bf 6e 7d 89 bf 1b 7a 8e bf 94 43 8c bf
       -1.2408019 -1.0741403 -1.1131014 -1.0958123
0001a0 13 f7 8a bf 4b 3b 78 bf 3c 4b ff be ce 6e 76 bf
       -1.0856651 -0.96965474 -0.49862087 -0.96262825
0001b0 4c 81 5f bf 5c 24 8b bf 20 6a ee bf a2 6e 89 bf
       -0.87306666 -1.0870471 -1.8626137 -1.0736887
0001c0 b7 13 4b bf 22 9b 81 bf 62 c2 bb 3d 5d a8 68 bf
       -0.7932696 -1.0125468 0.09167935 -0.908819
0001d0 a5 5c 06 bf 42 4d 8c bf f3 12 a2 bf 94 0d 74 bf
       -0.52485114 -1.0961077 -1.2662033 -0.9533322
0001e0 48 fd 46 bf 56 81 1c 40 7b 46 02 40 33 cb 27 bf
       -0.77730227 2.445394 2.0355518 -0.6554443
0001f0 4b 84 c4 bf 35 37 68 bf e5 24 7b bf b6 05 cc 3f
       -1.5352873 -0.9070924 -0.9810317 1.5939243

fc2.bias f4 [2]
000000 ba 0a 57 bf 24 bf 51 bf
       -0.8400074 -0.8193228
