DeepAcTS/networks/intermediary/OLD_Runs/intermediary_polnet_rX_3000.pth (torch, 3231 bytes, 4 tensors)

fc1.weight f4 [64, 4]
0.62873894 0.006566366 -0.8636115 -0.5372718 -0.31579185 0.10231008 -0.38759804 0.10813413
0.07983991 -0.22138132 0.024199612 0.41773444 0.017429126 -0.03393586 0.3129838 -0.057482034
0.50955117 0.16854283 -0.60057324 -0.37266687 -0.09328101 -0.040609267 -0.39943272 0.432745
0.19877166 -0.3181319 0.20641679 0.5386012 -0.31019294 0.056104515 0.39553422 0.5655735
0.33527216 0.33733693 -0.30813822 -0.52010566 0.2369317 0.272324 0.041723195 -0.5059331
-0.38447103 -0.390246 0.5023366 0.0866235 -0.4686865 0.55690587 0.8065296 -0.09303529
-0.21157368 -0.26157808 0.010309342 0.468307 -0.038745724 -0.025037464 -0.10029216 -0.4026064
0.84565896 0.34957126 -1.3428508 -0.6398335 0.059321042 0.2336409 -0.18767242 -0.45940226
-0.14376831 -0.49106917 0.16952375 0.5040951 -0.16041946 -0.118908875 0.275468 0.47752187
0.6244069 0.117585585 -1.2185342 -0.6412154 -0.9079178 -0.20003435 2.024583 1.0709306
-1.0038606 -0.2120641 1.8927189 0.9621711 0.10087867 0.0015531194 0.11590287 0.5541467
-0.100852236 -0.08658793 -0.60132974 0.17895585 0.37058046 -0.013866799 -0.5301553 -0.33454525
-0.6538283 -0.6006958 0.64251184 0.16111994 -0.2637187 0.10207191 -0.3222773 0.12141229
0.08056211 0.0060361256 0.37291893 -0.37518924 -0.3131143 0.26775825 0.24584278 0.16539676
-0.18535997 0.26316354 -0.09055519 -0.6635047 0.25680035 -0.10493183 -0.19262724 -0.4600687
0.22548766 0.5674758 -0.13259557 -0.6397044 -0.4196194 0.13225101 0.3510783 0.7991453
-0.048883017 0.07595162 -0.15276237 0.22537726 -0.5633684 -0.07362206 1.0081435 0.605577
-0.49978706 0.22695091 0.14670908 0.5238016 -0.20034349 0.67301416 1.4766799 -0.058637578
0.30575806 -0.12881473 -0.08371972 -0.55784106 -0.25269482 -0.014178348 0.38776314 0.2161213
0.347096 -0.16315055 0.28659528 -0.45935458 -0.041286413 -0.1726607 0.19509591 0.36531788
-0.3769005 0.19899671 -0.08898522 0.08933886 -0.15174992 -0.10461301 -0.15175854 0.035575103
-0.009383697 -0.47279224 0.29399455 0.34110737 0.1328488 0.049038325 0.08042147 0.17787495
0.09069863 -0.2839707 -0.49068233 -0.051729605 0.32837334 0.5682993 0.3459941 0.06077075
0.072885245 0.21980765 -0.5503955 -0.5382044 -0.17245312 0.2887195 -0.16456136 -0.51237565
0.11324306 -0.2502527 -0.6536858 0.1251032 -0.11285372 0.07629133 -0.31416214 0.07289366
-0.12982422 -0.17607467 0.08972912 0.30490318 0.4924936 -0.36553025 -0.61386734 0.053781554
-0.25126648 0.16985568 0.014696698 -0.32318616 0.5244301 -0.22866702 -0.21117638 -0.5341779
-0.67125833 0.0416868 0.71135944 0.715306 0.0068084206 0.040207174 -0.27183774 -0.030414704
-0.22201596 -0.22863206 0.19561322 0.38090262 -0.07772456 0.29576552 0.168183 -0.21193582
0.24645251 -0.032364313 -0.013324427 -0.30723944 0.2824077 -0.20688924 -0.05942026 0.44580698
-0.83382267 0.021937085 1.0968937 0.71487725 -0.59739596 -0.21186088 1.1764911 0.5004325
0.2962104 -0.37807295 0.20113741 0.92946416 -0.32563466 -0.58305115 0.002085249 0.7328612
00000000: 09f5 203f ac2a d73b a515 5dbf a58a 09bf
00000010: 78af a1be f287 d13d 4073 c6be 6d75 dd3d
00000020: 1b83 a33d c9b1 62be 443e c63c 4ae1 d53e
00000030: 87c7 8e3c 5400 0bbd 6a3f a03e 4872 6bbd
00000040: f271 023f 7e96 2c3e 2bbf 19bf 31ce bebe
00000050: 1d0a bfbd e755 26bd 7282 ccbe c190 dd3e
00000060: cc8a 4b3e 2fe2 a2be ec5e 533e c5e1 093f
00000070: 9cd1 9ebe d9cd 653d 7683 ca3e 6dc9 103f
00000080: cba8 ab3e 6db7 ac3e 4bc4 9dbe a525 05bf
00000090: 399e 723e 0d6e 8b3e f1e5 2a3d d584 01bf
000000a0: 63d9 c4be 53ce c7be 2299 003f a967 b13d
000000b0: adf7 efbe 6291 0e3f b978 4e3f 4989 bebd
000000c0: c5a6 58be 90ed 85be 84e8 283c efc5 ef3e
000000d0: d6b3 1ebd 5e1b cdbc fa65 cdbd 6d22 cebe
000000e0: 1b7d 583f 01fb b23e 89e2 abbf 21cc 23bf
000000f0: 9ffa 723d 8f3f 6f3e 332d 40be c636 ebbe
00000100: 0038 13be 6b6d fbbe a297 2d3e 600c 013f
00000110: 0045 24be 7f86 f3bd 240a 8d3e bf7d f43e
00000120: 21d9 1f3f b6d0 f03d eef8 9bbf b126 24bf
00000130: 4d6d 68bf ced5 4cbe c592 0140 4114 893f
00000140: 817e 80bf 5527 59be 9d44 f23f d850 763f
00000150: 7a99 ce3d 0a92 cb3a 7c5e ed3d 8fdc 0d3f
00000160: 9e8b cebd 0355 b1bd bff0 19bf 3440 373e
00000170: b9bc bd3e 9231 63bc 42b8 07bf 8449 abbe
00000180: 4b61 27bf 33c7 19bf a87b 243f a0fc 243e
00000190: 2306 87be 140b d13d 8801 a5be 02a7 f83d
000001a0: bffd a43d b1ca c53b 3bef be3e ce18 c0be
000001b0: 8450 a0be 9c17 893e 36be 7b3e c55d 293e
000001c0: 01cf 3dbe 5fbd 863e 0075 b9bd 72db 29bf
000001d0: 567b 833e 80e6 d6bd 1340 45be 208e ebbe
000001e0: 3de6 663e 1846 113f 22c7 07be abc3 23bf
000001f0: 5bd8 d6be cf6c 073e 89c0 b33e c994 4c3f
00000200: 8f39 48bd 868c 9b3d bd6d 1cbe 4cc9 663e
00000210: e938 10bf 2ac7 96bd d90a 813f 1807 1b3f
00000220: 17e4 ffbe d265 683e e83a 163e dd17 063f
00000230: d826 4dbe a84a 2c3f d903 bd3f f52d 70bd
00000240: 528c 9c3e 02e8 03be 3f75 abbd acce 0ebf
00000250: 3761 81be 4d4c 68bc e488 c63e e74e 5d3e
00000260: 91b6 b13e f010 27be 9ebc 923e 8630 ebbe
00000270: f11b 29bd f7cd 30be 39c7 473e f20a bb3e
00000280: 1af9 c0be cbc5 4b3e e23d b6bd 4bf7 b63d
00000290: 5564 1bbe 593f d6bd 9766 1bbe 33b7 113d
000002a0: 14be 19bc d311 f2be 7486 963e a0a5 ae3e
000002b0: 8409 083e 69dc 483d 03b4 a43d da24 363e
000002c0: 34c0 b93d 9c64 91be b73a fbbe 6ce2 53bd
000002d0: 8d20 a83e 107c 113f 2426 b13e c0ea 783d
000002e0: dc44 953d 4215 613e b8e6 0cbf c3c7 09bf
000002f0: 8d97 30be 0bd3 933e c682 28be 0d2b 03bf
00000300: faeb e73d 1f21 80be f457 27bf 0e1b 003e
00000310: da1f e7bd a13e 9c3d dcd9 a0be 4549 953d
00000320: a4f0 04be eb4c 34be e7c3 b73d 451c 9c3e
00000330: 1f28 fc3e c826 bbbe 6926 1dbf 0c4a 5c3d
00000340: 00a6 80be a6ee 2d3e 6bca 703c a878 a5be
00000350: 0d41 063f b027 6abe 9f3e 58be e2bf 08bf
00000360: 96d7 2bbf c7bf 2a3d a71b 363f 4b1e 373f
00000370: 2c19 df3b 47b0 243d 512e 8bbe 4228 f9bc
00000380: 2758 63be 861e 6abe d54e 483e ab05 c33e
00000390: 0e2e 9fbd 946e 973e 2a38 2c3e b405 59be
000003a0: 0c5e 7c3e 7190 04bd b34e 5abc 7d4e 9dbe
000003b0: be97 903e c6da 53be a962 73bd d040 e43e
000003c0: 6775 55bf 67b5 b33c 0367 8c3f 3202 373f
000003d0: f1ee 18bf 0ff2 58be 4397 963f 581c 003f
000003e0: e4a8 973e c792 c1be f7f6 4d3e 5df1 6d3f
000003f0: 96b9 a6be d742 15bf aca8 083b cb9c 3b3f

fc1.bias f4 [64]
0.14793697 -0.34098458 -0.62580895 -0.07367602 0.17984593 -0.3982035 -0.2165208 -0.44437358
0.39532745 0.4656515 -0.22447193 -0.117359 -0.44126 0.25714266 -0.18684429 0.63157916
0.049443975 -0.46676898 -0.10609455 0.39045265 0.16941494 -0.37194246 -0.36920962 0.05159427
-0.35629234 -0.07270099 0.31601715 -0.32115486 -0.15232198 0.33311683 -0.059130147 0.2875492
0.13353954 0.21129857 -0.35354623 0.016240526 -0.1927936 0.037611496 -0.23945017 -0.48795795
-0.21143915 -0.6081431 0.040055323 -0.45140916 -0.49944586 -0.37366164 0.58427703 0.20119028
0.071944244 -0.049751926 0.027124844 0.00038845706 -0.015178518 0.37308142 0.21823469 -0.023665791
-0.28166404 -0.9575798 0.23388539 0.019761203 -0.12915497 -0.249264 0.2152986 0.064579025
00000000: ca7c 173e 8895 aebe 0435 20bf 74e3 96bd
00000010: 8829 383e 54e1 cbbe a1b7 5dbe ef84 e3be
00000020: 5c68 ca3e e069 ee3e f8db 65be ea59 f0bd
00000030: d5ec e1be 34a8 833e 1c54 3fbe 2caf 213f
00000040: c485 4a3d 58fc eebe 1948 d9bd 69e9 c73e
00000050: 1c7b 2d3e 3e6f bebe 0b09 bdbe 8354 533d
00000060: f36b b6be 42e4 94bd 00cd a13e 696e a4be
00000070: 4bfa 1bbe 4a8e aa3e 7432 72bd a639 933e
00000080: 97be 083e a75e 583e 0304 b5be da0a 853c
00000090: af6b 45be 830e 1a3d 6d32 75be a0d5 f9be
000000a0: 8183 58be 44af 1bbf 0d11 243d 1a1f e7be
000000b0: 5eb7 ffbe 9450 bfbe 2e93 153f d304 4e3e
000000c0: 8157 933d adc8 4bbd ec34 de3c d3a9 cb39
000000d0: 52af 78bc 8704 bf3e ea78 5f3e c3de c1bc
000000e0: 4536 90be f323 75bf a77f 6f3e 3fe2 a13c
000000f0: 3341 04be 103f 7fbe 3c77 5c3e 0242 843d

fc2.weight f4 [2, 64]
0.34302458 0.06802393 -0.04346083 0.004889768 0.14749955 -0.029784268 -0.17937729 -0.113675065
0.18297718 0.111909136 0.20501159 -0.5020176 -0.149286 0.23258 0.69773716 0.20541583
-0.19445008 -0.2831714 -0.44302386 -0.8021331 -0.5473764 -0.10285167 -0.009055603 0.14321499
0.65286374 0.08482837 0.15213947 0.0014073036 0.2168679 0.09199881 0.23309909 -0.2608345
-0.07135515 -0.2776182 -0.177679 -0.32607856 0.16197103 -0.16415301 -0.05047428 -0.09528949
-0.1090222 0.0041533853 0.014385621 -0.03708893 0.012946784 -0.2668602 0.18929507 0.110476024
-0.05914034 0.0703706 -0.048582945 0.2636869 0.10646031 0.24473 -0.23093213 -0.031271495
-0.22002195 -0.49888742 0.10750548 -0.12900566 0.6972839 0.53064895 -0.07928301 -0.22711796
-0.30143163 -0.07384721 0.025662724 0.009594738 -0.030482037 0.15028161 0.12400691 0.17741716
-0.25442004 -0.16577367 -0.34197414 0.2710473 0.12837355 -0.0856572 -0.62453043 -0.008656843
0.032903485 0.2811604 0.24833827 0.7691741 0.566489 0.14842868 -0.025403716 -0.19942132
-0.73426926 -0.022125939 -0.10629547 -0.05125687 -0.15897094 -0.24077503 -0.361906 0.103235595
-0.021005603 0.32980487 0.30535385 0.4295397 -0.26673508 0.020984607 -0.0924785 0.083382204
-0.09349445 -0.11615923 0.16785012 -0.032924574 0.011977528 0.39566812 -0.18916321 -0.21194878
0.12180642 0.07476435 0.108666666 -0.2669112 -0.17027749 -0.15178205 0.037598018 -0.014369602
0.3229363 0.49927843 -0.24242947 0.06049327 -0.7602553 -0.6042872 0.18657781 0.013111465
00000000: eba0 af3e 2150 8b3d fc03 32bd 593a a03b
00000010: 1f0a 173e 23fe f3bc aeae 37be 79ce e8bd
00000020: 5f5e 3b3e 9e30 e53d 8fee 513e 3a84 00bf
00000030: 6ede 18be 7429 6e3e e79e 323f 8758 523e
00000040: ec1d 47be d7fb 90be 06d4 e2be 9858 4dbf
00000050: dc20 0cbf e5a3 d2bd f45d 14bc f3a6 123e
00000060: 1422 273f 7fba ad3d 73ca 1b3e 4675 b83a
00000070: 9e12 5e3e df69 bc3d 87b1 6e3e 198c 85be
00000080: a622 92bd f923 8ebe 7cf1 35be c5f3 a6be
00000090: bcdb 253e ba17 28be 1ebe 4ebd 2327 c3bd
000000a0: 0847 dfbd 1f19 883b abb1 6b3c 90ea 17bd
000000b0: bf1e 543c e6a1 88be 91d6 413e 4141 e23d
000000c0: 243d 72bd 761e 903d e9fe 46bd f801 873e
000000d0: dd07 da3d 809a 7a3e 7979 6cbe 8a16 00bd
000000e0: 6f4d 61be 2c6e ffbe d52b dc3d 0f1a 04be
000000f0: 3381 323f 9cd8 073f 215f a2bd 9c91 68be
00000100: 3f55 9abe 353d 97bd a23a d23c 3f33 1d3c
00000110: 77b5 f9bc 6ce3 193e 56f7 fd3d d8ac 353e
00000120: 5843 82be 93c0 29be 3c17 afbe b6c6 8a3e
00000130: 5b74 033e 0b6d afbd 3ae1 1fbf 6ed5 0dbc
00000140: cec5 063d 42f4 8f3e 634c 7e3e 98e8 443f
00000150: 6c05 113f b0fd 173e 741b d0bc 1a35 4cbe
00000160: 12f9 3bbf 7541 b5bc 70b1 d9bd b9f2 51bd
00000170: 47c9 22be bb8d 76be be4b b9be 2f6d d33d
00000180: f113 acbc 2fdc a83e 5757 9c3e a1ec db3e
00000190: 8091 88be e9e7 ab3c 5e65 bdbd 4ac4 aa3d
000001a0: 057a bfbd e4e4 edbd e7e0 2b3e ebdb 06bd
000001b0: 653d 443c 0395 ca3e 00b4 41be 1a09 59be
000001c0: a575 f93d 0d1e 993d a18c de3d 96a8 88be
000001d0: 395d 2ebe c16c 1bbe 6100 1a3d 7b6e 6bbc
000001e0: e857 a53e 6ca1 ff3e 6e3f 78be cbc7 773d
000001f0: 17a0 42bf 91b2 1abf 410e 3f3e 78d1 563c

fc2.bias f4 [2]
0.0333533 -0.007223436
00000000: 789d 083d 93b2 ecbb
