DeepAcTS/networks/intermediary/OLD_Runs/intermediary_polnet_rX_4500.pth (torch, 3231 bytes, 4 tensors)

fc1.weight f4 [64, 4]
0.79634184 -0.04552499 -1.3169454 -0.6963574 -0.31579185 0.10231008 -0.38759804 0.10813413
-0.043644737 -0.19040883 0.1593553 0.38541213 0.017429126 -0.03393586 0.3129838 -0.057482034
0.77070737 0.07489435 -1.2236965 -0.5501968 -0.3954143 0.026363978 0.11437522 0.55158466
-0.1656375 -0.28085524 0.64958113 0.62693554 -0.6172103 0.08903297 0.78213966 0.6692156
0.7087116 0.3165142 -0.94121176 -0.7148823 0.60768664 0.25596884 -0.5960381 -0.6945813
-0.6326486 -0.35658965 0.84067947 0.2905594 -0.47286788 0.6194179 0.99264413 -0.11195445
-0.38726842 -0.18783976 0.31889433 0.5995466 0.28120393 -0.022747295 -0.64849323 -0.6144441
0.94020355 0.22928277 -1.620835 -0.7381571 0.4089232 0.21938139 -0.7947926 -0.68707705
-0.396648 -0.45557693 0.56235987 0.6301326 -0.33391905 -0.12187824 0.7369453 0.5709908
0.7937063 0.06508344 -1.629005 -0.7676622 -1.083299 -0.084764965 2.4599717 1.1315718
-1.2554077 -0.09654612 2.505446 1.1594115 -0.31137514 -0.0040693427 0.664965 0.6273528
-0.082509056 -0.047767118 -0.599927 0.15593873 0.91138774 -0.074030966 -1.4802619 -0.77883595
-0.88325405 -0.5180509 1.1728638 0.40636823 -0.23279741 0.15474212 -0.33675805 0.11327472
0.41957185 -0.00991754 -0.23008919 -0.5874555 -0.3131143 0.26775825 0.24584278 0.16539676
0.045721486 0.2382499 -0.5193842 -0.7412402 0.60001534 -0.11511941 -0.78528684 -0.6789252
0.48306206 0.5484168 -0.6301089 -0.78242266 -0.9103324 0.10143435 1.0888232 0.8158492
-0.36387596 0.05866598 0.34118652 0.27252063 -0.71353716 -0.023413487 1.443565 0.7107942
-0.69856423 0.18592975 0.64273924 0.61564475 -0.467859 0.7562171 1.5658323 -0.10834692
0.52022415 -0.17438564 -0.03317247 -0.41995168 -0.529412 -0.019467453 0.94835895 0.47163606
0.521353 0.008218082 -0.9527894 -0.5504233 -0.21214567 -0.18714969 0.6200129 0.47725317
-0.3769005 0.19899671 -0.08898522 0.08933886 -0.15174992 -0.10461301 -0.15175854 0.035575103
-0.31316677 -0.40863627 0.58340067 0.44929948 0.1328488 0.049038325 0.08042147 0.17787495
0.09087576 -0.28318265 -0.49066257 -0.052296814 -0.08022196 0.8237796 0.7954881 -0.033736177
0.42159632 0.22085361 -1.152764 -0.792454 0.14942 0.29922348 -0.69121677 -0.67997175
-0.023487078 -0.017474197 -0.27813947 -0.011582179 -0.1123342 0.07286147 -0.31310236 0.07587896
-0.13602577 -0.15260838 0.37615588 0.38358453 0.7880201 -0.65558535 -1.2137171 0.098196276
0.0755606 0.1402877 -0.4548036 -0.45745394 0.8670106 -0.23886305 -0.8033201 -0.777086
-0.8711536 0.04896488 1.2566785 0.75729966 0.36102086 0.057010077 -0.9837969 -0.4460032
-0.37324443 -0.18400316 0.49289286 0.47758386 -0.08709504 0.25744835 0.14858706 -0.214817
0.5490897 -0.07409583 -0.61932373 -0.5220398 -0.0441072 -0.18184626 0.5044076 0.5146141
-0.9821767 0.10732388 1.4463956 0.83664465 -0.6608867 -0.15003507 1.5279281 0.576019
-0.034434248 -0.35778746 0.75167716 1.0786722 -0.55541635 -0.55646026 0.58855015 0.8460835
00000000: 0fdd 4b3f 6978 3abd ab91 a8bf 7b44 32bf
00000010: 78af a1be f287 d13d 4073 c6be 6d75 dd3d
00000020: d3c4 32bd 88fa 42be 092e 233e bd54 c53e
00000030: 87c7 8e3c 5400 0bbd 6a3f a03e 4872 6bbd
00000040: 144d 453f 3562 993d 16a2 9cbf b3d9 0cbf
00000050: be73 cabe 45f9 d73c 8e3d ea3d a734 0d3f
00000060: e09c 29be 42cc 8fbe f34a 263f d97e 203f
00000070: 7f01 1ebf eb56 b63d 4e3a 483f b751 2b3f
00000080: 206e 353f 260e a23e 41f3 70bf 8702 37bf
00000090: 5a91 1b3f 590e 833e f495 18bf 14d0 31bf
000000a0: 42f5 21bf eb92 b6be c536 573f 34c4 943e
000000b0: bd1b f2be 2c92 1e3f ed1d 7e3f 6048 e5bd
000000c0: 0c48 c6be 1159 40be 1e46 a33e e37b 193f
000000d0: f6f9 8f3e 8958 babc a703 26bf 354c 1dbf
000000e0: 2eb1 703f 1ac9 6a3e 8577 cfbf ddf7 3cbf
000000f0: 625e d13e 84a5 603e 8777 4bbf 48e4 2fbf
00000100: 7215 cbbe 6141 e9be d1f6 0f3f 5f50 213f
00000110: 70f7 aabe 4c9b f9bd 72a8 3c3f 742c 123f
00000120: 5630 4b3f 774a 853d 3c83 d0bf 8385 44bf
00000130: 8ba9 8abf 4199 adbd 2d70 1d40 58d7 903f
00000140: 33b1 a0bf f9b9 c5bd 3a59 2040 9967 943f
00000150: 906c 9fbe 1f58 85bb 253b 2a3f 319a 203f
00000160: 82fa a8bd 74a7 43bd d194 19bf 67ae 1f3e
00000170: b550 693f 8c9d 97bd 3979 bdbf cb61 47bf
00000180: f01c 62bf fc9e 04bf 6720 963f 7f0f d03e
00000190: 7262 6ebe b874 1e3e 8d6b acbe 94fc e73d
000001a0: 1fd2 d63e 2d7d 22bc 809c 6bbe 7c63 16bf
000001b0: 8450 a0be 9c17 893e 36be 7b3e c55d 293e
000001c0: 7446 3b3d c8f7 733e 5df6 04bf ebc1 3dbf
000001d0: 9b9a 193f bac3 ebbd 8f08 49bf 0bce 2dbf
000001e0: e953 f73e 0b65 0c3f d14e 21bf da4c 48bf
000001f0: 8b0b 69bf d0bc cf3d 8f5e 8b3f 7edb 503f
00000200: f34d babe bd4b 703d 00b0 ae3e d387 8b3e
00000210: 5faa 36bf a4cd bfbc bdc6 b83f 9cf6 353f
00000220: 1bd5 32bf 5e64 3e3e 8f8a 243f e59a 1d3f
00000230: 378b efbe 7297 413f 316d c83f fde4 ddbd
00000240: 692d 053f 2692 32be dbdf 07bd e803 d7be
00000250: 8b87 07bf 357a 9fbc a7c7 723f 487a f13e
00000260: 6477 053f 22a5 063c 02ea 73bf 8be8 0cbf
00000270: b73c 59be 2ba4 3fbe 2ab9 1e3f 875a f43e
00000280: 1af9 c0be cbc5 4b3e e23d b6bd 4bf7 b63d
00000290: 5564 1bbe 593f d6bd 9766 1bbe 33b7 113d
000002a0: 6557 a0be c638 d1be bf59 153f 950a e63e
000002b0: 8409 083e 69dc 483d 03b4 a43d da24 363e
000002c0: 121d ba3d 51fd 90be 2038 fbbe 2f35 56bd
000002d0: 694b a4bd 38e3 523f 1ca5 4b3f f22e 0abd
000002e0: 79db d73e 7327 623e c58d 93bf 44de 4abf
000002f0: 8e01 193e d233 993e 95f3 30bf a112 2ebf
00000300: f967 c0bc 0c26 8fbc 4c68 8ebe 2ec3 3dbc
00000310: 790f e6bd 6538 953d f44e a0be 6e66 9b3d
00000320: 574a 0bbe 5f45 1cbe 8197 c03e 3165 c43e
00000330: afbb 493f 71d4 27bf 155b 9bbf 211b c93d
00000340: 84bf 9a3d 94a7 0f3e 04dc e8be 6737 eabe
00000350: 68f4 5d3f 8498 74be 63a6 4dbf 1cef 46bf
00000360: ec03 5fbf 668f 483d d7da a03f 64de 413f
00000370: bad7 b83e 6683 693d 1dda 7bbf 885a e4be
00000380: e519 bfbe 536b 3cbe 745c fc3e df85 f43e
00000390: e25e b2bd 45d0 833e 3527 183e fdf8 5bbe
000003a0: 2591 0c3f 8ebf 97bd 008c 1ebf 66a4 05bf
000003b0: c0a9 34bd e835 3abe db20 013f c0bd 033f
000003c0: ef6f 7bbf 9fcc db3d 7e23 b93f 582e 563f
000003d0: df2f 29bf cba2 19be 2693 c33f fb75 133f
000003e0: ed0a 0dbd eb2f b7be ea6d 403f ee11 8a3f
000003f0: c42f 0ebf 2e74 0ebf 39ab 163f ee98 583f

fc1.bias f4 [64]
0.20507795 -0.34098458 -0.6264739 -0.07367602 0.27216393 -0.32121894 -0.22011216 -0.35652363
0.4321799 0.49374 -0.34339106 -0.13410696 -0.39152324 0.2883445 -0.21072438 0.6465101
0.0004142741 -0.4384632 -0.21009205 0.511849 0.30427548 -0.3134653 -0.39308 0.097382315
-0.48628932 -0.113754 0.3384257 -0.32115486 -0.09940729 0.36331573 -0.00028974822 0.30609176
0.04950434 0.3147504 -0.32744935 0.1077387 -0.15776055 0.1193032 -0.251862 -0.47186494
-0.21143915 -0.6081431 -0.0063039176 -0.45140916 -0.4998057 -0.30324945 0.61024815 0.24452695
-0.075388335 -0.059125416 0.0032940207 0.0045438595 -0.0015901509 0.40297917 0.30969092 -0.22122939
-0.27448043 -0.9803995 0.2666513 0.0031595882 -0.100201145 -0.31036878 0.15354247 0.0035032763
00000000: f4ff 513e 8895 aebe 9860 20bf 74e3 96bd
00000010: 1259 8b3e cf76 a4be 1565 61be 448a b6be
00000020: af46 dd3e 7dcb fc3e f4d0 afbe 5653 09be
00000030: bc75 c8be e4a1 933e 22c8 57be b081 253f
00000040: ee32 d939 407e e0be 5f22 57be 8908 033f
00000050: ffc9 9b3e 867e a0be c841 c9be 6170 c73d
00000060: eafa f8be dbf7 e8bd 2246 ad3e 696e a4be
00000070: 0d96 cbbd 8504 ba3e 59e9 97b9 0fb8 9c3e
00000080: 10c5 4a3d f726 a13e 71a7 a7be 1ca6 dc3d
00000090: fb8b 21be 3c55 f43d 0ef4 80be 4898 f1be
000000a0: 8183 58be 44af 1bbf 1891 cebb 1a1f e7be
000000b0: 88e6 ffbe 8343 9bbe 3939 1c3f 4665 7a3e
000000c0: 3365 9abd 7e2d 72bd 7fe0 573b a8e4 943b
000000d0: 9c6c d0ba 4953 ce3e cf8f 9e3e f589 62be
000000e0: b388 8cbe 76fb 7abf 8586 883e 1811 4f3b
000000f0: 4236 cdbd a8e8 9ebe 3d3a 1d3e 3997 653b

fc2.weight f4 [2, 64]
0.5032118 0.06802393 -0.04420387 0.004889768 0.34811327 -0.081723526 -0.3142828 -0.3429129
0.28456905 0.19407412 0.6296198 -0.6118671 -0.20158304 0.3203013 0.9312033 0.27926794
-0.25232857 -0.42420712 -0.87859327 -0.9681411 -0.8267922 -0.20341143 -0.009621662 0.6634548
1.1169139 0.09357986 0.21939787 0.0014073036 0.274863 0.19838232 0.3471536 -0.371188
-0.13504152 -0.43435803 -0.4850798 -0.4252374 -0.101510406 -0.3982979 -0.55767745 -0.26015672
-0.1090222 0.0041533853 -0.023191212 -0.03708893 0.012759042 -0.5698051 0.27904463 0.1917014
0.044473868 0.06570561 -0.06135023 0.6361806 0.16154182 0.36352652 -0.38375875 -1.0158589
-0.31586748 -0.49618715 0.2080443 -0.1467375 0.98808676 0.82516897 -0.11507432 -0.295335
-0.46215522 -0.07384721 -0.01732043 0.009594738 -0.23151784 0.18616791 0.25562674 0.39095446
-0.3563615 -0.24824663 -0.76935965 0.38040245 0.17227611 -0.17370681 -0.86168045 -0.082773514
0.08988458 0.40534723 0.6793613 0.93477756 0.8453384 0.23787165 -0.025995132 -0.72049206
-1.2010223 -0.030903772 -0.17384462 -0.05125687 -0.21885324 -0.3474635 -0.47712183 0.21318875
0.042140115 0.486141 0.5939215 0.528373 -0.01667638 0.2545484 0.4053681 0.22407918
-0.09349445 -0.11615923 0.20452371 -0.032924574 0.012081849 0.6981564 -0.27920365 -0.29363218
0.017955914 0.07942155 0.12046253 -0.6398104 -0.22666655 -0.27088082 0.19001892 0.9617957
0.41314638 0.496449 -0.3432844 0.07727145 -1.0533882 -0.904405 0.22178108 0.08043496
00000000: 7dd2 003f 2150 8b3d 1e0f 35bd 593a a03b
00000010: e73b b23e aa5e a7bd ade9 a0be 4892 afbe
00000020: 09b3 913e 5ebb 463e c32e 213f 52a3 1cbf
00000030: c96b 4ebe 88fe a33e 5763 6e3f 35fc 8e3e
00000040: 3631 81be ad31 d9be 7deb 60bf 18d8 77bf
00000050: a7a8 53bf 164b 50be 2da4 1dbc 2cd8 293f
00000060: 09f7 8e3f cca6 bf3d d6a9 603e 4675 b83a
00000070: d8ba 8c3e bc24 4b3e 1ebe b13e 5b0c bebe
00000080: 5348 0abe 2d64 debe 615c f8be b7b8 d9be
00000090: b0e4 cfbd b4ed cbbe f3c3 0ebf 4333 85be
000000a0: 0847 dfbd 1f19 883b 7ffb bdbc 90ea 17bd
000000b0: 4d0b 513c bfde 11bf f0de 8e3e 5f4d 443e
000000c0: 3b2a 363d aa90 863d 614a 7bbd bbdc 223f
000000d0: 386b 253e 2620 ba3e 077c c4be aa07 82bf
000000e0: 62b9 a1be 3e0c febe 9109 553e 5b42 16be
000000f0: 41f3 7c3f 463e 533f 16ac ebbd 2636 97be
00000100: 9c9f ecbe 353d 97bd 93e3 8dbc 3f33 1d3c
00000110: 0313 6dbe cda2 3e3e 82e1 823e 2f2b c83e
00000120: 0475 b6be 5d34 7ebe c1f4 44bf 1cc4 c23e
00000130: 2669 303e 33e0 31be 1797 5cbf 2985 a9bd
00000140: 6815 b83d ac89 cf3e 9fea 2d3f 954d 6f3f
00000150: 1968 583f a094 733e bef3 d4bc 2b72 38bf
00000160: 19bb 99bf e829 fdbc 5304 32be b9f2 51bd
00000170: 101b 60be bce6 b1be 5049 f4be 274e 5a3e
00000180: 1d9b 2c3d 79e7 f83e 3d0b 183f 7443 073f
00000190: e79c 88bc 2b54 823e 688c cf3e 0375 653e
000001a0: 057a bfbd e4e4 edbd aa6e 513e ebdb 06bd
000001b0: f3f2 453c 61ba 323f c8f3 8ebe f556 96be
000001c0: 4818 933c c4a7 a23d 0fb5 f63d 9dca 23bf
000001d0: 471b 68be e4b0 8abe 5294 423e 3e38 763f
000001e0: ec87 d33e 902e fe3e f9c2 afbe 7e40 9e3d
000001f0: 6dd5 86bf 1687 67bf 941a 633e 16bb a43d

fc2.bias f4 [2]
0.078657165 -0.052748073
00000000: 0217 a13d 5d0e 58bd
