DeepAcTS/networks/intermediary/OLD_Runs/intermediary_vartransnet_rX_end.pth (torch, 21519 bytes, 8 tensors)

fc1.weight f4 [64, 1]
00000000: 5a49 043f c2b5 0a3f f285 03bf b2de 1c3f
00000010: 00ea b13d 1ca9 62bf c39e 9d3d 4d86 933e
00000020: a413 4abf 1d53 193f 8010 0c3c aad8 cc3e
00000030: 1035 eb3d e487 783f 8a0b 2abf ea02 733e
00000040: 7864 023f 7422 eabe 489d 79be f8d9 82be
00000050: af23 723f a095 013f 167c bd3e e432 e43e
00000060: df3a 563f 2099 f8bd 1b69 9b3e 9194 1b3f
00000070: 8136 2cbf 96db 5dbf aa3b f7be 10d0 9fbd
00000080: 907a 7e3f 58e7 52be 5ed7 03bf 467f 15bf
00000090: 72b0 7d3f a6f0 773f d409 3d3f 5ca7 813e
000000a0: 92e8 7a3f 0cb0 383f 8044 113e 0ac2 5bbf
000000b0: 241e d5be 3490 56bf f5fd 6a3f f013 293f
000000c0: ca7f 6c3f 2183 2e3f 6055 513f 1505 153f
000000d0: 3616 7abf 002a d6be bcbb 1ebf e2fd 6c3f
000000e0: 2fec 943e 6729 043e a463 d3be 0064 fabd
000000f0: 28b8 b2be b2e3 a7be fed1 b53e e273 a9be
0.51674426 0.5418359 -0.5137626 0.61277306 0.0868721 -0.8853929 0.07696297 0.288134
-0.7893622 0.59892446 0.008548856 0.40009052 0.1148473 0.9708235 -0.6642386 0.2373158
0.50934553 -0.4572941 -0.24376404 -0.25556922 0.945857 0.50618935 0.37008733 0.44570076
0.8368358 -0.12138581 0.30353627 0.6077357 -0.67270666 -0.86663187 -0.48287708 -0.07803357
0.99405766 -0.20596063 -0.515005 -0.5839733 0.9909736 0.96851575 0.7384312 0.25322998
0.98011124 0.72143626 0.14186287 -0.85842955 -0.41624558 -0.83813787 0.9179376 0.6604605
0.9238249 0.68168837 0.81770897 0.5821088 -0.9769014 -0.41828918 -0.6200521 0.92574894
0.29086444 0.12906419 -0.41286957 -0.12226105 -0.34906125 -0.32790905 0.35511774 -0.33096224

fc1.bias f4 [64]
00000000: aa96 27bf cda7 5a3f 4edc 55bf 5b99 c2be
00000010: f484 19bf 4dc0 b73e 6450 ba3e 5157 4cbd
00000020: b065 e8bd 5aa3 943d 6c06 87be 6ee0 023e
00000030: 1ae3 5dbf e6dc e6be d85b 05be 2a1e 5f3f
00000040: aa4c 06bf 63fe 2e3f 4c6c c0be a065 cdbd
00000050: 6cd1 753f 2474 2ebf 2f3d 373e 5c9a 5fbf
00000060: 5962 133f 806e 38bc 2835 ea3e 09e5 da3e
00000070: cacf 613f 9526 ac3e c183 2b3f 2060 16bd
00000080: 5d5b d0be 7af2 55bf ae0c 3dbf 8cb9 c23e
00000090: dcf0 45bf 0b93 88bd 127d 363f 0c4b 0cbf
000000a0: cf76 61be 35e7 183f b07d a3be 51c3 443f
000000b0: 7a7c 70bf 6850 ff3e ac54 a13e 44a6 4ebf
000000c0: 88ab d93e cfa0 343e 80ca 4e3e f50e 553e
000000d0: 0eda 323f c65b 29bf 9fb8 163f ec56 09bf
000000e0: 26a9 3e3e 1c41 5c3b 00cc f0ba 007b 6dbd
000000f0: 4a80 06bf f0ae 763f 8c3f e33e 874c 723f
-0.6546427 0.85412294 -0.83539283 -0.38007626 -0.59968495 0.358889 0.36389458 -0.04988796
-0.1134752 0.07257719 -0.26372087 0.12780926 -0.86674654 -0.45090407 -0.13023317 0.871554
-0.5246073 0.68356913 -0.37582624 -0.10029149 0.9602268 -0.68145967 0.17894433 -0.8734491
0.5757194 -0.011256814 0.4574368 0.42752865 0.88207686 0.33623186 0.66997916 -0.036712766
-0.40694705 -0.83573115 -0.7384747 0.38032186 -0.7732065 -0.06668671 0.7128459 -0.5480201
-0.22017978 0.59727794 -0.3193183 0.7686053 -0.93939936 0.49866033 0.31509912 -0.8072245
0.4251368 0.17639469 0.20194435 0.20806487 0.69863975 -0.6615566 0.5887546 -0.5364826
0.18619213 0.0033608144 -0.0018371344 -0.05797863 -0.52539504 0.96360683 0.4438442 0.9464802

fc2.weight f4 [64, 64]
00000000: fa08 afbd d0cd 963d 2cdf 9e3d 5616 b93c
00000010: 3a03 aebd fd7a 4bbd 8a95 383e f9d1 22bd
00000020: f061 b2bc 8b9b df3d c2e6 c6bd b312 ff3d
00000030: 1820 423d 98d7 34bd 6220 97bd 3bed a53c
00000040: 465b c93d ae60 6abd 58ae 75bd dac8 ba3d
00000050: 4d1e 3c3e 4094 7e3d 2b8b 373e 4490 4b3d
00000060: 8797 553c 90e0 50bc b628 9abc 3d71 553d
00000070: ae1d 293e c61e 1e3a 06d1 cd3d c6bd df3d
00000080: 87fa 863d 2ad7 ecbd 4894 7d3d ad9f 193e
00000090: 0347 873d 17ec 823d 8044 133e ac5b c4bd
000000a0: 8f33 a43d 055e 0dbd 901e bc3d 1fe2 443e
000000b0: e04b 0a3c 1640 b03b dfab db3d f095 2b3d
000000c0: f0e3 a13d e80e 113e a14e 1f3e ede6 e53d
000000d0: 0252 ed3d 6e9a d8bd 316e f93d 26d4 083d
000000e0: 0514 1d3e 519e eebc f673 c13d 3630 c93d
000000f0: d836 393d 4fb9 2a3e b90f 1f3e a8d0 07bd
00000100: 0061 6ebb 982a 84bc 2847 943d e637 fabd
00000110: bae9 90bd a011 63bc 6ce3 693d 2000 ad3c
00000120: 6a66 f43d 3669 e3bd d8aa 1b3d b013 5b3d
00000130: 0223 f1bd 9e21 c1bd 2caf df3d 8832 d13d
00000140: 48cb 023d 6c61 fabd d2a9 893d fc9c 603d
00000150: 4419 1a3d a097 abbc 98f6 b4bc 004e 2abd
00000160: 5c03 35bd 704c 0e3c c881 f93d e2a8 cfbd
00000170: 1675 b2bd 6ef7 a4bd fc5d 1e3d bc5d 2a3d
00000180: 00c2 a13b 6071 99bd 68bd e7bd e873 b3bd
00000190: 801e d1ba 4c64 98bd 48a1 f23d daff 93bd
000001a0: c242 bebd 00eb 8bbb 3884 49bd 0e9f cdbd
000001b0: b82c ccbc f239 f3bd 7672 80bd f484 413d
000001c0: 38f5 f1bd c019 df3b 0089 91bd e829 833c
000001d0: c899 223d 7475 72bd 50bd 35bc 2adb c2bd
000001e0: ce6c c9bd 94ce 593d 6401 323d c2f7 88bd
000001f0: 9ab7 b03d 84fc c5bd 94d5 d03d 683b cebc
00000200: f8a4 a83d 662c b0bd 80ad 663b b81f b3bc
00000210: 00b0 fabc ece0 b73d 6075 a43d 2033 60bc
00000220: f474 0c3d dc6e cd3d dcf9 c73d 70fc 7ebc
00000230: 00b6 9abd a437 1b3d 5a6e d3bd a863 903d
00000240: 8005 f73d 8e6e 96bd c8a3 56bd 34d8 683d
00000250: d005 793d 8c10 3a3d 303a 5e3c d41b 1bbd
00000260: 3a8e ecbd bec6 9e3d e056 55bc 609a cf3d
00000270: b08c 5bbd 42cc ac3d 7873 e4bc 80fb 753c
00000280: 600e cebc 2cdb fa3d 6cc3 1d3d 5084 b93c
00000290: 0874 43bd 94d1 a63d 7ce7 053d 8e21 d23d
000002a0: 0417 453d 7c78 243d f8c3 e03c d89c b6bc
000002b0: 3867 11bd a0a8 c3bd d8e0 dbbd 48ce 7abd
000002c0: f821 f5bd 807f 1fbb 5c60 a0bd 2071 aabd
000002d0: 085b 823d f45b 843d 2844 f1bd c0c8 a73b
000002e0: 8035 deba c293 86bd b6c1 d0bd fa66 d2bd
000002f0: 3ca7 4dbd 0ac1 953d 98ce ebbc bc65 97bd
00000300: 0c49 97bd 55a5 693a 8402 3a3d aa10 d83d
00000310: 0006 41ba 5534 0b3e dc50 3d3c afd2 ce3d
00000320: 0410 4e3d 70c7 c03d ece3 52bd c122 53bd
00000330: a025 e0bc ed9c 393e dc1a 83bd 47bf 0b3e
00000340: 4020 07bc 2412 86bc 606a 893b 0a96 963d
00000350: 3e41 093e 948e 89bd e5c8 f33d 82c4 c63d
00000360: 6e68 5b3d f8b3 a6bd 2bdf 8e3d c8c0 113e
00000370: 7882 dab9 040a af3d 8bf9 163e a432 003d
00000380: 0779 493d 8e1f f1bd 38b7 da3d 0635 3bbc
00000390: 314d b03d 9086 383c d79f 1e3e 2e24 f03d
000003a0: 1412 a03d 0c67 dfbb a877 88bd 6213 72bd
000003b0: 0091 213c 8cd4 883d 818d 273e 9043 0c3c
000003c0: 7f16 92bc 7ec3 67b7 6b48 faba 8393 88bc
000003d0: 3fe4 f73d 3240 b23d b883 fb3d 7efa c0bc
000003e0: 4e5f 403d f53a 323e 3a33 acbd 6492 d03d
000003f0: 04d0 29bd 078c 1b3e c748 213e 9ade 1c3e
-0.08546634 0.07363474 0.077574104 0.022593658 -0.08496709 -0.049677838 0.18025795 -0.039751027
-0.021775216 0.10918339 -0.09711982 0.124547385 0.04739389 -0.04415092 -0.073792234 0.020254722
0.09831862 -0.057221107 -0.05998072 0.09120341 0.18370934 0.0621531 0.17924182 0.04969813
0.013036615 -0.012748852 -0.01881824 0.052109946 0.16515228 0.0006031807 0.10049634 0.10924868
0.06590753 -0.11564477 0.06190899 0.15002318 0.06605341 0.06392687 0.143816 -0.095877975
0.080176465 -0.034513492 0.09185517 0.19226883 0.008440942 0.0053787334 0.10726141 0.04189104
0.07904804 0.14165843 0.15557338 0.11225686 0.115879074 -0.1057633 0.121792205 0.033405446
0.15339668 -0.029128226 0.09445946 0.09823649 0.04521832 0.16672252 0.15533341 -0.033157974
-0.0036373734 -0.016133592 0.072401345 -0.12217693 -0.0707583 -0.013859183 0.057101652 0.021118224
0.119335964 -0.11104052 0.038004726 0.053485572 -0.11774255 -0.0943024 0.10922083 0.10214716
0.031932145 -0.12225613 0.06721844 0.054837212 0.03762175 -0.020946324 -0.022090241 -0.041578293
-0.044192657 0.008685216 0.12182957 -0.10139634 -0.087137386 -0.08055006 0.03866385 0.0415933
0.0049364567 -0.07492328 -0.11315423 -0.08762342 -0.0015954524 -0.07441005 0.11847168 -0.07226534
-0.09290077 -0.0042699575 -0.04919836 -0.10040103 -0.024923667 -0.118762866 -0.06271832 0.047245935
-0.1181435 0.0068084896 -0.07106209 0.016011193 0.03969744 -0.059194043 -0.011092499 -0.095144585
-0.09835206 0.053175524 0.043458357 -0.06687881 0.08628769 -0.09667304 0.10196987 -0.025174811
0.0823459 -0.08602218 0.003519863 -0.02186571 -0.030601501 0.08978447 0.080302 -0.013684064
0.034291223 0.100309104 0.09764454 -0.0155631155 -0.07554245 0.03789486 -0.10323782 0.07050258
0.12061596 -0.073453054 -0.052402288 0.056846812 0.06079656 0.045425937 0.013563678 -0.037868336
-0.11550565 0.07752751 -0.013021201 0.101368666 -0.053600967 0.084373966 -0.027887091 0.015013576
-0.025153339 0.12248835 0.038516447 0.0226461 -0.047718078 0.081454426 0.032691464 0.10260306
0.048117653 0.040153965 0.027437195 -0.022291586 -0.035498828 -0.09553647 -0.10736245 -0.06123188
-0.1196937 -0.002433747 -0.07830879 -0.08322358 0.06365019 0.06462851 -0.11780578 0.005120367
-0.00169532 -0.06571151 -0.101931974 -0.102735475 -0.050208315 0.0731221 -0.028785035 -0.07392451
-0.073869795 0.0008912881 0.045412555 0.105500534 -0.000736326 0.13594182 0.011554923 0.100987785
0.050308242 0.0941304 -0.051486894 -0.051546816 -0.027361691 0.18126269 -0.064016074 0.13647185
-0.008247435 -0.016366072 0.004193589 0.073528364 0.13403794 -0.06716648 0.11903552 0.0970545
0.05356639 -0.08139795 0.0697616 0.14233696 -0.00041677407 0.08546832 0.1474363 0.031298295
0.049187686 -0.11773597 0.106794775 -0.011426216 0.08608473 0.011262551 0.15490662 0.11725651
0.07815948 -0.006817704 -0.066634476 -0.059100516 0.009861231 0.06681165 0.16362573 0.00856103
-0.017832993 -1.38141895e-05 -0.0019095069 -0.016671902 0.12104081 0.087036505 0.12280983 -0.023556944
0.04696589 0.17405303 -0.08408208 0.10184172 -0.041458145 0.15190135 0.15750419 0.15319291

fc2.bias f4 [64]
00000000: aa0f 203e a00f 153d 0a3e e3bd 5c84 033c
00000010: a017 a0bd 52ce 1ebe d52e 2b3e 6cb8 f8bd
00000020: 26ee b7bd 89b7 513d 67c0 33bc bc92 56bd
00000030: b9b3 f53c e32a 953d ae48 8c3c a69b e4bd
00000040: aa1d 4a3e 4da2 843b 543b 263d 773f f73d
00000050: 4b24 aa3d 7a58 8d3d 9078 10bd 448a b4bd
00000060: 6ffc d6bd 6ac8 b2ba a4f6 44bd 90da ed3d
00000070: 1cbe fbbd d0f1 6fbc 7c8b bdbd 68e4 623d
00000080: 9642 37bd 5ab2 82bd 90d1 aa3d 35c6 85bd
00000090: c800 f6bd e4b1 34bd fe65 a43c 5dd4 463e
000000a0: 624d be3d bd47 a83d 34ce e1bc 7a9c 1f3d
000000b0: 84ca 613d 00c8 6a39 e3fb a4bd 1577 52bd
000000c0: 868d abbc faa7 e6bd 4ca8 503d d733 683d
000000d0: b969 09be 703e ff3d b284 a93d 2992 7c3d
000000e0: 7237 cfbc a38e fd3c c232 5d3d 9393 8c3c
000000f0: eae5 ca3d 9ebe 9a3d 007b c93d fa4f d83c
0.15630975 0.036391854 -0.110958174 0.008027162 -0.07817006 -0.15508392 0.16717084 -0.12144551
-0.0898097 0.051200423 -0.010971165 -0.05238603 0.029992925 0.072835706 0.0171245 -0.111625
0.19737878 0.004047668 0.040583923 0.12072652 0.083077036 0.06901641 -0.035271227 -0.088154346
-0.10497367 -0.001364005 -0.048086777 0.11613953 -0.1229212 -0.014645055 -0.0925512 0.055393606
-0.044741236 -0.06381674 0.08340752 -0.065319456 -0.12011868 -0.044114962 0.020068165 0.19416948
0.09292103 0.08216808 -0.027564146 0.038967587 0.055124775 0.00022390485 -0.08055856 -0.051383097
-0.020941507 -0.11262508 0.05094175 0.056690063 -0.13419236 0.12463081 0.08277263 0.061662827
-0.025294993 0.030951804 0.054003485 0.017160213 0.09907134 0.075558886 0.098379135 0.026405323

mean_fc.weight f4 [4, 64]
00000000: b7c9 bdbd d6eb c9bd 9868 143d 61cd 77bb
00000010: f8d0 ce3d 0994 d3bc d181 bebd ec56 8f3d
00000020: 3c63 45bd b83e acbd 25c2 ce3c 0e1d 8fbd
00000030: 895c e6bd da25 893d fe85 33bd 0fc8 1cbd
00000040: 6229 11be 75d6 fdbd e073 033d 84d2 853d
00000050: 61f0 f1bc 21ce f7bc 53cd 9a3c ba9e ee3d
00000060: f03c b2bd 48a7 b23d 8e26 fe3d 0864 8dbc
00000070: 00a0 8238 f01f 103c 120a e23d a803 ff3d
00000080: 55d4 d3bd 3080 5dbd 94fb 9c3d 7a5b d33d
00000090: 1093 b7bd f2b6 debd 67a3 dc3d 11ac 37bd
000000a0: 9146 5cbd c8fc 14be 52cb d53d 528f 6e3d
000000b0: a9c6 aabd dc6d 04bd 8627 c13c 4868 f63c
000000c0: d08f 3ebb 87b7 00be e731 11bd afa3 94bd
000000d0: 08de 0ebb 5803 47bd ae26 c13d 1492 153d
000000e0: ff34 13bd c74a 5f3d e3a4 d13d 4ccf 253d
000000f0: 1cfd 24bd 5c23 fd3b e3ce a1bc 2dcb 00bd
00000100: 9534 e2bd def0 dcbd 56e1 8c3d 0c1c 0bbe
00000110: 10b5 423d 2b12 5d3d c9c2 b8bd e450 b2bd
00000120: e0b0 2d3c 362b 0abd c57d 953d 98f0 753d
00000130: e34b d1bd fa42 02bd 8ec4 b3bd a4d0 ae3b
00000140: 4132 05be 6508 cebd 7036 f7bd a3f2 24be
00000150: e840 2abe f1c8 9d3d 14d1 33be 8f8e cd3d
00000160: 9b71 84bd 8db1 953d 08de ffbc 300d 36bd
00000170: 6889 8d3c 2459 133d b0cf 843c b086 e43d
00000180: 350b afbd 8cac 923d 0092 f23d 80b8 bfbc
00000190: 94c3 28bd 6277 a9bd a0b4 1e3d 84f5 0cbe
000001a0: ec1b 95bd 5989 aabb e126 16bd b79b b13c
000001b0: 199a 2e3d d08b 91bc 1e2b 353d 4be5 233c
000001c0: a8bd 79bc 1ba4 8d3d 4c0c 903c 4fe5 49bc
000001d0: 2375 a2bd 9602 96bd 020f b9bd da50 01be
000001e0: 2e13 783d 6067 c6bd ad26 cdbd 7ad5 c83c
000001f0: b438 7f3d bc40 f3bc a43b 2abe 24b8 d9bc
00000200: f07a 0f3b f013 1f3d 1ae5 b13d 3702 8cbd
00000210: da39 95bd 573e 893d ab34 913d 5c3e 7c3d
00000220: ecd0 33bd 416e a1bd bac6 cf3d 06b4 94bd
00000230: 6efe fe3c 84d7 c6bd a8de e1bd f3f0 183d
00000240: ffd5 b3bd 11fd ad3d e0c4 fb3d f72e 09be
00000250: f396 0fbd 5401 aabd e3fd d13d 9f6d 0dbe
00000260: 6060 793d 3cbe f43c c0e3 26bb 6270 b73d
00000270: 901e 2ebc 78a6 60bd 8a54 bebd 4cc1 193d
00000280: 1c68 b33d 00dc 4239 e0f1 583d 94bd eabc
00000290: 6079 873d a23c c93d 8650 2e3d 56a2 3abd
000002a0: 71e2 d8bd 74c3 f2bd 8cc5 d13c 2ef3 8bbd
000002b0: 8745 b63d 621d c03d f597 443d 7ca1 ae3c
000002c0: af35 f33a d7a5 fbbd 487a aa3d c081 6f3c
000002d0: e370 883d 963a 9a3d 798d 05be 9188 efbd
000002e0: 7e7e a93d 9d3e f8bd 5ea1 4dbd a251 1d3d
000002f0: 6040 e73d 4758 1dbd eac7 cabd b910 60bd
00000300: 7475 6a3d 0a8f 85bd c8c5 b93c 493c 7bbd
00000310: 509c a03c 10f0 023e 5f10 d03d f2ff fa3d
00000320: 8666 cfbd 4f9d da3c 415a 40bd cc6e 8cbd
00000330: 2564 e03a b1d1 27bd ae5c 863d b604 d4bd
00000340: 457c 713c bda4 36bd e867 663d 4afd 5ebd
00000350: 0f2e fcbd b1b0 b23c fe85 7fbd e3b9 91bd
00000360: 9f4c d73d f41d aebd cc68 77bd 08b3 44bd
00000370: 7c85 c53d eea5 c9bd 7cad 5e3d fcbe debd
00000380: 786f a33d 80a7 2c3c 4457 993d f5f7 8dbc
00000390: 8e1d ec3d 1261 d2bd 50b2 a0bb 6c11 9cbd
000003a0: 0212 9cbd 32ab 023d c56b 093d 9ca2 253d
000003b0: 4aa2 38bc e8b3 05bd 803f b4bc bb41 b63d
000003c0: 7158 73bd 0225 8dbd d9ae 113d 74cb 6bbd
000003d0: c197 dc3c 7280 e33d 2dec 083c 3dff 6c3d
000003e0: d2c7 1a3d 2d41 683d a5a4 bf3b 9dd8 cebc
000003f0: 6810 03bd b3a0 e93c a585 8b3a 14f5 b83d
-0.0926699 -0.09859435 0.03623256 -0.0037811624 0.100984514 -0.025827425 -0.09302104 0.06999001
-0.04819034 -0.084104 0.02523906 -0.069879636 -0.112481184 0.06696673 -0.043828957 -0.03827673
-0.14175943 -0.1239442 0.03209293 0.06534293 -0.029533567 -0.030249657 0.018896734 0.116513684
-0.08703029 0.087233126 0.124096975 -0.017259613 6.2286854e-05 0.008796677 0.11037077 0.12451869
-0.103432335 -0.054077327 0.07665172 0.10320182 -0.08963597 -0.10874738 0.10773354 -0.04484183
-0.053778235 -0.14549553 0.10439171 0.05824215 -0.08338673 -0.032331333 0.023578417 0.030079022
-0.0029077418 -0.1257001 -0.03544798 -0.07257783 -0.0021799821 -0.048587173 0.09431206 0.036516264
-0.035939213 0.054514673 0.10236528 0.040480897 -0.040280446 0.0077251624 -0.019751972 -0.031443764
-0.110451855 -0.10788129 0.06878917 -0.13584918 0.047535956 0.053972404 -0.09021527 -0.08706835
0.010601252 -0.033732615 0.07299379 0.0600439 -0.10219552 -0.031802155 -0.08777724 0.0053349305
-0.13007452 -0.10060195 -0.1207093 -0.16108184 -0.16626322 0.07704342 -0.17560226 0.100369565
-0.06466981 0.07309256 -0.031233802 -0.04444617 0.017277434 0.035973683 0.016212314 0.11158502
-0.085470594 0.07161817 0.118442535 -0.023403406 -0.041202143 -0.082747236 0.038746476 -0.13765532
-0.07280716 -0.0052043614 -0.03665817 0.021680696 0.042627428 -0.017766863 0.044230573 0.010003398
-0.0152429715 0.06916066 0.017583989 -0.012322738 -0.07932498 -0.07324712 -0.09036066 -0.12628499
0.060565166 -0.09687686 -0.100171424 0.024515856 0.062309936 -0.029693954 -0.16624314 -0.026577063
0.0021893345 0.038837373 0.08686276 -0.0683636 -0.07286425 0.067013435 0.07090124 0.061582908
-0.043900415 -0.078823574 0.10145326 -0.07260899 0.03112718 -0.09709075 -0.110287964 0.037339162
-0.08781051 0.08495534 0.1229341 -0.13396822 -0.035056066 -0.083010346 0.10253503 -0.13811348
0.060882926 0.029875867 -0.002546534 0.08956982 -0.010627404 -0.054846257 -0.09293468 0.037537858
0.08760092 0.00018583238 0.052965045 -0.028654851 0.06614947 0.09826018 0.042557262 -0.045564972
-0.10590065 -0.11853686 0.025606893 -0.06833492 0.0889998 0.09380604 0.04799648 0.021317236
0.0018555428 -0.12287491 0.083241045 0.014618337 0.066621564 0.07530706 -0.13042249 -0.1169597
0.082760796 -0.121213175 -0.05020272 0.03840793 0.112915754 -0.038414266 -0.09901412 -0.054703448
0.05724092 -0.06521423 0.022677317 -0.06133679 0.019605786 0.12786889 0.101593725 0.12255849
-0.10126977 0.026686339 -0.046961073 -0.0685707 0.0017119689 -0.04097146 0.06560646 -0.10352461
0.014739101 -0.0445907 0.056251436 -0.054440774 -0.123134725 0.021812769 -0.062383644 -0.07115533
0.10512661 -0.08501807 -0.060402676 -0.0480223 0.09644601 -0.09846102 0.054364666 -0.10876271
0.07980245 0.010537982 0.07487348 -0.01733015 0.115290746 -0.10272421 -0.004904069 -0.076205105
-0.07620622 0.031901546 0.033550043 0.04043828 -0.0112691615 -0.032642275 -0.022002935 0.08899256
-0.059410516 -0.06891824 0.03556714 -0.057567075 0.02692783 0.111084834 0.00835709 0.0578606
0.03778822 0.05670278 0.0058484846 -0.025249774 -0.031998068 0.02851901 0.0010644688 0.0903112

mean_fc.bias f4 [4]
00000000: 6f8f 95bd e9b7 a33c a2f5 6c3c 7847 46bd
-0.073027484 0.019985156 0.01446286 -0.048408

stdev.weight f4 [4, 64]
00000000: 813e 2d3f d4ef 643d d8d0 cf3c d951 4d3f
00000010: 184f de3d 5c45 103e e599 1c3f 82bb 95bd
00000020: f0f9 09bc cbce 453f f6d6 9cbd a445 d53d
00000030: a3f5 98bd a2f9 903e 593e 563f 9d2c 543f
00000040: 57f9 3f3f 2c54 363f 4abd bd3d bae8 4f3f
00000050: a45b 553f 2a54 063d 439e 443f 9a3c 473c
00000060: 7fc0 993d 5a13 a4bd faa9 f13d 7c78 a4bd
00000070: 0ae2 b03d ba5a ab3d 5409 993d 0c64 c4bd
00000080: 5656 493d 803f 89bb 4071 553b 2f6a 223e
00000090: eca4 28bd e24a f93d f1a4 4c3d 756f 5e3f
000000a0: a007 3a3f bbe5 313f d8ce 013d 3cca 163c
000000b0: 8028 723d a678 94bd d17f d93d 4ba1 383e
000000c0: 61d7 08bd ace6 b03d 7a45 af3c 9101 343f
000000d0: c4c4 0a3e 34d2 ee3d 6f87 ea3c 2627 323f
000000e0: aa42 4e3e d78b de3b 1bad e53d 39a8 a03d
000000f0: c0c1 e1bc dd4e df3d e497 513f acee 433e
00000100: f858 863f 541d f4bd 52e4 fdbd 153d 8b3f
00000110: 80cd adbb 527b 61bc 24a2 833f 1eaf e1bd
00000120: e27c aa3d 5c18 5d3f 730a b7bd 6025 e93d
00000130: ec00 cbbd db43 193f b00b 903f c0e1 403f
00000140: f64c 883f 30cd 683f c0e4 343c 4462 803f
00000150: cf44 763f 81b6 3c3e 57f3 6e3f 4e3c 023e
00000160: 0934 3d3d 26de edbd 9ea7 943d b0f6 c73d
00000170: 7c5d 66bd 3285 e4bd 7e66 c0bd 6887 76bd
00000180: 0ba4 a93d 08cb 8f3d a8b6 a63c 60fb e63d
00000190: 6860 91bc c081 a53d 7248 833e 2cd7 923f
000001a0: 8901 5e3f 7ee5 693f 72dd 9f3d fe40 663e
000001b0: 61ac 493e 5057 0c3d 121b acbd c53c 233d
000001c0: 65ea 8d3d d015 bd3d 2674 5e3e 8db6 453f
000001d0: ca47 e13d f881 bfbd ad20 213d e756 833f
000001e0: 489f ed3d 3125 793e f304 4f3c 7cd9 b33d
000001f0: 40f1 dabb 8107 803e ca87 683f fddc 783e
00000200: 5de0 0bbf 7cdd af3d bcf4 e53d 0079 88be
00000210: 1891 ebbc 7e4e 7fbd 7501 083f e29b d13d
00000220: dcd8 ea3d a72f ac3e 7593 1e3d cc14 eabd
00000230: f253 b8bd 60b0 4ebf e02d 343f ba6a 7dbf
00000240: 633c c73c 15cf 4e3f 6204 923d 6623 963d
00000250: 5410 55bf 28c1 83bd 8671 233f 7055 11be
00000260: 6557 8d3d f567 bfbd 9c2f af3d e498 283d
00000270: e003 ac3c 904e 7bbc e02f 97bc e003 0c3c
00000280: 5079 3fbd b21e fd3d 8891 a1bd 7dc3 893d
00000290: 5470 a5bd 80ff c73a eee1 c83b 5e3b 9d3e
000002a0: e0a9 293f 58f9 b7be e407 5cbd 49f8 b83d
000002b0: e4f3 3ebe e0a1 d1bd 14d0 bf3d f3c2 b03d
000002c0: adc0 a93b 9a98 d73c 8ac3 4bbe d947 6ebf
000002d0: 0dcc f6bd d8a8 c83d 1569 e93d c8a2 9a3e
000002e0: c414 a53d 1a4d 71be bc29 3a3d 803c 03bc
000002f0: 58bd ac3d 1407 45be a922 4bbf 194d 263e
00000300: da3e dabe ccf8 4dbd 8ef0 813d 2704 12bf
00000310: 00c4 f63c 8978 f33b 1061 a8be 1867 6b3d
00000320: 2035 203d 5f4a a6be 908e c13d 8a72 a73d
00000330: c47a b73d eafa 6abe e8f1 0ebf 6cc0 0cbf
00000340: f3f0 04bf 5ef7 16bf 2032 d43d 2393 4dbf
00000350: fffa 07bf 2b6f 733d 77fd e1be cb13 19be
00000360: 6af8 6a3c 4f10 96bc 1cf7 353d 6c60 50bd
00000370: ccfc 71bd 60f6 47bd a446 f5bd 440f 043d
00000380: 71ff eb3d e0a3 f63d 748d cb3d f9bf 2bbe
00000390: 0268 d83d 0c60 80bd 23ad e1bd c92f 34bf
000003a0: 4d83 febe 863c e0be 4f96 75bd 5639 0dbe
000003b0: ed18 0dbe 2407 c53d 2020 d7bd 8887 ccbd
000003c0: c855 ba3d cea8 df3d ca8f 0cbe de91 f2be
000003d0: 9413 2fbe a0ad a13d 6e18 adbc 1067 15bf
000003e0: 3652 fbbd a2d6 383d 3374 1fbe 42ca 573d
000003f0: 106b 553d 0eb6 20be ec2c ebbe 3b3b 0ebe
0.676735 0.05589278 0.02536814 0.80203015 0.1085493 0.14088959 0.61172324 -0.07311155
-0.008421406 0.77268666 -0.07658188 0.104136735 -0.074687265 0.28315455 0.83688885 0.82880574
0.7498984 0.71222186 0.0926462 0.8121449 0.8334296 0.03279511 0.7680399 0.012160445
0.07507419 -0.080115035 0.117999986 -0.08030793 0.086368635 0.08366914 0.07472482 -0.09589395
0.049154602 -0.004188478 0.0032568723 0.15860818 -0.041172907 0.12172486 0.049961988 0.8688882
0.72667885 0.69491166 0.031691402 0.00920349 0.059120655 -0.07249574 0.10620082 0.18030278
-0.033408526 0.08637747 0.021395434 0.7031489 0.13551623 0.11661187 0.028629033 0.69590986
0.20142618 0.0067915726 0.11214658 0.07844586 -0.027558208 0.10903714 0.8187239 0.19134015
1.0495901 -0.119196564 -0.12397064 1.0878016 -0.0053040385 -0.013762312 1.0283856 -0.11019729
0.08324601 0.86365294 -0.0893754 0.11384082 -0.09912285 0.59869164 1.1253567 0.7534447
1.0648487 0.9093809 0.011040866 1.0029988 0.96198744 0.18428995 0.9334006 0.12718317
0.046192203 -0.11614637 0.07258533 0.09763849 -0.056241497 -0.111582175 -0.09394549 -0.060187727
0.08283242 0.07021147 0.02035077 0.11278415 -0.017746165 0.080813885 0.2564121 1.1471915
0.8672109 0.913658 0.07805909 0.2248573 0.19694664 0.034262955 -0.08403601 0.039852876
0.06929473 0.09232676 0.21723995 0.77231675 0.11000021 -0.093509614 0.039337803 1.0260895
0.11602646 0.24330594 0.012635457 0.08781716 -0.0066815913 0.25005725 0.908322 0.2430305
-0.54639226 0.08587167 0.1122832 -0.26654816 -0.02875571 -0.062330715 0.53127223 0.102348104
0.11467144 0.33630106 0.038714845 -0.11429748 -0.09000386 -0.80737877 0.703825 -0.98990977
0.024320787 0.8078473 0.07129742 0.073309705 -0.8322804 -0.06433326 0.638451 -0.14192748
0.06901435 -0.09346 0.08554003 0.041161433 0.020997941 -0.015338555 -0.018455446 0.008545846
-0.046746552 0.1235937 -0.07889086 0.067267396 -0.080780655 0.001525864 0.0061304485 0.30709356
0.66274834 -0.35932422 -0.053718463 0.09031732 -0.18647724 -0.10235953 0.0936586 0.086309336
0.0051804394 0.026317883 -0.19898811 -0.9307838 -0.12050638 0.097978294 0.11396996 0.30202317
0.08060601 -0.23564568 0.045449957 -0.00801003 0.08434552 -0.19240981 -0.7934976 0.16240348
-0.42626077 -0.0502861 0.0634471 -0.57037586 0.030122757 0.0074301404 -0.32886553 0.057471365
0.039113164 -0.32478616 0.0945102 0.081761435 0.089589626 -0.22947279 -0.5583787 -0.5498111
-0.5193016 -0.589712 0.10361123 -0.8030264 -0.53117365 0.05943219 -0.4413869 -0.14948957
0.014341453 -0.018318323 0.044425115 -0.050873205 -0.059078977 -0.048818946 -0.11976364 0.03224112
0.11523331 0.120429754 0.099390894 -0.1677245 0.10566713 -0.062683195 -0.11019351 -0.70385414
-0.4970955 -0.43796176 -0.0599578 -0.13791403 -0.1377904 0.096205026 -0.10504174 -0.09986788
0.09098393 0.10920869 -0.13726726 -0.47376913 -0.17097312 0.078944445 -0.021129813 -0.58360386
-0.1227154 0.045126565 -0.1557167 0.052683122 0.052104056 -0.15694448 -0.4593271 -0.13889782

stdev.bias f4 [4]
00000000: a592 2e3f 1f0e 433f a2ff 2d3f 1314 93be
0.6819251 0.7619342 0.6796819 -0.28726253
