DeepAcTS/networks/intermediary/OLD_Runs/intermediary_polnet_rX_1500.pth (torch, 3231 bytes, 4 tensors)

fc1.weight f4 [64, 4]
0.22699642 0.06322285 0.21174592 -0.16950125 -0.34040785 0.078336835 -0.37170213 0.13499212
0.179536 -0.32787514 -0.45038503 0.19846775 -0.18706429 -0.28250638 0.52341866 0.10487585
0.12756227 0.23261297 -0.00049746817 -0.1510398 0.14510506 0.07563978 -0.3350573 0.37580875
0.44442236 -0.3905222 -0.2565833 0.4011333 0.0069288523 0.14952587 0.3290068 0.41763255
0.09248759 0.2881078 -0.017759372 -0.34382537 0.0072276974 0.2539672 0.32938585 -0.33739948
-0.05702924 -0.3502828 0.21991135 -0.105898 -0.4561159 0.44049525 0.34088036 0.012193909
0.01927733 -0.3160357 -0.24644254 0.33139017 -0.32121268 -0.03461408 0.08151831 -0.23158476
0.5326939 0.5172791 -0.8060051 -0.47641388 -0.19295315 0.20992497 0.1066726 -0.25720215
-0.065471664 -0.49231356 -0.05093785 0.41683412 0.018730234 -0.056921735 0.05366449 0.383903
0.49911138 0.20589484 -0.64648515 -0.56987506 -0.4001048 -0.31171757 1.0437456 0.7307779
-0.46754944 -0.3951692 1.1309824 0.6476052 0.31946602 0.14827389 -0.29303482 0.4103244
-0.25849825 -0.32316414 -0.5360962 0.34642825 0.4754443 -0.061507877 -0.350313 0.14258513
-0.47698662 -0.45678014 0.1382536 -0.18733308 -0.004072575 0.22790754 -0.123413004 0.11872591
-0.22404195 -0.0026933784 0.68485445 -0.21295084 -0.31231323 0.287348 0.25057334 0.14860049
-0.39399385 0.25753388 0.12168831 -0.59328264 0.03970876 -0.09725435 0.049143877 -0.32245022
0.017795553 0.5792651 0.085987784 -0.515365 -0.17764577 0.17849718 0.048666496 0.5974229
0.28154534 0.021581095 -0.4174989 0.17790702 0.16667376 0.05630447 -0.29070103 0.3955296
-0.46594524 0.4144758 -0.0030651093 0.3267448 0.32269397 0.4794985 0.7706671 0.07530651
0.1399968 -0.13058442 -0.041908003 -0.48708013 -0.32386827 -0.2001668 0.27939078 0.21487784
0.17898403 -0.2730374 0.4021003 -0.4548541 0.06784137 -0.24059841 -0.15670882 0.2632807
-0.42886242 0.16754082 -0.078181036 0.10230913 -0.16980556 -0.12703474 -0.14646003 0.056447662
0.10719839 -0.47748718 0.17560863 0.2887431 0.1328488 0.049038325 0.08042147 0.17787495
0.076748796 -0.30839494 -0.46716827 -0.03357225 0.52521455 0.3139642 0.11878225 0.06792089
-0.16150184 0.22355194 -0.25361913 -0.3193727 -0.33661386 0.2934636 0.24114558 -0.35181245
0.10493377 -0.18220069 -0.69979215 0.11924066 0.24501333 0.15303981 -0.3514312 0.14427091
0.09406428 -0.19730836 -0.07787442 0.25103143 0.20760077 -0.17164384 -0.25389406 -0.009931467
-0.39782098 0.123106584 0.28239098 -0.26938903 0.25811428 -0.25826603 0.018469017 -0.37373835
-0.17891157 0.14341857 -0.04345258 0.54451275 -0.014677223 0.18134762 -0.020749545 -0.16444287
-0.04236989 -0.23571235 0.10772121 0.25646898 -0.111370176 0.29255685 0.0932258 -0.22053918
-0.009445571 -0.01668124 0.22911267 -0.1938775 0.59430057 -0.19468425 -0.28063688 0.3136136
-0.20954695 -0.13782564 0.3779038 0.28624701 -0.035997692 -0.4363079 0.05150263 0.07881637
0.5780019 -0.36672443 -0.11191315 0.8017065 -0.14659782 -0.57358414 -0.36371264 0.6454186
00000000: c071 683e fb7a 813d ecd3 583e bc91 2dbe
00000010: f049 aebe 106f a03d be4f bebe 603b 0a3e
00000020: 49d8 373e 40df a7be de98 e6be 213b 4b3e
00000030: c88d 3fbe ada4 90be c4fe 053f 26c9 d63d
00000040: af9f 023e 1832 6e3e 8668 02ba 2daa 1abe
00000050: 6c96 143e 07e9 9a3d a18c abbe 016a c03e
00000060: 548b e33e 87f2 c7be e35e 83be 5861 cd3e
00000070: 6d0b e33b 4f1d 193e 9473 a83e efd3 d53e
00000080: 226a bd3d de82 933e 1a7c 91bc e109 b0be
00000090: 52d6 ec3b fd07 823e 43a5 a83e a0bf acbe
000000a0: 7e97 69bd 4458 b3be 7130 613e 0de1 d8bd
000000b0: 0688 e9be 9888 e13e df87 ae3e f6c8 473c
000000c0: 7eeb 9d3c 6ecf a1be 6f5b 7cbe f9ab a93e
000000d0: fd75 a4be 7ec7 0dbd 12f3 a63d 8e24 6dbe
000000e0: a15e 083f 676c 043f 5a56 4ebf 85ec f3be
000000f0: 8395 45be 92f6 563e 2a77 da3d 00b0 83be
00000100: 0216 86bd 8610 fcbe 35a4 50bd 486b d53e
00000110: 2670 993c c426 69bd 4ccf 5b3d ef8e c43e
00000120: 878b ff3e 19d6 523e 0d80 25bf 55e3 11bf
00000130: 89da ccbe 7299 9fbe 7599 853f 4314 3b3f
00000140: a462 efbe 9e53 cabe 08c4 903f 74c9 253f
00000150: 0d91 a33e 1cd5 173e a908 96be 0a16 d23e
00000160: e259 84be c575 a5be 9a3d 09bf 0b5f b13e
00000170: 6f6d f33e afef 7bbd 3a5c b3be d601 123e
00000180: 9737 f4be 16df e9be 5a92 0d3e 3ed4 3fbe
00000190: 3c73 85bb 9860 693e f5bf fcbd 9226 f33d
000001a0: 416b 65be 6483 30bb 9f52 2f3f c90f 5abe
000001b0: 85e7 9fbe 471f 933e 264b 803e ba2a 183e
000001c0: 90b9 c9be 7bdb 833e b837 f93d 5fe1 17bf
000001d0: a7a5 223d 4a2d c7bd 174b 493d 3218 a5be
000001e0: fbc7 913c b84a 143f 5d1a b03d f6ee 03bf
000001f0: c6e8 35be f7c7 363e 8556 473d b5f0 183f
00000200: b626 903e d6ca b03c 6ac2 d5be 422d 363e
00000210: 87ac 2a3e 849f 663d c4d6 94be db82 ca3e
00000220: 6090 eebe 2c36 d43e 00e0 48bb 184b a73e
00000230: 2538 a53e d480 f53e 704a 453f 4d3a 9a3d
00000240: 525b 0f3e ecb7 05be baa7 2bbd 9162 f9be
00000250: 10d2 a5be 87f8 4cbe 4f0c 8f3e f008 5c3e
00000260: 9747 373e 8fcb 8bbe 17e0 cd3e a3e2 e8be
00000270: 6bf0 8a3d 6e5f 76be 4778 20be bacc 863e
00000280: db93 dbbe d28f 2b3e 611d a0bd 7387 d13d
00000290: 82e1 2dbe 6515 02be 9ef9 15be aa35 673d
000002a0: d48a db3d 3379 f4be c0d2 333e 23d6 933e
000002b0: 8409 083e 69dc 483d 03b4 a43d da24 363e
000002c0: 792e 9d3d f1e5 9dbe ae30 efbe 0e83 09bd
000002d0: 7674 063f eabf a03e 1c44 f33d 1c1a 8b3d
000002e0: bd60 25be cdea 643e 5eda 81be d284 a3be
000002f0: a758 acbe dc40 963e deee 763e c320 b4be
00000300: 84e7 d63d d192 3abe 9425 33bf 7234 f43d
00000310: c6e4 7a3e 78b6 1c3e caee b3be c1bb 133e
00000320: c6a4 c03d 340b 4abe a07c 9fbd 3187 803e
00000330: 4c95 543e 67c3 2fbe 67fe 81be 97b7 22bc
00000340: 31af cbbe 4e1f fc3d 8d95 903e 5ced 89be
00000350: 8e27 843e 723b 84be 564c 973c a25a bfbe
00000360: 9834 37be 51dc 123e 55fb 31bd 3065 0b3f
00000370: bc78 70bc 31b3 393e f3fa a9bc b663 28be
00000380: 0d8c 2dbd 945e 71be f09c dc3d e74f 833e
00000390: 0c16 e4bd 03ca 953e 2bed be3d 06d5 61be
000003a0: 99c1 1abc 19a7 88bc 839c 6a3e d387 46be
000003b0: 1524 183f 4f5b 47be a3af 8fbe f691 a03e
000003c0: 7a93 56be 2a22 0dbe 9b7c c13e f88e 923e
000003d0: 5172 13bd c063 dfbe 6cf4 523d 7a6a a13d
000003e0: eff7 133f 4ec3 bbbe b932 e5bd a33c 4d3f
000003f0: bd1d 16be 69d6 12bf 8b38 babe 273a 253f

fc1.bias f4 [64]
0.15010124 -0.31622452 -0.67502195 0.027287105 0.2653973 -0.3785185 -0.21559381 -0.5347445
0.37004903 0.45160562 -0.2163576 -0.15624136 -0.48782247 0.23854403 -0.06884321 0.64493656
0.09986321 -0.50296533 0.028961977 0.045348715 -0.039443005 -0.34055093 -0.23494275 0.25509503
-0.21879835 0.1713374 0.30333573 -0.30470666 -0.19764973 0.30766016 -0.11894241 0.35215783
0.2415684 0.062068924 -0.38774067 -0.37717256 -0.28730214 0.027889136 -0.2032456 -0.50424415
-0.16333625 -0.59237987 0.08218535 -0.45140916 -0.47950155 -0.39673305 0.564848 0.17719516
0.12521867 0.32363924 0.053656653 -0.011786379 -0.057778202 0.34557897 0.3205346 0.20121121
-0.288827 -0.9191059 0.19860743 0.07555255 -0.09898824 -0.12477561 0.27175614 0.13296248
00000000: 24b4 193e 2ee8 a1be 3dce 2cbf 3589 df3c
00000010: 28e2 873e 2dcd c1be a0c4 5cbe 04e5 08bf
00000020: 1177 bd3e da38 e73e d98c 5dbe bcfd 1fbe
00000030: dec3 f9be e344 743e abfd 8cbd 901a 253f
00000040: 1585 cc3d 56c2 00bf ab41 ed3c 93bf 393d
00000050: fd8e 21bd b15c aebe d594 70be d19b 823e
00000060: ad0c 60be 1273 2f3e d24e 9b3e 8302 9cbe
00000070: b164 4abe a285 9d3e 1498 f3bd 084e b43e
00000080: b55d 773e fc3b 7e3d f285 c6be c31c c1be
00000090: 4419 93be c277 e43c 9d1f 50be 2516 01bf
000000a0: 9e41 27be 35a6 17bf cb50 a83d 1a1f e7be
000000b0: 3a81 f5be 9820 cbbe e199 103f a672 353e
000000c0: 5339 003e 0bb4 a53e 14c7 5b3d a81b 41bc
000000d0: d6a8 6cbd baef b03e 1c1d a43e 500a 4e3e
000000e0: 22e1 93be 864a 6bbf bf5f 4b3e 4cbb 9a3d
000000f0: 59ba cabd 5b8a ffbd 9f23 8b3e 5127 083e

fc2.weight f4 [2, 64]
-0.014911877 0.087032944 -0.064001836 0.06973227 0.08025289 0.050098404 -0.11975555 -0.055955015
0.11460524 0.050552323 -0.04224704 -0.25806147 -0.094179735 0.18956013 0.44956154 0.15177707
-0.16563581 -0.17497055 -0.2569978 -0.392994 -0.21374324 -0.08389071 -0.03518581 -0.051871825
0.16367322 0.013651363 0.118773885 0.0035557405 0.18857984 0.022587389 0.1726333 -0.23645726
-0.136657 -0.0032812152 0.037567496 -0.17669006 0.20823586 -0.02972993 -0.05073379 -0.045940846
-0.09203653 0.00905831 0.032707922 -0.03708893 0.062244218 -0.17659354 0.12490027 0.0670411
-0.10943982 0.054686766 -0.053044997 0.029391801 0.14086008 0.16028893 -0.17093037 -0.10096735
-0.07388333 -0.592825 0.054414943 -0.15053953 0.035964686 -0.01236414 -0.059005518 -0.19049914
0.05668559 -0.09285726 0.048958708 -0.055154778 0.036921192 0.07238079 0.06476688 0.12121652
-0.18589538 -0.10427241 -0.09434968 0.027262852 0.07423257 -0.042492583 -0.37607658 0.045118395
0.0042954064 0.17455678 0.062580526 0.360217 0.23306693 0.13005856 0.0014095469 -0.004156188
-0.24473876 0.04910779 -0.07279277 -0.05340528 -0.13038793 -0.17122148 -0.30120912 0.079014726
0.044431515 0.05565286 0.09180151 0.28025067 -0.31251085 -0.113234945 -0.09103545 0.036630996
-0.110483356 -0.12106625 0.14973287 -0.032924574 -0.037240397 0.30542535 -0.12462976 -0.16834326
0.17225876 0.090504654 0.11334285 -0.032451026 -0.20444332 -0.067202024 -0.022236716 0.0555448
0.1774248 0.59409213 -0.18919785 0.08223332 -0.09862499 -0.060873203 0.16648276 -0.02329993
00000000: f250 74bc 543e b23d 6513 83bd cbcf 8e3d
00000010: a15b a43d fc33 4d3d 6642 f5bd 1631 65bd
00000020: 27b6 ea3d f40f 4f3d 3b0b 2dbd a220 84be
00000030: 4ee1 c0bd 0d1c 423e ee2c e63e 736b 1b3e
00000040: 6f9c 29be 7b2b 33be 3795 83be 8236 c9be
00000050: 82df 5abe e4ce abbd ff1e 10bd 8d77 54bd
00000060: f499 273e f7a9 5f3c b93f f33d 6d07 693b
00000070: 131b 413e 3009 b93c c9c6 303e da21 72be
00000080: d0ef 0bbe a809 57bb 60e0 193d 3dee 34be
00000090: c83b 553e 2f8c f3bc 3cce 4fbd 782c 3cbd
000000a0: a67d bcbd 4e69 143c bef8 053d 90ea 17bd
000000b0: cbf3 7e3d f0d4 34be b6cb ff3d d84c 893d
000000c0: fc21 e0bd 3bff 5f3d b645 59bd 13c7 f03c
000000d0: a03d 103e c822 243e 5f08 2fbe f8c7 cebd
000000e0: 2550 97bd 61c3 17bf 34e2 5e3d 0927 1abe
000000f0: b54f 133d f692 4abc c5af 71bd 3512 43be
00000100: 262f 683d f22b bebd ed88 483d fae9 61bd
00000110: ad3a 173d 613c 943d 7fa4 843d 5e40 f83d
00000120: 5c5b 3ebe c68c d5bd 683a c1bd 5856 df3c
00000130: 3f07 983d b40c 2ebd 1c8d c0be 11ce 383d
00000140: 7bc0 8c3b 03bf 323e 382a 803d 5d6e b83e
00000150: 19a9 6e3e 122e 053e 8cc0 b83a a230 88bb
00000160: cc9c 7abe 4025 493d 6014 95bd 7fbf 5abd
00000170: 6a84 05be af54 2fbe 1538 9abe 79d2 a13d
00000180: d2fd 353d 41f4 633d 6e02 bc3d 047d 8f3e
00000190: 6c01 a0be b9e7 e7bd cb70 babd 620a 163d
000001a0: 1945 e2bd 95f1 f7bd 9353 193e ebdb 06bd
000001b0: 6389 18bd b660 9c3e e33d ffbd 2d62 2cbe
000001c0: 9a64 303e 815a b93d 4c20 e83d 5eeb 04bd
000001d0: 9759 51be 37a1 89bd c629 b6bc f282 633d
000001e0: d9ae 353e 6c16 183f 15bd 41be f169 a83d
000001f0: e6fb c9bd 2e56 79bd 757a 2a3e 7fdf bebc

fc2.bias f4 [2]
-0.009510383 0.035774015
00000000: 70d1 1bbc c687 123d
