DeepAcTS/networks/intermediary/OLD_Runs/intermediary_valnet_rX_3500.pth (torch, 3231 bytes, 4 tensors)

fc1.weight f4 [64, 4]
0	0xbec1ac66	-0.37826842
1	0x3e931a91	0.28731206
2	0x3e7cb81b	0.24679606
3	0x3de837d8	0.11338776
4	0xbe6b3180	-0.22968102
5	0x3ecaafa8	0.3958714
6	0x3f0eefc3	0.558346
7	0x3e62859b	0.22121279
8	0xbcb86920	-0.022511065
9	0x3da48a20	0.08034158
10	0x3e5fd74c	0.21859473
11	0x38a52000	7.8737736e-05
12	0xbe9e4570	-0.30912352
13	0x3dfcff17	0.12353342
14	0x3e5e5172	0.21710756
15	0xbda43a8f	-0.08018982
16	0xbd24be16	-0.040220343
17	0x3e39fdfb	0.18163292
18	0x3f3c1d94	0.7348263
19	0xbdfa5af6	-0.12224381
20	0xbf2016da	-0.6253487
21	0xbda62a11	-0.08113492
22	0x3f1b66b1	0.6070357
23	0xbea22559	-0.3166912
24	0x3e1a082d	0.15042181
25	0xbf0a82af	-0.5410566
26	0x3e715a03	0.23569493
27	0x3e5b88e7	0.21438943
28	0xc027e488	-2.6233234
29	0xbec794b1	-0.3898063
30	0x409f5d90	4.980171
31	0x401dfb55	2.468465
32	0xbf31d4d0	-0.6946535
33	0x3e850609	0.25981167
34	0x3eb0a8a6	0.3450367
35	0x3f269c0f	0.65081877
36	0xbed4ea97	-0.41585228
37	0xbe8d874c	-0.27642286
38	0x3da41c27	0.08013182
39	0x3ea8c808	0.32965112
40	0x3c4e7efb	0.012603517
41	0x3e498818	0.19680822
42	0x3e0b3d96	0.13597712
43	0x3f05a21b	0.5220048
44	0x3d450545	0.04810073
45	0xbec8c0cd	-0.39209595
46	0x3f31ad4f	0.6940507
47	0xbe895426	-0.26822013
48	0xbeff3d1e	-0.49851316
49	0x3f071ce4	0.5277846
50	0x3f7a558f	0.977868
51	0x3da65bec	0.081230015
52	0xbf1d58c5	-0.61463577
53	0x3e81a8e3	0.25324163
54	0x3f26efcf	0.6520967
55	0x3f0fcd34	0.5617249
56	0xbec8b599	-0.39201048
57	0x3ee71272	0.4513126
58	0x3f271ba8	0.65276575
59	0x3e0e3cac	0.13890332
60	0xc0129a67	-2.290674
61	0xbe893ce2	-0.26804262
62	0x4095516f	4.6661906
63	0x401fe678	2.4984417
64	0xc03db6b2	-2.9642758
65	0xbd276c9f	-0.040875074
66	0x4091e70b	4.5594535
67	0x40223043	2.5341957
68	0x3e30de6a	0.17272344
69	0x3e83c40b	0.25735506
70	0x3e39398d	0.1808836
71	0x3eb777fe	0.35833734
72	0xc01654c3	-2.3489234
73	0xbf23b4ed	-0.63947946
74	0x40937cfb	4.6090064
75	0x3ffc6644	1.9718709
76	0x3e3626fb	0.17788307
77	0xbeda8023	-0.42675886
78	0xbe9e4792	-0.3091398
79	0x3e4a5413	0.19758634
80	0xbf3de3a9	-0.74175507
81	0x3e1ba6af	0.15200303
82	0x3f638d87	0.8888783
83	0xbd15b051	-0.0365451
84	0xc04ab8aa	-3.167521
85	0xbf12ac37	-0.5729403
86	0x408d1ada	4.409528
87	0x40145f29	2.318308
88	0xbda215dd	-0.07914326
89	0xbb21f685	-0.0024713587
90	0x3eb59498	0.3546493
91	0x3eb553ae	0.35415405
92	0xbf0d2f57	-0.5515036
93	0xbdfba651	-0.12287582
94	0x3f8c64c0	1.0968246
95	0xbdc8ccc4	-0.09804681
96	0xbcdf0e51	-0.027228506
97	0xbd56afec	-0.052413866
98	0x3f1705f8	0.5899348
99	0xbcdc245a	-0.026872803
100	0x3e6daa3c	0.2320947
101	0x3e413a9f	0.18870018
102	0x3f0244d7	0.5088629
103	0xbc3f7f9d	-0.01168814
104	0xbe319761	-0.17342903
105	0xbe285db7	-0.16442
106	0x3db40e76	0.08791821
107	0x3ed32938	0.41242385
108	0xbf1c8c4c	-0.61151576
109	0x3d851e61	0.06499935
110	0x3dee0c11	0.11623395
111	0x3e822bd5	0.25424066
112	0x3e1248a5	0.14285524
113	0xbea029da	-0.3128193
114	0x3f2b84c7	0.6699948
115	0x3d1b1a17	0.037866678
116	0xbe0398ff	-0.12851332
117	0x3da37d57	0.07982891
118	0x3ef47fb2	0.47753674
119	0x3de1a9c3	0.110187076
120	0x3d560ff1	0.052261297
121	0xbd63ce65	-0.055616755
122	0x3f820458	1.0157576
123	0xbe3c1b23	-0.18369727
124	0x3d19a406	0.03750994
125	0xbed8b6bc	-0.42326915
126	0x3e3cbe49	0.18431963
127	0xbea1257d	-0.31473914
128	0x3da2af9e	0.079436526
129	0xbea38782	-0.31939322
130	0xbef474a8	-0.47745252
131	0x3ea63684	0.32463467
132	0x3e030a78	0.12796962
133	0xbeff8d60	-0.49912548
134	0x3e8929d9	0.2678974
135	0xbe4b4bc3	-0.1985312
136	0x3e59c384	0.2126599
137	0xbe999906	-0.2999956
138	0x3d941496	0.07230489
139	0xbc81fc0a	-0.015867252
140	0xbf224330	-0.6338377
141	0xbd21a0dc	-0.039460048
142	0x3e4c1716	0.19930682
143	0xbc14efc3	-0.009090367
144	0x3dcc7b99	0.09984512
145	0x3e019de1	0.12657882
146	0x3ec5d07b	0.3863562
147	0x3f1951c0	0.59890366
148	0x3f4f9a65	0.8109496
149	0xbf84c716	-1.0373256
150	0xbfce50ab	-1.6118368
151	0x3e4a51bb	0.1975774
152	0x3ee6bfce	0.4506821
153	0x3e92bc5d	0.28659335
154	0xbdc55b86	-0.09636597
155	0x3f2e68bc	0.6812856
156	0x3e020162	0.1269584
157	0x3f1c19c2	0.60976803
158	0x3edd580a	0.4323123
159	0x3c333e2a	0.010940114
160	0xbdb19c1f	-0.08672356
161	0xbe2a132f	-0.1660888
162	0x3e3a75f5	0.1820906
163	0x3ef8e461	0.4861174
164	0xbeb41703	-0.35173807
165	0xbe78f2cc	-0.2431137
166	0x3f1a2b4d	0.6022232
167	0x3e7bcf34	0.2459076
168	0xbf0c858e	-0.5489129
169	0x3bee2fa5	0.0072688633
170	0x3f826b9e	1.0189092
171	0xbe4b10d9	-0.19830646
172	0xbf3479cb	-0.7049834
173	0xbe821c16	-0.25412053
174	0x3f163cbc	0.58686423
175	0xbe225ee7	-0.15856515
176	0x3e917aa1	0.2841387
177	0xbed38ed8	-0.4131992
178	0x3d7d1a01	0.061792377
179	0x3e87f882	0.26556784
180	0x3e6315e3	0.22176318
181	0x3e6db43a	0.23213282
182	0xbcbac212	-0.022797618
183	0x3f073e0c	0.5282905
184	0xbeca72ee	-0.3954081
185	0x3f499128	0.78737116
186	0x3fd3be17	1.6542386
187	0xbdbcc880	-0.0921793
188	0x3ea1583a	0.31512624
189	0x3d010531	0.03149909
190	0x3e097d29	0.13426651
191	0x3ee58ccc	0.44833982
192	0x3d2136c4	0.03935887
193	0xbcb5d68d	-0.022197032
194	0x3e1acb41	0.15116598
195	0x3d84bce5	0.06481341
196	0x3e11c4e3	0.14235263
197	0xbe9cbe21	-0.30613807
198	0xbecbe293	-0.398213
199	0x3ef8d7c1	0.48602107
200	0x3d343d30	0.044003665
201	0xbe436974	-0.19083196
202	0x3e38ce0c	0.1804735
203	0xbdd2a9c8	-0.102862895
204	0xbdbfb73e	-0.093611225
205	0xbe6d08a9	-0.23147835
206	0xbe148c60	-0.14506674
207	0xbdb0b9e2	-0.08629204
208	0xbf331982	-0.69960797
209	0x3eb11f3f	0.3459415
210	0x3f445332	0.76689446
211	0xbe03ee45	-0.12883861
212	0xbf1986b4	-0.59971166
213	0xbeb1a886	-0.34698886
214	0x3f1bce94	0.6086209
215	0x3db9ba91	0.09068788
216	0x3cf3427c	0.029694788
217	0x3de26a60	0.11055446
218	0x3f503ee6	0.81345975
219	0x3ee2242a	0.44168216
220	0x3e44fd49	0.19237246
221	0xbf3b3d91	-0.7314082
222	0xbeb5d615	-0.35514894
223	0xbc9ca3d3	-0.019121086
224	0xbf6aa1de	-0.9165324
225	0xbeba1a49	-0.3634818
226	0x3f44260c	0.76620555
227	0xbe664d0b	-0.22490327
228	0x40298e55	2.6493123
229	0x3f59c9b0	0.85073376
230	0xc08b990c	-4.3624325
231	0xc002f935	-2.0464604
232	0x401c10bb	2.4385211
233	0xbe0c63ef	-0.13709997
234	0xc0599ac6	-3.4000716
235	0xc003a7f8	-2.057127
236	0x3e3da575	0.18520148
237	0x3e903d57	0.281718
238	0x3f141d7c	0.5785749
239	0xbd93e11c	-0.072206706
240	0x3f9b5d1d	1.2137791
241	0xbf80c00b	-1.0058607
242	0xbfe02ce2	-1.7513697
243	0x3e189d22	0.14903691
244	0xbefcc23e	-0.49366945
245	0xbc7a244f	-0.015267446
246	0xbe21766a	-0.15767828
247	0x3ec7f52e	0.39054245
248	0x3df4e44a	0.11957605
249	0xbe06c6b8	-0.13161743
250	0x3db54df9	0.08852763
251	0x3e3f309f	0.18670891
252	0xbf97e9f7	-1.1868275
253	0xbf6d5b7e	-0.9271773
254	0x3fb0bd61	1.3807794
255	0x3edaa2c5	0.42702308

fc1.bias f4 [64]
0	0x3fce775b	1.6130174
1	0x3f953345	1.1656271
2	0xbea88eb4	-0.32921374
3	0x3fcd5ab7	1.6043309
4	0x3fab4c35	1.3382632
5	0x3fc4c3ab	1.5372213
6	0x3fc257e4	1.5183072
7	0x3f04be21	0.51852614
8	0x3fc3ac08	1.5286875
9	0x3fbe3045	1.4858481
10	0x3f8d6653	1.1046852
11	0x3fb24ca2	1.3929636
12	0x3fa1c669	1.2638675
13	0x3fa92fb9	1.3217689
14	0x3fb51367	1.4146546
15	0x3f7ad008	0.9797368
16	0xbf3fd296	-0.74930704
17	0x3fa4ae5b	1.2865709
18	0xbf8080fe	-1.0039365
19	0x3f8a5361	1.0806695
20	0x3f851eda	1.040004
21	0xbf04127c	-0.51590705
22	0x3f8fe0ae	1.1240442
23	0x3f702489	0.9380575
24	0x3f813af4	1.0096116
25	0x3f999bec	1.2000709
26	0x3fb1329d	1.3843571
27	0x3fb1b38d	1.388292
28	0x3f62d65b	0.8860833
29	0xbe99b91e	-0.30024046
30	0x3f906f6f	1.1284007
31	0x3fad9229	1.356023
32	0x3fa7f574	1.3121781
33	0x3fd424e9	1.6573764
34	0x3fd2b183	1.6460422
35	0x3fa68188	1.300828
36	0x3fb5bde1	1.4198571
37	0x3e657535	0.22407992
38	0x3fa9f355	1.3277384
39	0xbe7881a8	-0.2426821
40	0x3fcb91c0	1.5903854
41	0x3fc68d7e	1.551193
42	0x3f84ee3f	1.0385207
43	0x3fbb6dd9	1.4642898
44	0x3fb65dd5	1.4247385
45	0x3fd021dc	1.6260333
46	0x3d212418	0.039341062
47	0x3f9c144c	1.2193694
48	0x3fd03b72	1.6268141
49	0x3fdc4436	1.7208316
50	0xbee897ca	-0.45428306
51	0x3fd66475	1.6749407
52	0x3fa1ebcc	1.2650084
53	0x3fc5ea8e	1.5462205
54	0x3f992020	1.1962929
55	0x3f8555af	1.0416774
56	0x3f8dfc36	1.1092594
57	0xbf151be8	-0.58245707
58	0x3eaeb639	0.341234
59	0x3fcb24ec	1.5870643
60	0xb9cc6410	-0.00038984464
61	0x3f8d125b	1.1021227
62	0x3fad1398	1.3521605
63	0xbf2b658e	-0.66951835

fc2.weight f4 [2, 64]
0	0xbf6d86c2	-0.9278375
1	0xbf42f175	-0.76149684
2	0x3d763f00	0.060118675
3	0xbf76a59f	-0.9634647
4	0xbf460a64	-0.77359605
5	0xbf687f9b	-0.9081971
6	0xbf631da4	-0.88717103
7	0x40185820	2.3803787
8	0xbf8020d4	-1.0010018
9	0xbf51baf8	-0.81925917
10	0xbf325e0c	-0.69674754
11	0xbf844ddb	-1.033626
12	0xbf712653	-0.94199103
13	0xbf842209	-1.0322887
14	0xbf6d966e	-0.9280766
15	0x40233b2b	2.5504863
16	0x400906d5	2.141042
17	0xbf662b94	-0.89910245
18	0x3feb7310	1.8394489
19	0xbf05ede5	-0.52316123
20	0xbf0fb079	-0.5612865
21	0x3ff3cd2a	1.9046986
22	0xbf33741e	-0.70099056
23	0xbeb5da99	-0.3551834
24	0xbf1f0685	-0.62119323
25	0xbf5bf2e2	-0.85917485
26	0xbf380dc4	-0.71896005
27	0xbf821b6f	-1.0164622
28	0xbeb917a4	-0.3615085
29	0x3d4f5630	0.050619304
30	0xbf2d75b9	-0.67757756
31	0xbf6e32d3	-0.930463
32	0xbf3e7024	-0.74389863
33	0xbf7c2329	-0.9849115
34	0xbf7a7b91	-0.978448
35	0xbf754bb4	-0.9581864
36	0xbf5f16ad	-0.87143975
37	0xbee616d5	-0.44939294
38	0xbf86d58b	-1.0533918
39	0x3de9ff9d	0.114257075
40	0xbf4b74a8	-0.7947488
41	0xbf69ba81	-0.9130021
42	0xbf073220	-0.5281086
43	0xbf555c87	-0.8334431
44	0xbf44a445	-0.76813155
45	0xbf79de3d	-0.97604734
46	0xbf576706	-0.84141576
47	0xbf84898a	-1.0354474
48	0xbf761bb9	-0.9613605
49	0xbf5e208a	-0.867684
50	0x3da185b2	0.078868285
51	0xbf577adf	-0.8417186
52	0xbf30339c	-0.6882875
53	0xbf800a6a	-1.0003178
54	0xbf8d9926	-1.1062362
55	0xbf73a5ea	-0.9517504
56	0xbf2396a3	-0.6390173
57	0x3fd26195	1.643603
58	0x3f64c401	0.8936158
59	0xbf449fd8	-0.768064
60	0xbfecc141	-1.8496476
61	0xbf278be3	-0.65447825
62	0xbf848bfb	-1.0355219
63	0xbe4312a6	-0.19050083
64	0xbf5e4484	-0.86823297
65	0xbf45eb50	-0.77312183
66	0xbd174118	-0.036927313
67	0xbf3ec58a	-0.7452017
68	0xbf12dcd2	-0.57368195
69	0xbf2cf925	-0.67567664
70	0xbf830aca	-1.0237668
71	0x3fb92bc7	1.4466485
72	0xbf864e91	-1.0492727
73	0xbf523ac6	-0.8212093
74	0xbf4aa688	-0.79160357
75	0xbf62c1db	-0.8857705
76	0xbf36c671	-0.7139655
77	0xbf93efc4	-1.1557546
78	0xbf442e1f	-0.76632875
79	0x3fa2f9b4	1.2732453
80	0x40138e6b	2.3055675
81	0xbf7dc74c	-0.9913223
82	0x40127656	2.2884727
83	0xbf412419	-0.75445706
84	0xbf0b37f8	-0.54382277
85	0x3ff0033b	1.8750986
86	0xbf3050b3	-0.6887314
87	0xbedf5863	-0.4362212
88	0xbf13b030	-0.57690716
89	0xbf17b4fa	-0.59260523
90	0xbf7118ed	-0.9417866
91	0xbf6155b1	-0.8802138
92	0xbf07c68f	-0.5303735
93	0xbdec7dc8	-0.11547428
94	0xbf09b41a	-0.5379044
95	0xbf29855c	-0.66219115
96	0xbf501d68	-0.8129487
97	0xbf508b9b	-0.8146302
98	0xbf4a7275	-0.790809
99	0xbf5ac8a4	-0.85462403
100	0xbf9661bc	-1.1748576
101	0xbf75664a	-0.95859206
102	0xbf8668af	-1.0500697
103	0xbf715a40	-0.94278336
104	0xbf827b0f	-1.0193805
105	0xbf66a4f7	-0.90095466
106	0xbedaced5	-0.42735925
107	0xbf6498fd	-0.8929594
108	0xbf4f067c	-0.8086927
109	0xbf82d9ea	-1.0222752
110	0xbfda26f9	-1.7043144
111	0xbf8130b0	-1.0092983
112	0xbf3a9083	-0.7287676
113	0xbf72cef7	-0.94847053
114	0x3dbbc262	0.09167935
115	0xbf586d1b	-0.8454148
116	0xbeea3478	-0.45743155
117	0xbf835d0b	-1.026277
118	0xbf996993	-1.1985344
119	0xbf63df92	-0.89013016
120	0xbf34379d	-0.7039736
121	0x400da09e	2.2129283
122	0x3fe18aa4	1.7620435
123	0xbf17fa48	-0.59366274
124	0xbfb3ff01	-1.4062196
125	0xbf56c2d1	-0.83891016
126	0xbf6a71f0	-0.91580105
127	0x3fa3d0b7	1.279807

fc2.bias f4 [2]
0	0xbf446d0c	-0.7672889
1	0xbf41b175	-0.756614
