DeepAcTS/networks/intermediary/OLD_Runs/intermediary_valnet_rX_1500.pth (torch, 3231 bytes, 4 tensors)

fc1.weight f4 [64, 4]
00000000: 53f8 9ebe 5517 983e 6f10 133d 563c 893c
00000010: c1ac 0dbe 7f5d d53e 65bc aa3e c74c eb3d
00000020: 2069 b8bc 208a a43d 4cd7 5f3e 0020 a538
00000030: 26f4 94be f604 e23d e967 133d 7857 20be
00000040: c866 0cbd 19b5 263e 5199 0f3f 835d 46be
00000050: 0132 1fbf 395d cfbd a7db de3e 2606 c6be
00000060: cee0 7f3e 26fe 0bbf 2762 a13c 2182 093e
00000070: ff7c 9ebf 5ce9 4bbf e5e6 1a40 0442 ca3f
00000080: 07b7 1ebf e980 823e 639e 053e 087a 103f
00000090: d3f9 b4be 4a7f 93be 1d73 fdbd cd6c 803e
000000a0: 3d0e fe3d 1668 4f3e 0bb9 bfbd 94bb db3e
000000b0: 6473 ba3d 46bd c9be c70a ff3e ea89 b5be
000000c0: 3594 fbbe 734a 023f a6b7 4d3f 91dd 1f3c
000000d0: e6c0 06bf 0a54 813e 4287 dc3e c0c1 f13e
000000e0: a4d5 b7be 68b4 e33e ddd2 ec3e 177d 673d
000000f0: 45a6 73bf d432 27bf cf06 0640 8b72 cb3f
00000100: 5eb0 ddbf b0e6 f3be 5cae 0740 43a3 dd3f
00000110: 5c7f 923e 34d2 933e 9d63 64bd c161 793e
00000120: 2c31 94bf 2cf2 89bf f9b5 0d40 1136 9a3f
00000130: 9f60 ac3e ac65 d4be ed66 07bf df3b f03d
00000140: 3f6b 30bf 91fc 203e bc6a 2e3f 4ab8 05be
00000150: 7641 f4bf 9abe 76bf 0fd1 fa3f dbfc bd3f
00000160: bca5 4bbc dffa 20bc d71b 153e af58 8a3e
00000170: 1176 e1be ccd0 adbd 280d 573f 1cdb 68be
00000180: cfcf 1c3d a3c1 33bd 4f4f c23e 9db6 fbbd
00000190: bfa9 633e 7cbc 263e a8a2 b03e 2edd 9cbd
000001a0: ef7b 43bd e5f4 29be e8fb 13be 988c a73e
000001b0: e7d0 11bf 8ce5 7e3d 3895 a1bd f8ac 2c3e
000001c0: 1146 b13e 8bd7 72be 3ab7 c43e 6495 e7bd
000001d0: a8d9 06be f0fb 9c3d ea1f f63e 282b e83d
000001e0: b082 923d 19b9 8cbd d760 553f ae62 85be
000001f0: f0ff 0c3d bf70 e4be d720 883c 22b1 c3be
00000200: d2aa 2e3e 7ae6 a7be aa79 30bf 2df6 7c3e
00000210: 67a9 263e f43b 01bf 994c 9d3d d62a 90be
00000220: 778d 783e d99b 9dbe 8a9d edbd 8cbb c6bd
00000230: 7076 15bf 77f4 1cbd a3d2 4bba d20e c9bd
00000240: 34f3 733e b25b 063e 71d2 153e f6f3 013f
00000250: 8744 173f 460f 1cbf 1f6e 76bf 1a41 cd3d
00000260: 57df 0a3f 8fd8 913e c26c 9cbe 9969 193f
00000270: 3c96 b83e ab21 c13e 40a4 b3bd f5ef ef3d
00000280: ca61 033d a842 2fbe fd8c 43bd f761 ce3e
00000290: 2643 93be f9c3 78be a971 c83e ebaf 1e3e
000002a0: d4b6 17bf ccdd b5bc ab56 573f 2dc1 8bbe
000002b0: 668d 22bf 358c 73be 46a4 b63e 6477 89be
000002c0: a236 ba3e 0851 d9be a7f5 17be 2638 403e
000002d0: a40b a43e 843c 833e ad8d 80be e4c8 d63e
000002e0: 2ca6 9e3e 7915 c33e c24b 393f aa7f 2f3d
000002f0: 3803 c53e dcef bb3c 5d9b 97bd e99e bb3e
00000300: bb7f 553d 63ae 1bbd 0a84 d9bc e7d6 16bc
00000310: d1a3 663e f9e6 a6be 7d99 1bbf 0bd0 d43e
00000320: 303d 343d 7469 43be 0cce 383e c8a9 d2bd
00000330: 12d9 c2bb 1663 59be e31f bcbe 1392 43be
00000340: e580 3cbf 75ac 9c3e bcf7 1e3f 4a46 39be
00000350: c76d 05bf 4b4d abbe 4f31 c83e 4a95 13bc
00000360: eec5 f63d 8cb6 e63d 92c9 173f 11a5 b33e
00000370: db23 873e ab95 34bf 3798 fcbe 53a0 abbd
00000380: 6005 5cbf 639a adbe 8147 073f 557f b2be
00000390: 544f a33f 9e34 933f a671 ebbf d614 8fbf
000003a0: cdf8 8b3f 33a7 483e 413e 51bf 93a2 8cbf
000003b0: 7910 543e 017e 8a3e 82fa c93e 9b38 1abe
000003c0: 3038 1e3f 9618 0bbf 5003 56bf 2094 d83c
000003d0: 228f bdbe a04f 3abc 193b c8be 65d0 993e
000003e0: 1435 303e 9949 04be 60b3 e7bd 84a7 c53d
000003f0: f8eb 10bf af5f 19bf 5907 743e 8b77 80be
-0.3104883 0.297053 0.035904344 0.016752403 -0.13835432 0.41672894 0.3334686 0.114892535
-0.022511065 0.08034158 0.21859473 7.8737736e-05 -0.2909252 0.110361025 0.03598777 -0.15658367
-0.034277707 0.16280021 0.5609332 -0.1937161 -0.62185675 -0.10125203 0.43526956 -0.38676566
0.249881 -0.54684675 0.019700123 0.13428546 -1.2381896 -0.79652953 2.4203427 1.5801396
-0.6199803 0.25488976 0.13048701 0.56436205 -0.3534685 -0.2880805 -0.12375472 0.25083008
0.124050595 0.2025455 -0.09361466 0.42916548 0.0910404 -0.39402217 0.4981291 -0.35456783
-0.4913651 0.5089485 0.8035835 0.009757415 -0.5263809 0.2525943 0.43071944 0.47218132
-0.35905182 0.44473577 0.46254626 0.05651578 -0.9517558 -0.6531193 2.0941656 1.5894331
-1.7319448 -0.47636938 2.120017 1.7315449 0.28612792 0.2887131 -0.05575906 0.24353696
-1.1577506 -1.077703 2.2142317 1.204775 0.33667466 -0.4148382 -0.5289143 0.117301695
-0.68913645 0.15721346 0.68131614 -0.13058582 -1.9082477 -0.96384585 1.959505 1.484279
-0.012429651 -0.009825437 0.14561401 0.27020785 -0.4403539 -0.084870905 0.8400445 -0.22739834
0.03828412 -0.04388584 0.37951133 -0.1229069 0.22232722 0.16282839 0.34499097 -0.07659374
-0.047725614 -0.16597326 -0.14451563 0.32724452 -0.56959385 0.06223063 -0.07889789 0.16862857
0.3462377 -0.23715036 0.3842104 -0.11307791 -0.13168967 0.07665241 0.48071223 0.113363564
0.07153833 -0.06871242 0.8335089 -0.2605185 0.03442377 -0.44617268 0.016617222 -0.3822108
0.1705735 -0.32793027 -0.68935645 0.24703284 0.1627556 -0.50482106 0.076806255 -0.2815768
0.24272715 -0.30782965 -0.11602314 -0.097037405 -0.58383846 -0.038319077 -0.0007775223 -0.0981728
0.23823243 0.13120916 0.14631058 0.5076288 0.5908894 -0.60960805 -0.9626178 0.10022183
0.5424704 0.28485534 -0.30551726 0.59926754 0.3605212 0.37721 -0.087715626 0.1171569
0.03207568 -0.17115271 -0.04774188 0.40309116 -0.28762168 -0.24293508 0.39149216 0.15496795
-0.5926335 -0.022200488 0.8411662 -0.2729582 -0.63497007 -0.23783953 0.35672206 -0.268489
0.36369807 -0.42444634 -0.14839803 0.18771419 0.3204013 0.25632107 -0.2510809 0.41950142
0.30986154 0.3810232 0.7238122 0.04284636 0.38479018 0.022941522 -0.0740268 0.36644676
0.052123766 -0.038008105 -0.026552219 -0.00920651 0.22523428 -0.32598093 -0.6078108 0.41564974
0.044003665 -0.19083196 0.1804735 -0.102862895 -0.005946287 -0.21229205 -0.36743078 -0.19098692
-0.7363418 0.30600324 0.6209676 -0.1809322 -0.5212063 -0.33457407 0.3910012 -0.009007761
0.12049471 0.11265287 0.59291947 0.35086873 0.26394543 -0.70540875 -0.4933488 -0.08380189
-0.859457 -0.3390685 0.5284348 -0.34862772 1.2758584 1.1500432 -1.8394058 -1.1178234
1.0935303 0.19595031 -0.81735617 -1.0987114 0.20709409 0.27049258 0.39448935 -0.15060656
0.61804485 -0.5433439 -0.83598804 0.026437819 -0.37023264 -0.011371523 -0.39107588 0.30041805
0.17207748 -0.129187 -0.1131351 0.09651092 -0.5661006 -0.59911627 0.23830928 -0.25091204

fc1.bias f4 [64]
00000000: c0b8 9d3f 6554 493f b48e a8be f768 9c3f
00000010: 4b8c 743f d8da 933f cf5f 903f 2f06 c8bd
00000020: 4c21 923f 6443 8c3f f3e1 373f d16a 813f
00000030: fd9f 613f 1d7e 6f3f bc13 843f 84e7 d23d
00000040: dc0f cabe fc5e 693f 4766 dfbe eb90 323f
00000050: 82a6 273f 3627 b5be 0f3f 3c3f d5bc 0e3f
00000060: 1971 203f 0573 513f b700 7f3f 69c3 803f
00000070: addb 083f cc18 98be 5c8b 3e3f 8c73 793f
00000080: 1396 6b3f 7937 a33f f6bd a13f 403b 6b3f
00000090: fb98 843f d7f0 893e 4ed0 6f3f f324 c8be
000000a0: 53b9 993f f164 953f 8796 253f 6c9d 8a3f
000000b0: a035 843f eed7 9f3f ba5c a3be 9dbc 543f
000000c0: d645 9f3f b5a0 a93f ca97 e8be deea a53f
000000d0: 728d 623f 2837 953f b1a5 4f3f be3b 2d3f
000000e0: 4dbd 383f 44c1 1cbe 54cb 173e cd18 9a3f
000000f0: a04a b3b9 1035 373f 8271 783f 0a59 8fbe
1.2322006 0.786444 -0.32921374 1.2219533 0.9552657 1.1551161 1.1279238 -0.097668044
1.1416411 1.0958066 0.71829146 1.0110723 0.8813475 0.9355181 1.0318522 0.10298064
-0.39465225 0.9116056 -0.4363272 0.6975238 0.65488446 -0.35381478 0.7353372 0.55756885
0.62672573 0.8181613 0.99610466 1.0059634 0.534602 -0.2970642 0.74431396 0.97441936
0.9202587 1.2751304 1.2636096 0.91887283 1.0359186 0.2694156 0.9367722 -0.3909069
1.2009681 1.167143 0.6468281 1.0829291 1.0328865 1.2487772 -0.31906682 0.831003
1.2443187 1.3252169 -0.45428306 1.2962301 0.8849708 1.1657457 0.811122 0.67669284
0.7216385 -0.153081 0.14823657 1.2038819 -0.0003419714 0.7156534 0.970482 -0.2799762

fc2.weight f4 [2, 64]
00000000: d6e2 20bf 3a59 e3be 003f 763d 0921 2dbf
00000010: e114 f6be 6fbd 23bf fdb0 1ebf 4e71 9f3f
00000020: 7c06 38bf 6bb9 0dbf 255c cabe f709 41bf
00000030: e729 23bf 9265 40bf 9112 1fbf 0694 a83f
00000040: ab35 9a3f f04d 13bf f229 883f 40f4 88be
00000050: dd1a 8ebe da81 853f 4e39 d3be 00e2 a0bd
00000060: 9885 a5be 07b6 0dbf 389e e3be e7e4 39bf
00000070: ada7 90bd 0058 5c3d 3742 c5be 1167 29bf
00000080: 16e6 f0be b03b 34bf 07bb 2fbf e98f 2dbf
00000090: 4575 13bf 6150 f5bd 93ce 3cbf 88a7 b43b
000000a0: a04f 04bf f65a 22bf 2769 82be 8dc9 0fbf
000000b0: ec77 fbbe e4ad 28bf 4c0f 2ebe 0f66 3bbf
000000c0: b5a0 29bf 23d4 16bf b285 a13d 32d1 0ebf
000000d0: 6a5b d1be b24f 3abf a5b2 4fbf 6aa6 36bf
000000e0: 17bf c8be e48a 4a3f d60e eb3e dc75 f0be
000000f0: b0e4 32bf 39d3 c4be 5c68 3cbf 1466 7abe
00000100: 6baf 1ebf ffe4 00bf 1841 17bd 51ca 03bf
00000110: 5d20 b0be 2d8d e1be b1e5 3fbf b46a 6a3f
00000120: b388 3ebf 78a1 08bf 1790 01bf c1af 24bf
00000130: 15b6 e2be 49a9 57bf 6ede 00bf d140 693f
00000140: 015f 9b3f 7124 3bbf 8b1a 913f a05e ffbe
00000150: 96de 7fbe 4777 783f 5b21 cbbe aea1 03be
00000160: 275e a2be a205 bbbe 177c 28bf 212b 18bf
00000170: 931e 82be c87d ecbd e442 93be 960e e5be
00000180: 9eb3 0dbf 2860 13bf 1d99 0cbf 4014 17bf
00000190: 784b 63bf 5d2b d2be b614 48bf 5d87 0ebf
000001a0: 795e 3cbf 0991 1bbf 7aec 1abe c9dc 1fbf
000001b0: dc79 0abf 49ca 41bf 2c83 3ebf 0d55 3cbf
000001c0: bbc8 f6be f495 2ebf 62c2 bb3d 9d7b 1ebf
000001d0: a89e 57be b2d4 3bbf a2b6 65bf cde8 23bf
000001e0: eda2 d4be d753 a03f 3ddf 0d3f 5532 c1be
000001f0: bbc9 2bbf 479c 0cbf 5c99 27bf 4bd4 ce3d
-0.62846124 -0.44404012 0.060118675 -0.6762853 -0.48062804 -0.6396093 -0.6198881 1.2456453
-0.71884894 -0.5536105 -0.39523426 -0.7540583 -0.6373581 -0.75154984 -0.62137705 1.3170173
1.2047628 -0.575408 1.0637801 -0.26748848 -0.2775487 1.0430253 -0.41254658 -0.07855606
-0.32328486 -0.55355877 -0.4445665 -0.726149 -0.070632316 0.05379486 -0.3852708 -0.6617289
-0.47050542 -0.70403576 -0.68644756 -0.67797714 -0.57600814 -0.11978222 -0.7375271 0.0055131353
-0.51684 -0.63420045 -0.2547085 -0.5616692 -0.4911493 -0.65890336 -0.16998023 -0.73202604
-0.66260844 -0.58917445 0.078868285 -0.55787957 -0.40890056 -0.72777855 -0.81131965 -0.7134768
-0.3920829 0.7911818 0.45909756 -0.4696492 -0.698802 -0.384424 -0.7359674 -0.24453002
-0.61986417 -0.5034942 -0.036927313 -0.51480585 -0.3439969 -0.4405302 -0.74959856 0.91569066
-0.74427336 -0.5337138 -0.5061049 -0.6433068 -0.44279543 -0.84242684 -0.503394 0.91114527
1.2138368 -0.7310248 1.1336225 -0.4987688 -0.24987254 0.97057 -0.39673886 -0.12854645
-0.31712458 -0.36527735 -0.65814346 -0.5944081 -0.2541395 -0.11547428 -0.2876197 -0.4473769
-0.553522 -0.575686 -0.5492113 -0.59015274 -0.8878703 -0.4104871 -0.781566 -0.556753
-0.73581654 -0.6076818 -0.15129271 -0.62446266 -0.5409219 -0.7569929 -0.744189 -0.7356728
-0.4820002 -0.6819756 0.09167935 -0.6190737 -0.21056616 -0.7337142 -0.897318 -0.640271
-0.41530553 1.2525586 0.5541876 -0.37733713 -0.6710469 -0.5492596 -0.6546838 0.100990854

fc2.bias f4 [2]
00000000: ccaf f1be 3a37 04bf
-0.47204435 -0.5164677
