DeepAcTS/networks/intermediary/OLD_Runs/intermediary_polnet_rX_end.pth (torch, 3231 bytes, 4 tensors)

fc1.weight f4 [64, 4]
00000000: cb20 583f 7684 6ebd 213d b6bf 1085 3ebf
00000010: 78af a1be f287 d13d 4073 c6be 6d75 dd3d
00000020: 5b2a 92bd 5288 6fbe fdd6 1c3e 22b3 ce3e
00000030: 87c7 8e3c 5400 0bbd 6a3f a03e 4872 6bbd
00000040: 9730 593f 898c 7a3d 565d afbf 1de1 16bf
00000050: c30a 03bf 38e8 703b ea04 5f3e 0ec6 163f
00000060: 71e5 8ebe 33fc 76be d1e0 553f e66f 293f
00000070: 6bf8 2cbf 62ab 9d3d 502e 553f 1f73 353f
00000080: 6628 563f 29c6 953e 7e32 93bf 0d90 43bf
00000090: 5432 413f 3b91 6c3e 4df7 51bf dca1 3bbf
000000a0: 2201 31bf df6b b1be 4f24 723f 7dd2 ab3e
000000b0: 9c09 06bf 84ad 1e3f 0615 863f 5353 e7bd
000000c0: 51c4 e8be bc07 36be 1be1 d33e 1601 1a3f
000000d0: ade0 c43e fc02 34bd 4cf2 5cbf 9c0d 31bf
000000e0: 1fd9 7a3f 1b0a 493e b7f0 d9bf 2e14 43bf
000000f0: 178c 043f bcfd 503e 6f2e 80bf 75cb 43bf
00000100: 99fc eebe 4754 ddbe d922 313f 176f 2d3f
00000110: 3994 bcbe 05ed e3bd d9e6 523f 4a27 1d3f
00000120: 0f66 5e3f 493b 4c3d d4eb debf db43 54bf
00000130: 5bbe 94bf 729a 7abd 9cec 2540 1425 933f
00000140: f72f abbf 7708 90bd ed98 2a40 e72a 993f
00000150: b828 c6be e737 5f3c d203 493f 6af6 2a3f
00000160: 1cf7 a8bd 0b28 44bd f694 19bf b7d5 1f3e
00000170: 85d8 843f 26b4 d9bd 228f dbbf 4389 66bf
00000180: 194c 6dbf 8d00 febe cdad a53f c544 ef3e
00000190: ab60 6ebe b976 1e3e cf6b acbe 34f6 e73d
000001a0: acca 073f 750f f4bc 55a1 e0be 848d 27bf
000001b0: 8450 a0be 9c17 893e 36be 7b3e c55d 293e
000001c0: 0656 bc3d 88ff 583e c564 25bf a246 46bf
000001d0: 2a25 373f b8a1 07be 45d8 7dbf bcf8 3ebf
000001e0: 6d63 123f 014f 093f 7d51 4ebf d16a 53bf
000001f0: 3a73 7dbf 44d3 f43d bc3e 9d3f 2879 583f
00000200: a824 e0be d946 7b3d 4ba9 ff3e 910e aa3e
00000210: 946c 4abf d5a5 99bb 5f77 c93f 1c78 3c3f
00000220: 7191 42bf 14b0 583e 8fce 443f 5355 283f
00000230: 845e 06bf b95e 423f e8c8 ce3f d684 c2bd
00000240: 9ef3 0c3f baf3 2ebe 42c6 c0bd b6c7 d1be
00000250: c5aa 1bbf c027 1fbc fe52 8d3f 199f 073f
00000260: 8a79 1b3f e5f0 b23c 5a28 90bf a07c 1fbf
00000270: 177d 82be 1837 2ebe 79a8 3c3f 9e4a 043f
00000280: 1af9 c0be cbc5 4b3e e23d b6bd 4bf7 b63d
00000290: 5564 1bbe 593f d6bd 9766 1bbe 33b7 113d
000002a0: 8da9 debe fa46 c1be cee2 383f da7b f23e
000002b0: 8409 083e 69dc 483d 03b4 a43d da24 363e
000002c0: 4d1e ba3d a5fb 90be 2038 fbbe 4741 56bd
000002d0: ad8d 36be 1317 5f3f f7bb 6a3f fd2d 82bd
000002e0: 0de0 093f f2b8 543e c2fe adbf 1380 5dbf
000002f0: 71e1 7e3e b6d4 8e3e a6a9 65bf 5c73 41bf
00000300: 2c11 afbc 1c53 61bc 607c 8dbe a729 16bc
00000310: 390f e6bd b538 953d f74e a0be 0666 9b3d
00000320: 7784 2abe 7799 ecbd 6694 0c3f 169a d73e
00000330: 2d25 643f 9ae6 39bf 28b8 adbf 5cbd de3d
00000340: cdd2 543e 1a2f da3d 6abf 25bf a063 febe
00000350: ac73 7a3f 7423 82be f81b 81bf 21dd 59bf
00000360: cbd2 72bf 289a 893d 0c00 b23f 2508 483f
00000370: dd83 e63e 7e7b 1c3d df8b 8cbf 1c19 07bf
00000380: ecef d1be d09a 35be e8a8 143f adc8 fa3e
00000390: 5184 b2bd d37c 833e 1818 183e 7d91 5bbe
000003a0: 95e4 283f 110d b5bd 50a9 54bf 2b2e 1abf
000003b0: 7f1b 25be 345a 26be 98dc 2e3f ebe4 093f
000003c0: c988 81bf 0619 f03d 911a c13f 008e 563f
000003d0: 99ce 2ebf d67d 12be 2667 cc3f 28c2 133f
000003e0: d209 19be 6560 aabe 4113 763f 12de 8f3f
000003f0: 7a80 20bf 5cb8 08bf 1194 433f 645f 623f
0.8442504 -0.058231793 -1.4237405 -0.7442179 -0.31579185 0.10231008 -0.38759804 0.10813413
-0.07136985 -0.23391846 0.15316387 0.40371042 0.017429126 -0.03393586 0.3129838 -0.057482034
0.8483977 0.06116918 -1.3700359 -0.58937246 -0.51188296 0.0036759507 0.21779218 0.5889596
-0.27909425 -0.24119644 0.8354617 0.6618637 -0.67566556 0.07698704 0.8327379 0.70878786
0.83655393 0.29252747 -1.1499784 -0.7639168 0.7546742 0.23102276 -0.82017976 -0.7329385
-0.69142354 -0.34652612 0.9458665 0.33559027 -0.5235841 0.61983514 1.0475166 -0.1129519
-0.45462278 -0.17776388 0.4138268 0.60157907 0.38452664 -0.04394816 -0.86307216 -0.6916139
0.9798755 0.19632761 -1.7026585 -0.76202667 0.5177626 0.20409292 -1.001417 -0.76482326
-0.46677092 -0.4322836 0.691938 0.67747635 -0.36831835 -0.11129192 0.82383496 0.61388075
0.8687448 0.049861226 -1.7415719 -0.8291604 -1.1620592 -0.061182447 2.5925665 1.149569
-1.3374013 -0.070328645 2.6655838 1.1966218 -0.3870294 0.013624168 0.78521454 0.6678225
-0.082502574 -0.04788975 -0.5999292 0.1560887 1.0378577 -0.10630064 -1.7153056 -0.90053195
-0.9269424 -0.49609795 1.2943665 0.46732154 -0.23279063 0.15474977 -0.33676 0.113262564
0.5304363 -0.029792527 -0.43873087 -0.6545031 -0.3131143 0.26775825 0.24584278 0.16539676
0.09196095 0.21191227 -0.6460689 -0.7745153 0.7154108 -0.13245285 -0.99158126 -0.7459829
0.5718296 0.53636175 -0.8059309 -0.82584864 -0.99003947 0.11954358 1.228477 0.8455987
-0.43777966 0.061346862 0.49933848 0.33214238 -0.7907193 -0.004688958 1.5739554 0.7362077
-0.76003176 0.21160918 0.76877683 0.65755194 -0.5248797 0.75925785 1.6155062 -0.09497993
0.5505923 -0.17085162 -0.09412815 -0.4097268 -0.6080745 -0.009714067 1.1040952 0.5297714
0.6073233 0.021843383 -1.1262314 -0.6229954 -0.2548606 -0.17013204 0.7369457 0.51676357
-0.3769005 0.19899671 -0.08898522 0.08933886 -0.15174992 -0.10461301 -0.15175854 0.035575103
-0.43488732 -0.37749463 0.72221076 0.47360116 0.1328488 0.049038325 0.08042147 0.17787495
0.09087811 -0.2831699 -0.49066257 -0.052308347 -0.17827483 0.87144583 0.9169306 -0.06356428
0.538575 0.20773676 -1.3593371 -0.8652355 0.24890687 0.2789666 -0.8971199 -0.7556665
-0.021370493 -0.013752725 -0.27633953 -0.009165204 -0.11233372 0.07286207 -0.31310245 0.07587819
-0.16652094 -0.115527086 0.5491394 0.42109746 0.89119226 -0.72617495 -1.3571825 0.10875961
0.20783539 0.10653515 -0.647452 -0.49685383 0.9783275 -0.25417674 -1.008666 -0.8510304
-0.94852895 0.06718856 1.3906264 0.7813743 0.4502248 0.03820371 -1.0980185 -0.5277269
-0.41003358 -0.17734838 0.5807023 0.48981228 -0.087166436 0.2568117 0.14852941 -0.21442218
0.6597379 -0.08840383 -0.8307085 -0.60226697 -0.1612377 -0.16245347 0.6830535 0.53864926
-1.0119869 0.11723523 1.5086232 0.83810425 -0.68283993 -0.14305815 1.5968978 0.57718134
-0.14945152 -0.33276668 0.9612313 1.1239645 -0.6269604 -0.5340631 0.76397806 0.88426805

fc1.bias f4 [64]
00000000: d76a 5f3e 8895 aebe fc85 16bf 74e3 96bd
00000010: 3269 923e 9e2f 8dbe 1d3b 4cbe 1e20 afbe
00000020: 89a6 db3e 54ab f93e 4748 b9be f870 02be
00000030: 3081 c5be 35fc 8e3e b6b2 5abe 6e85 223f
00000040: d194 a2ba 49ce d5be ab31 72be 230d 0a3f
00000050: 72b9 af3e 4929 8dbe d738 c9be 9b04 c13d
00000060: f096 03bf d9fc e8bd 128a a83e 696e a4be
00000070: b74c c7bd 61b9 b63e c8e8 dc3a ab05 a73e
00000080: e902 8f3d 3ea8 ad3e 4b65 96be 2a3f 0f3e
00000090: 4883 3bbe ab63 193e 631d 96be d36b edbe
000000a0: 8183 58be 44af 1bbf 75b5 63bb 1a1f e7be
000000b0: 2be7 ffbe de2b 9fbe 0436 1a3f 402d 713e
000000c0: 022a a1bd 4a2e 72bd e038 bfba 0ebf e33b
000000d0: e0ab 44bb 5a12 cb3e 68fb a93e 40c0 86be
000000e0: 35cb 82be 8c0c 7bbf dc0b 843e 79fe c03b
000000f0: c3b0 bbbd 05b3 a7be 9689 1f3e e37d 34ba
0.218181 -0.34098458 -0.58798194 -0.07367602 0.28595883 -0.27575392 -0.19944425 -0.3420419
0.42900494 0.48763525 -0.36187956 -0.12738407 -0.38575125 0.27926794 -0.21357235 0.6348485
-0.001240397 -0.41758946 -0.2365176 0.53926295 0.3432117 -0.2757056 -0.39301178 0.094247065
-0.5140219 -0.11376352 0.3291784 -0.32115486 -0.09731429 0.35688308 0.0016854042 0.32621512
0.06982977 0.3391742 -0.29374155 0.13988939 -0.18311799 0.14979427 -0.29319295 -0.46371326
-0.21143915 -0.6081431 -0.0034745608 -0.45140916 -0.49981055 -0.31088156 0.6023867 0.23552418
-0.078693405 -0.059126176 -0.0014589094 0.0069502657 -0.0030009672 0.3966244 0.3319962 -0.2631855
-0.2554566 -0.9806602 0.25790298 0.0058897105 -0.09164574 -0.3275377 0.15579829 -0.00068852137

fc2.weight f4 [2, 64]
00000000: 5ce1 0c3f 2150 8b3d 5b4c 80bd 593a a03b
00000010: 54b6 c93e 1ad0 d7bd 74e1 c6be b4e8 c3be
00000020: 9a42 9e3e 33fa 573e db3b 4a3f b79f 20bf
00000030: 0fac 33be b030 b13e df9a 873f 8d6e 953e
00000040: ece8 8fbe ae1f e9be b1a3 8dbf a761 82bf
00000050: 8dbe 69bf 480a 99be fa4f 1dbc 5295 5a3f
00000060: 5f3c a53f c5a6 bf3d 5d9a 703e 4675 b83a
00000070: 284c a33e bfe8 683e ffa2 cb3e fa9c d6be
00000080: b400 48be 42cd f6be 9860 09bf afe7 e5be
00000090: b04e 07be 4aa5 f2be c75a 57bf 5e57 94be
000000a0: 0847 dfbd 1f19 883b f504 44bd 90ea 17bd
000000b0: d34c 503c 7ddf 2ebf 054a 983e 99fb 583e
000000c0: 4fda 343d d390 863d 4f0d b5bd 882c 3b3f
000000d0: 5392 633e d79e ca3e f247 ddbe 4150 a3bf
000000e0: 6515 87be 5114 febe 2624 753e 52f8 37be
000000f0: 158a 7f3f 6c63 5e3f a7e3 15be dade a7be
00000100: 5c71 02bf 353d 97bd 28df 13bd 3f33 1d3c
00000110: e51f 8ebe 43c6 483e e191 a73e 217e d23e
00000120: 671d c3be 3dcf 87be e1b2 6ebf 2aa0 ca3e
00000130: d6c0 0c3e 3078 4cbe 84ab 7ebf 7199 c3bd
00000140: 81bd f13d 4658 d43e 6dd1 653f 082d 7c3f
00000150: ff6c 6e3f d6de a33e 0291 d5bc 6054 69bf
00000160: 4c55 b0bf 5c29 fdbc a620 42be b9f2 51bd
00000170: e54e 87be 87df c0be dc46 07bf a99f 853e
00000180: 7c28 d13d 659c 083f b609 1f3f 2451 0d3f
00000190: d007 a3bc 7de9 a83e 0440 2b3f 6a62 6c3e
000001a0: 057a bfbd e4e4 edbd f811 6a3e ebdb 06bd
000001b0: 6996 463c deab 4f3f 9d73 98be c9d0 a0be
000001c0: 4fb7 953c 9fa7 a23d dc5a 163e 4d26 3cbf
000001d0: a5ab 93be ea45 9bbe b6fc 733e b3d5 993f
000001e0: e938 b63e cc25 fe3e e9e8 bfbe 3552 e03d
000001f0: 936e 88bf e113 75bf 9366 813e a02b e63d
0.5503137 0.06802393 -0.06264564 0.004889768 0.39396918 -0.10537739 -0.38843882 -0.38263476
0.30910188 0.21091537 0.7899758 -0.62743706 -0.17546104 0.34607458 1.0594138 0.29185906
-0.28107393 -0.45531982 -1.106558 -1.0186051 -0.9130638 -0.29890656 -0.009601587 0.85384095
1.2909049 0.09357981 0.23496385 0.0014073036 0.3189404 0.22745036 0.39772794 -0.4191664
-0.19531518 -0.48203474 -0.53663015 -0.44903323 -0.1321361 -0.4739173 -0.8412289 -0.28972906
-0.1090222 0.0041533853 -0.04785629 -0.03708893 0.012713629 -0.68309766 0.29743972 0.21189727
0.044153508 0.06570592 -0.08840429 0.73114824 0.22223787 0.3957431 -0.43218952 -1.2758867
-0.2638351 -0.49624875 0.23939571 -0.1796582 0.9982007 0.86870456 -0.14637624 -0.3278721
-0.5095422 -0.07384721 -0.03610149 0.009594738 -0.2775871 0.19606881 0.32728484 0.41111854
-0.3810837 -0.26525298 -0.932417 0.3957532 0.13745436 -0.19967723 -0.9948046 -0.09550751
0.11803723 0.41473597 0.89772683 0.9850621 0.93135065 0.32005948 -0.026070122 -0.9114437
-1.377603 -0.03090351 -0.18957767 -0.05125687 -0.2642738 -0.37670538 -0.528425 0.26098374
0.102128 0.5336364 0.6212419 0.55201936 -0.019901186 0.32990637 0.66894555 0.23084417
-0.09349445 -0.11615923 0.22858417 -0.032924574 0.0121208215 0.81121624 -0.29775706 -0.3140929
0.018275885 0.079421274 0.14683098 -0.7349594 -0.28841892 -0.30326778 0.2382687 1.2018341
0.35590294 0.49638212 -0.37482384 0.1095318 -1.0658745 -0.9573346 0.2527357 0.112387896

fc2.bias f4 [2]
00000000: 6f93 9c3d 3e76 4fbd
0.07645308 -0.050649874
