DeepAcTS/networks/intermediary/OLD_Runs/intermediary_valnet_rX_2500.pth (torch, 3231 bytes, 4 tensors)

fc1.weight f4 [64, 4]
-0.3619969 0.27490398 0.11483665 0.05719962 -0.20319188 0.38762715 0.42127416 0.1616466
-0.022511065 0.08034158 0.21859473 7.8737736e-05 -0.31567076 0.10197017 0.096914485 -0.12871522
-0.052252147 0.15784684 0.6173419 -0.16897881 -0.6374877 -0.10492493 0.48986 -0.36328882
0.18678159 -0.5546698 0.09883751 0.1610007 -1.9715008 -0.5748855 3.7437012 2.0243037
-0.66933364 0.24774787 0.20862776 0.59397703 -0.39424953 -0.28880733 -0.053908847 0.27346465
0.05082118 0.18781994 -0.0049263267 0.4636455 0.05356667 -0.40887415 0.56760913 -0.32078868
-0.5087586 0.504681 0.8595102 0.033935796 -0.58284926 0.24378546 0.5126248 0.50296474
-0.3912759 0.43258685 0.5285491 0.08784733 -1.6484897 -0.4390944 3.4209409 2.043432
-2.4060566 -0.24130274 3.3940547 2.1389923 0.20944767 0.2534586 0.039488014 0.29568672
-1.8128325 -0.84732187 3.4696774 1.598941 0.23708405 -0.44437218 -0.44427034 0.1533361
-0.7300952 0.13897774 0.75601685 -0.09318802 -2.5975425 -0.7493991 3.234676 1.9008749
-0.05908876 -0.015946163 0.22044301 0.2982494 -0.5044981 -0.12204692 0.9491042 -0.16489162
-0.011964752 -0.06536471 0.45792213 -0.08292522 0.21231261 0.16192885 0.39583176 -0.05565342
-0.1238003 -0.17277654 -0.05590621 0.3546812 -0.6054513 0.04838945 -0.0106225135 0.20146032
0.2151403 -0.30213353 0.51398957 -0.034871988 -0.12851332 0.07982891 0.47753674 0.110187076
0.04756885 -0.076596074 0.89405084 -0.23303856 0.021393217 -0.44856802 0.069446094 -0.35991395
0.11069302 -0.33228013 -0.6135893 0.27011326 0.12949802 -0.51748914 0.14346203 -0.24978389
0.2117103 -0.31935108 -0.05086692 -0.066291176 -0.62433815 -0.054657023 0.07071138 -0.06303308
0.1530902 0.118544914 0.24088721 0.5407153 0.69623977 -0.855987 -1.3007478 0.16121112
0.4746557 0.2734715 -0.23059382 0.62616295 0.2739637 0.42954242 0.09502528 0.09863907
-0.04075272 -0.17695135 0.039548986 0.42996198 -0.33307242 -0.2566868 0.46849132 0.18995361
-0.5547151 -0.0144337155 0.89739984 -0.24734312 -0.67808264 -0.26146016 0.44730332 -0.21987097
0.31031483 -0.42808902 -0.07298209 0.21195842 0.25217515 0.22557323 -0.16133972 0.46762788
-0.08247154 0.5916111 1.2079425 -0.056345567 0.33569562 0.019229485 0.00038812723 0.3919488
0.030583557 -0.044665486 0.032131404 0.017053438 0.17162722 -0.32185802 -0.53378725 0.43331477
0.044003665 -0.19083196 0.1804735 -0.102862895 -0.06846949 -0.24020964 -0.2812211 -0.14533082
-0.7273463 0.31595248 0.6581732 -0.1700437 -0.5751377 -0.35733682 0.4725976 0.032548618
0.06137969 0.10182182 0.67483515 0.3827671 0.21108307 -0.74329764 -0.4628151 -0.060642507
-0.89481544 -0.36831152 0.6229149 -0.29139185 2.047111 1.0142059 -3.1411955 -1.581329
1.8156308 0.031274658 -2.1520877 -1.5741765 0.17911507 0.26031166 0.45787272 -0.12100363
0.9419904 -0.8039104 -1.3269062 0.10394969 -0.44683444 -0.02484635 -0.30075958 0.33355236
0.12925552 -0.14671905 -0.040097263 0.13273507 -0.78669345 -0.84862435 0.62702245 0.08402694
00000000: a857 b9be 37c0 8c3e 7a2f eb3d 264a 6a3d
00000010: 8811 50be 1177 c63e 3fb1 d73e b086 253e
00000020: 2069 b8bc 208a a43d 4cd7 5f3e 0020 a538
00000030: 999f a1be bdd5 d03d 1a7b c63d eccd 03be
00000040: 5906 56bd 9aa2 213e 1e0a 1e3f c808 2dbe
00000050: 6532 23bf e2e2 d6bd eece fa3e fe00 babe
00000060: ac43 3f3e d7fe 0dbf 526b ca3d 5edd 243e
00000070: 235a fcbf b22b 13bf cd98 6f40 318e 0140
00000080: 7359 2bbf 9eb1 7d3e 84a2 553e e10e 183f
00000090: 13db c9be 8ede 93be 86cf 5cbd 8f03 8c3e
000000a0: df29 503d df53 403e 066d a1bb f162 ed3e
000000b0: b968 5b3d f457 d1be d54e 113f 6a3e a4be
000000c0: 013e 02bf c632 013f dc08 5c3f 4300 0b3d
000000d0: 9c35 15bf e5a2 793e 613b 033f 4cc2 003f
000000e0: 5155 c8be 067c dd3e fe4e 073f 4de9 b33d
000000f0: b601 d3bf fbd0 e0be b2f0 5a40 97c7 0240
00000100: d5fc 19c0 1118 77be 3138 5940 40e5 0840
00000110: 7379 563e 53c5 813e 2fbe 213d 4064 973e
00000120: e50a e8bf 16ea 58bf 320f 5e40 19aa cc3f
00000130: 29c6 723e c084 e3be 6777 e3be 2304 1d3e
00000140: 85e7 3abf 2e50 0e3e 528a 413f 5cd9 bebd
00000150: 233e 26c0 9fd8 3fbf ee04 4f40 de4f f33f
00000160: 0e07 72bd 87a1 82bc d0bb 613e 25b4 983e
00000170: ca26 01bf bcf3 f9bd 7ef8 723f 59d9 28be
00000180: cf07 44bc efdd 85bd c574 ea3e b3d4 a9bd
00000190: 7a68 593e add0 253e 76aa ca3e d7f4 63bd
000001a0: 038b fdbd 55ec 30be e9fd 64bd c698 b53e
000001b0: dbfe 1abf 0434 463d 0d0a 2ebc 9d4b 4e3e
000001c0: bd4d 5c3e 3fb1 9abe d294 033f eed5 0ebd
000001d0: ff98 03be 577d a33d b27f f43e c3a9 e13d
000001e0: 8ed7 423d 67de 9cbd 84e0 643f a9a1 6ebe
000001f0: d440 af3c b5aa e5be c139 8e3d a446 b8be
00000200: 06b3 e23d 9f20 aabe 3014 1dbf 494c 8a3e
00000210: 219b 043e 2b7a 04bf b6e7 123e 59c7 7fbe
00000220: 96ca 583e fc81 a3be d559 50bd abc3 87bd
00000230: a0d4 1fbf 0be0 5fbd 21d1 903d 7d17 81bd
00000240: adc3 1c3e adc7 f23d 23ab 763e 516c 0a3f
00000250: c53c 323f f721 5bbf e77e a6bf 8714 253e
00000260: 1206 f33e 7504 8c3e c920 6cbe 374c 203f
00000270: f844 8c3e fcec db3e 9d9c c23d 4803 ca3d
00000280: 53ec 26bd bc32 35be 1efe 213d fa23 dc3e
00000290: 7888 aabe 746c 83be 18de ef3e 3383 423e
000002a0: cf01 0ebf 647b 6cbc ffbb 653f 8447 7dbe
000002b0: d396 2dbf 1bde 85be f104 e53e db25 61be
000002c0: 96e1 9e3e 7c2e dbbe a277 95bd a10b 593e
000002d0: 1a1d 813e abfc 663e 3d36 25be ec6c ef3e
000002e0: d7e6 a8bd d373 173f dc9d 9a3f 9cca 66bd
000002f0: 4ce0 ab3e 2787 9d3c 8e7d cb39 83ad c83e
00000300: 5e8a fa3c 28f3 36bd 389c 033d a7b3 8b3c
00000310: 0cbf 2f3e 93ca a4be 48a6 08bf 6fdb dd3e
00000320: 303d 343d 7469 43be 0cce 383e c8a9 d2bd
00000330: bb39 8cbd 84f9 75be 36fc 8fbe 9ad1 14be
00000340: 5e33 3abf 86c4 a13e 0a7e 283f f01f 2ebe
00000350: 393c 13bf daf4 b6be 50f8 f13e b351 053d
00000360: 4569 7b3d f587 d03d ffc1 2c3f 0dfa c33e
00000370: 2926 583e c148 3ebf 1af6 ecbe 4764 78bd
00000380: a012 65bf 5493 bcbe 5a77 1f3f 5031 95be
00000390: de03 0340 80d1 813f 5909 49c0 fd68 cabf
000003a0: 9766 e83f db19 003d cebb 09c0 9e7e c9bf
000003b0: f169 373e 9247 853e 4b6e ea3e c0d0 f7bd
000003c0: 4826 713f 12cd 4dbf 10d8 a9bf 93e3 d43d
000003d0: 7cc7 e4be 938a cbbc 29fd 99be 60c7 aa3e
000003e0: 8f5b 043e 853d 16be 073d 24bd b4eb 073e
000003f0: be64 49bf 723f 59bf 8b84 203f 5116 ac3d

fc1.bias f4 [64]
1.4200077 0.9730115 -0.32921374 1.4109976 1.1446891 1.34406 1.323564 0.2676295
1.3353124 1.2923714 0.9113582 1.1997311 1.0703666 1.1291673 1.221006 0.65670526
-0.6115734 1.0956228 -0.7459376 0.8836312 0.8453338 -0.49540055 0.92988443 0.746543
0.8157501 1.0070895 1.1920389 1.1948847 0.7014326 -0.30024046 0.9342838 1.1631883
1.1177541 1.4640486 1.4526343 1.1075516 1.2282826 0.2015735 1.1336987 -0.38625896
1.3971903 1.3576277 0.84379387 1.2720994 1.2297608 1.4343251 -0.036738895 1.0261859
1.4334553 1.5256184 -0.45428306 1.4827018 1.0723305 1.3536603 1.0039345 0.8503606
0.91510004 -0.4622683 0.27664497 1.393324 0.0019724153 0.9090043 1.1589465 -0.39407015
00000000: d0c2 b53f 4817 793f b48e a8be 929b b43f
00000010: 2c85 923f 280a ac3f 8c6a a93f bc06 893e
00000020: 84eb aa3f 6d6c a53f c54e 693f ca90 993f
00000030: c601 893f 8e88 903f ed49 9c3f d61d 283f
00000040: 1390 1cbf 5e3d 8c3f c4f5 3ebf a835 623f
00000050: cc67 583f 24a5 fdbe e80c 6e3f 711d 3f3f
00000060: 00d5 503f 4fe8 803f bb94 983f fbf1 983f
00000070: 1691 333f 1eb9 99be 392d 6f3f 5be3 943f
00000080: 9112 8f3f f265 bb3f ecef b93f 40c4 8d3f
00000090: 5d38 9d3f 4969 4e3e 0a1d 913f bcc3 c5be
000000a0: 22d7 b23f bfc6 ad3f e002 583f 27d4 a23f
000000b0: cd68 9d3f f797 b73f 867b 16bd 0f5a 833f
000000c0: 777b b73f 7747 c33f ca97 e8be 2cc9 bd3f
000000d0: 2042 893f be44 ad3f ed80 803f 3bb1 593f
000000e0: ff43 6a3f 6eae ecbe 69a4 8d3e 7158 b23f
000000f0: a343 013b 81b4 683f 5c58 943f 90c3 c9be

fc2.weight f4 [2, 64]
-0.77548796 -0.59446734 0.060118675 -0.82016796 -0.6250336 -0.77619654 -0.7460698 1.7820425
-0.84437233 -0.677593 -0.5299269 -0.89541864 -0.78215265 -0.874104 -0.76883364 1.9253112
1.650799 -0.7290525 1.420722 -0.38934734 -0.41443864 1.441283 -0.54318887 -0.21186754
-0.469148 -0.70310193 -0.57107615 -0.8658112 -0.21233088 0.050619304 -0.5288219 -0.800864
-0.60112405 -0.8466122 -0.8324486 -0.8179041 -0.7078046 -0.24593775 -0.8791995 -0.029424708
-0.6442618 -0.76524144 -0.38863504 -0.69806427 -0.62166405 -0.80839175 -0.38249204 -0.8703512
-0.81028944 -0.71981883 0.078868285 -0.7021323 -0.5464911 -0.8595497 -0.940782 -0.83412224
-0.5158359 1.1871463 0.65571886 -0.6168156 -1.301645 -0.50927764 -0.8814787 -0.3269882
-0.7360871 -0.6278458 -0.036927313 -0.62257284 -0.44861257 -0.55163777 -0.888867 1.2053732
-0.8959002 -0.67931235 -0.64631987 -0.7606875 -0.5674683 -0.9979719 -0.6255715 1.109855
1.7514883 -0.8539757 1.6779029 -0.6284766 -0.3894382 1.420159 -0.54232246 -0.27758676
-0.44008303 -0.46905747 -0.8004489 -0.7356998 -0.38868487 -0.11547428 -0.40470278 -0.55112517
-0.68460625 -0.6933371 -0.66761273 -0.7183271 -1.0295929 -0.70179355 -0.91247475 -0.64535415
-0.8779517 -0.7550061 -0.28277472 -0.7553065 -0.67629486 -0.88550586 -1.2352206 -0.8708726
-0.6013066 -0.81636876 0.09167935 -0.7271606 -0.32398045 -0.8807911 -1.0463029 -0.77113616
-0.5573729 1.7128614 1.1530155 -0.47473964 -1.0914657 -0.69441974 -0.78322023 0.624167
00000000: 6186 46bf 032f 18bf 003f 763d 87f6 51bf
00000010: 3402 20bf d1b4 46bf 6efe 3ebf f819 e43f
00000020: c928 58bf bc76 2dbf 4aa9 07bf 283a 65bf
00000030: 283b 48bf 48c5 5fbf 48d2 44bf 9970 f63f
00000040: 624d d33f 2fa3 3abf 38da b53f 8958 c7be
00000050: 4d31 d4be f67b b83f 6d0e 0bbf cef3 58be
00000060: 2b34 f0be 7dfe 33bf 0c32 12bf cea5 5dbf
00000070: 446d 59be 3056 4f3d df60 07bf 6c05 4dbf
00000080: 44e3 19bf 94bb 58bf 5a1b 55bf 2a62 51bf
00000090: af32 35bf 1bd7 7bbe 3813 61bf 160c f1bc
000000a0: 57ee 24bf dde6 43bf 2cfb c6be 57b4 32bf
000000b0: 6025 1fbf c3f2 4ebf ffd5 c3be 56cf 5ebf
000000c0: 216f 4fbf 0c46 38bf b285 a13d f1be 33bf
000000d0: d7e6 0bbf 730b 5cbf 17d7 70bf 0989 55bf
000000e0: d20d 04bf 69f4 973f 31dd 273f a1e7 1dbf
000000f0: 4e9c a6bf 0560 02bf 97a8 61bf ff6a a7be
00000100: 3470 3cbf 81ba 20bf 1841 17bd ef60 1fbf
00000110: 8cb0 e5be 2238 0dbf ca8c 63bf ab49 9a3f
00000120: b759 65bf 6ae7 2dbf 3875 25bf 6abc 42bf
00000130: 9a45 11bf 167b 7fbf 7425 20bf bb0f 8e3f
00000140: c530 e03f 279e 5abf 86c5 d63f d8e3 20bf
00000150: 7264 c7be c5c7 b53f a5d5 0abf da1f 8ebe
00000160: 9052 e1be 4d28 f0be 38ea 4cbf d256 3cbf
00000170: b401 c7be c87d ecbd 3435 cfbe 8a16 0dbf
00000180: 5b42 2fbf 8a7e 31bf abe8 2abf 49e4 37bf
00000190: b3c9 83bf bea8 33bf f297 69bf ee35 25bf
000001a0: 71c1 60bf 1448 41bf d9c7 90be c45b 41bf
000001b0: a921 2dbf 83b0 62bf b51b 9ebf 82f1 5ebf
000001c0: 3bef 19bf 8bfd 50bf 62c2 bb3d 3227 3abf
000001d0: c4e0 a5be 877b 61bf 41ed 85bf 2e69 45bf
000001e0: feaf 0ebf 0b3f db3f 0396 933f 1311 f3be
000001f0: 26b5 8bbf 7ec5 31bf 1f81 48bf 69c9 1f3f

fc2.bias f4 [2]
-0.6192323 -0.63359654
00000000: 0286 1ebf 6233 22bf
