DeepAcTS/networks/intermediary/OLD_Runs/intermediary_vartransnet_rX_500.pth (torch, 38535 bytes, 10 tensors)

fc1.weight f4 [64, 1]
000000 56 f4 28 bf 9c e5 47 3f e0 df a6 3d fe b5 71 bf
       -0.6599783 0.7808473 0.081481695 -0.94418323
000010 de b0 19 3f ce 24 18 3e 70 70 d7 bd 0b ff 4c 3f
       0.600355 0.1485779 -0.105194926 0.80076665
000020 0d 7d c4 3e 74 c0 e5 be a0 b3 3a bf 02 85 4b 3e
       0.38376656 -0.44873393 -0.72930336 0.19874957
000030 50 cb 4d be ac a3 c5 be b4 91 96 be b8 18 93 3e
       -0.20097089 -0.38601434 -0.29408038 0.28729796
000040 26 5e 2e bf 5d 80 b4 3c a1 3b f5 3d 7c 28 a0 be
       -0.6811241 0.022033865 0.11974264 -0.31280887
000050 e9 56 4d 3f cc fd a2 bb 26 82 40 bd 3d d6 c4 bd
       0.8021074 -0.0049741026 -0.04699912 -0.09611175
000060 d8 f3 c9 3e 41 c9 fe bd 58 81 42 3e 16 a6 5c 3f
       0.3944385 -0.1244073 0.18994653 0.8619093
000070 ae 70 39 3e 48 3c 95 3e f4 46 87 3e d4 68 53 bf
       0.1810939 0.29147553 0.2642132 -0.8258183
000080 8c e5 8c be 7e f0 80 be 4f c1 0f 3f e8 03 26 bf
       -0.2751888 -0.2518348 0.5615434 -0.6484971
000090 d8 9a 57 bf ac 66 53 be 38 99 d5 be 27 dd a8 be
       -0.8422065 -0.20644635 -0.4171846 -0.32981226
0000a0 be 74 7b bf b8 cb 00 be ff 24 5f 3f 33 4b 64 3b
       -0.9822501 -0.12577713 0.87165827 0.0034834861
0000b0 27 95 00 b8 60 d1 7e bd 94 e6 ef be f4 ae bb be
       -3.0656487e-05 -0.062211394 -0.46855605 -0.36656916
0000c0 d9 8f 59 bd 6c f8 a7 3e bc d3 3b bf d8 c9 4b 3e
       -0.0531157 0.32806718 -0.73369956 0.19901216
0000d0 7c ff ab be 76 6c 29 3f b5 65 92 3b b1 9e 1d 3f
       -0.33593357 0.66181123 0.004467691 0.6157027
0000e0 4a 08 38 bf 2c 45 b2 be c8 a8 95 be 4e 11 18 3f
       -0.7188765 -0.348184 -0.29230332 0.59401405
0000f0 27 0c 83 bd 9a f2 3d bb 79 10 8e 3e 6d 55 98 3e
       -0.06398802 -0.0028983713 0.27746943 0.29752675

fc1.bias f4 [64]
000000 0e 9f 55 bf 50 4f b8 be a0 42 d5 be d8 29 ba be
       -0.83445823 -0.3599801 -0.41652393 -0.3636005
000010 92 d5 67 bf 14 59 4d 3f 4d cb cb 3e a1 e3 aa 3c
       -0.9056026 0.8021405 0.39803544 0.020860495
000020 2e 0e 1d 3e cc 61 a0 be bc 22 86 3e 79 9e 38 3f
       0.1533744 -0.31324613 0.26198375 0.7211681
000030 bc 2b fa be cc 02 d2 be 35 63 6a 3e 34 9e b1 bd
       -0.48861492 -0.4101776 0.22889407 -0.08672753
000040 cd d1 e9 3e 83 a4 72 bd 5d 83 81 3f ba 19 18 3f
       0.45667878 -0.05923892 1.0118214 0.59414256
000050 5a 91 07 3d 22 7d 15 3f a7 1c 39 3e 8d a1 ef 3e
       0.033097602 0.5839406 0.18077336 0.4680294
000060 fc c6 62 bf 63 bc 2c 3f 2c 1e 7d bf 86 65 65 bf
       -0.88584876 0.67474955 -0.98874164 -0.8960804
000070 6a a9 36 3f 60 81 b2 be 66 53 80 3f 9a a1 1c bf
       0.71352255 -0.3486433 1.0025451 -0.61184084
000080 c4 34 d3 be 2e 96 23 3f 69 e9 80 3e 72 33 1f 3f
       -0.41251194 0.6390103 0.25178078 0.62187874
000090 45 6a 39 3f 11 1d c5 3e 38 88 0f be dd 2e 09 3f
       0.7242778 0.38498738 -0.14016807 0.5358713
0000a0 00 e6 38 bd 70 99 58 be cd 81 8c be f6 7e b0 3d
       -0.04514122 -0.21152282 -0.2744278 0.08617966
0000b0 cb 27 23 3f a2 a4 7a bf 84 86 f5 be 00 91 cf bd
       0.63732594 -0.9790746 -0.4795419 -0.101350784
0000c0 8a a8 37 3e 05 7d 96 be 8a 3b 05 3e 82 19 71 bf
       0.17935386 -0.29392257 0.13010994 -0.94179547
0000d0 c2 58 02 bf b1 36 57 3f 51 e7 2f 3f 4a e7 ce 3d
       -0.50916684 0.8406783 0.68712336 0.10102709
0000e0 38 e9 ef 3d 38 8e 16 be 00 50 75 bc ae 69 c7 bd
       0.11714405 -0.1470269 -0.014972687 -0.09736954
0000f0 88 96 1a 3f ce 2b c4 3e 9c ae 2e 3f 02 c0 14 3f
       0.6038594 0.3831467 0.6823518 0.5810548

fc2.weight f4 [64, 64]
000000 4e 18 e2 3d f4 db 21 bd 2c 15 21 3d bc 20 83 3d
       0.11039792 -0.039516404 0.03932683 0.06402728
000010 90 f2 e4 3d 75 04 44 3d bd 53 13 3e e7 49 42 3d
       0.111790776 0.047855813 0.14387412 0.04743376
000020 2e e1 7f 3d d0 50 a3 3c bf f1 80 3e b6 02 0b 3e
       0.062470607 0.019935995 0.25184438 0.13575253
000030 de 57 8b 3d 90 28 68 3c 1a 1e 72 3e 66 35 11 3e
       0.06803869 0.014169827 0.23644295 0.14180526
000040 b8 51 61 3e 6a 58 f4 3d f8 10 90 3a 75 1c 0f 3e
       0.2200383 0.11930926 0.0010991385 0.13975699
000050 49 8d 65 3d 8e c0 b3 bd 3c b0 15 3d 0d 36 56 bd
       0.056042943 -0.08776961 0.036545023 -0.05229764
000060 72 96 f0 bd 8e 94 ee 3d e8 84 8e 3d 30 6c 90 bc
       -0.11747445 0.11649428 0.069589436 -0.017629713
000070 af d1 d9 3d 1c 00 53 bd 8a da a8 3d c8 ee a5 bd
       0.10635697 -0.051513776 0.08244808 -0.081021845
000080 dc 74 ed 3d 81 a8 ca 3d a9 a1 13 3a dd 9a 12 3e
       0.11594555 0.09895421 0.0005631694 0.14316888
000090 97 1f 92 3c c8 e5 3d 3e 68 5e cf bd dc 1a 36 3c
       0.017837329 0.18544686 -0.101254284 0.011114802
0000a0 e8 92 a7 bc 76 62 b3 3d 98 7a d9 3d 60 6d 39 bd
       -0.020455793 0.08759014 0.10619086 -0.045270324
0000b0 b3 39 34 3c 7c e3 fe bd dc eb 62 3d b8 98 b5 bd
       0.011000085 -0.12445733 0.055400714 -0.088670194
0000c0 2e 5a de bc 9d d7 00 bd 20 2b 85 3e 64 65 f8 bd
       -0.02714261 -0.031455625 0.26009464 -0.12128714
0000d0 d0 0f 8f bc 30 49 c6 bc aa f1 97 3d 16 78 28 3e
       -0.017463595 -0.02420482 0.07419141 0.16452059
0000e0 53 9e 62 3e a2 fc b1 bd 00 5c 57 b9 0d 53 03 3d
       0.22130708 -0.08690764 -0.0002053827 0.032061625
0000f0 58 a0 06 3e 4c bc 14 3e c7 11 19 3e 1b 88 8e 3d
       0.13147104 0.14524955 0.14948188 0.06959554
000100 70 14 47 3c 3f 77 b8 bd 90 a7 18 3d b6 7d cf 3d
       0.012150869 -0.090071194 0.037269175 0.10131399
000110 00 b4 dc 3b 1e 74 1b be 24 80 d2 bc 27 9f b6 3c
       0.006735325 -0.15181014 -0.025695868 0.022292687
000120 c1 ee dc 3c f0 ff ab 3d 94 bd c7 3d ae 5e 90 3c
       0.026969315 0.083984256 0.09752956 0.017623272
000130 f4 b9 fb bd c0 41 75 3b b7 1f 60 bb b9 1f 19 be
       -0.12291327 0.0037423223 -0.003419859 -0.14953507
000140 74 3f 78 bd 2c 08 23 3c 56 ca 12 bd 84 a5 72 bd
       -0.06060739 0.009950679 -0.035837494 -0.05923988
000150 3d 3a 5b 3d 34 05 ae 3c 8f d0 b4 bd e5 98 a8 3d
       0.053522337 0.021242715 -0.08828842 0.08232287
000160 08 45 ab 3c 7b 82 94 3d 38 7d e8 3d 20 5a 0f bd
       0.02090694 0.0725145 0.113520086 -0.03499806
000170 e9 5b 5d bd f8 f5 ad bd 00 46 0a be 08 c6 8a bc
       -0.05404273 -0.084941804 -0.13503265 -0.016940132
000180 50 d7 0f bd 1f da e2 bd c6 e4 a8 bc 6b 92 81 bd
       -0.035117447 -0.110767595 -0.0206169 -0.06326755
000190 6a f2 a8 3d 04 4b 2f 3d 7a 50 c1 3d 15 38 18 bd
       0.08249362 0.04279615 0.09439178 -0.03716286
0001a0 72 d9 b8 3d c0 79 3a 3c 0a 0a 8e 3c b3 2c 66 3d
       0.090258494 0.0113815665 0.017338771 0.056194972
0001b0 f0 d8 3b bc c0 02 bf 3b b0 d9 38 3d f8 f6 57 bd
       -0.011465296 0.0058291852 0.045129478 -0.052725762
0001c0 41 17 b8 bd 53 38 48 bd d9 d6 56 bd fc 7c 60 3d
       -0.0898881 -0.04888184 -0.05245099 0.054806694
0001d0 40 46 9d 3d b5 97 1e bd 71 78 35 bd 1d 6e fc bc
       0.07679415 -0.038718898 -0.044304315 -0.030814225
0001e0 70 f5 25 bd 04 f3 03 3d e0 98 05 3c cf ce 55 bd
       -0.04051727 0.03221418 0.008154124 -0.05219918
0001f0 64 a1 85 3d 49 80 63 bd ae d3 98 3d be dd 8f 3b
       0.065249234 -0.055542264 0.0746225 0.0043904474
000200 ac f6 60 3d b2 4d f5 3d 20 2d bb bc be 43 c6 3d
       0.054922745 0.1197771 -0.022848666 0.096808895
000210 20 2d 52 3c 90 c4 e5 bd ce f8 82 bd 68 69 e9 bc
       0.012828141 -0.11219132 -0.06395112 -0.028492644
000220 76 b5 b7 3d 70 16 60 3d c0 f1 5f 3d 98 26 db 3d
       0.08970158 0.054708898 0.05467391 0.107007205
000230 a0 3f fc bc 08 21 44 3d fc 5a 50 bd 1c 68 06 bd
       -0.030792058 0.047883064 -0.05086802 -0.03281413
000240 82 9e b6 bd 80 33 14 3b fc ca f4 3d a4 15 27 3d
       -0.08916952 0.0022613704 0.11952779 0.040792122
000250 60 5e f0 bd 6a 6d f8 bd ba 66 97 3d b8 8b ff bd
       -0.117367506 -0.12130244 0.073926404 -0.12477821
000260 a4 b3 45 3d 00 fa 61 3a 90 77 04 3c 80 12 48 bd
       0.04826702 0.0008620322 0.008085147 -0.048845768
000270 d4 54 ed 3d fa e0 b8 3d 56 e3 ad bd 04 c4 2f 3d
       0.11588445 0.09027286 -0.084906265 0.042911544
000280 b8 e4 53 bd 04 11 3e 3d 3e 62 a3 bd 48 e4 d1 bd
       -0.051731795 0.046402946 -0.079777226 -0.10248619
000290 a0 26 5f 3c d0 ba 01 bd 44 83 b0 bd b4 25 01 3d
       0.013620049 -0.0316723 -0.08618787 0.031530097
0002a0 b0 c3 cc bc ac 7c 09 bd b6 2c ea bd ae bd f5 bd
       -0.024995655 -0.033566162 -0.11434309 -0.11999069
0002b0 10 cc 24 bc 8c 16 e7 bd 28 b2 e1 bd a0 d9 ad 3c
       -0.010058418 -0.11283597 -0.11020309 0.021221936
0002c0 da 6a ae 3d 30 b2 41 bc 2c 0b 7d 3d 40 3b 42 bb
       0.08516474 -0.011822268 0.061778232 -0.0029637367
0002d0 60 f5 94 bd f8 50 54 bd 7a b6 fc bd 40 3a 56 bd
       -0.07273364 -0.05183503 -0.12339492 -0.052301645
0002e0 8c 7b 2e bd cc 72 7a bd 00 dc b9 ba 20 52 87 3d
       -0.042598292 -0.061144635 -0.0014179945 0.06607461
0002f0 00 57 56 bc 90 77 d5 3d 40 1f a6 bd 90 b2 3e bd
       -0.013082266 0.10423195 -0.08111429 -0.04655701
000300 50 6a 04 bd ce 77 f7 3d 68 6e bf bc d8 24 f0 bc
       -0.03232795 0.12083398 -0.023368075 -0.029314443
000310 58 64 a3 bc 2c 50 80 bd 74 6d 01 3d 48 2a 87 3d
       -0.019945309 -0.062652916 0.031598523 0.065998614
000320 de ca c0 3d b6 ec 88 bd be f3 b3 bd 48 24 be 3c
       0.09413694 -0.06685774 -0.087867245 0.02321066
000330 60 f4 72 bc 9c db ff bd 54 d1 58 bd 22 50 90 3d
       -0.014828771 -0.12493059 -0.052934006 0.07046534
000340 24 b9 e3 3d 30 ee 82 bd 28 70 dd 3c 28 3d 3a 3d
       0.11119297 -0.06393087 0.02703102 0.04546848
000350 00 90 2b 39 ae f5 c1 bd 14 53 30 bd 14 6a d6 3d
       0.00016361475 -0.09470688 -0.04304798 0.104694515
000360 82 66 88 bd 78 f1 29 bd 68 6e 82 3d 30 8d 9f bc
       -0.06660177 -0.04149005 0.063687146 -0.019476503
000370 e8 f1 a0 bd 7a af 9a bd 10 db 00 bd e0 18 13 3c
       -0.0785864 -0.07553001 -0.031458914 0.008978099
000380 d6 d3 b4 bd 86 1b 82 bd 24 5f 26 bd 88 f4 fa 3d
       -0.08829467 -0.06352906 -0.040618077 0.12253672
000390 60 0b a4 bc 16 e8 eb 3d 68 b2 e4 3d 00 d9 3e ba
       -0.020024955 0.11518876 0.11166841 -0.00072802603
0003a0 28 89 32 3d 50 e8 05 3c c0 e0 13 3c b4 39 3c bd
       0.043587834 0.008173063 0.009025753 -0.045953467
0003b0 d0 8f fc bd f8 de ba bd 6e 14 d7 3d c0 d2 ec 3b
       -0.123321176 -0.09124559 0.105019435 0.007227272
0003c0 cc 8b 68 bd 76 b1 eb 3d ac db 68 3d 0c 4d e8 bd
       -0.056773946 0.11508457 0.05685012 -0.113428205
0003d0 b2 ee b0 3d 50 c3 7f bd 88 6a aa 3c 90 03 9b 3d
       0.086392775 -0.062442124 0.020802751 0.07569039
0003e0 78 75 dc 3c 6a bd 83 3d 80 a4 39 bb d8 e2 cf 3d
       0.026911482 0.06432612 -0.002832681 0.10150689
0003f0 80 38 10 bb c0 26 ae 3b 04 46 83 3d c0 8c 87 3c
       -0.0022006333 0.005314678 0.06409839 0.016546607

fc2.bias f4 [64]
000000 5d ec 4d 3a 99 f6 0a 3d a0 6a 1e bc 40 0f ef bd
       0.000785535 0.03392658 -0.009668976 -0.116728306
000010 b7 cc 8e 3d 60 46 0f bd ec 76 c5 bd 72 92 c8 3d
       0.0697264 -0.034979224 -0.09641823 0.09793557
000020 14 38 0e 3d 47 72 4a bb 80 d8 c5 3b b4 16 e0 bd
       0.03472145 -0.0030890869 0.0060377717 -0.1094183
000030 dc f2 73 bd d0 a0 e1 bd 76 c2 05 3e d7 94 45 3d
       -0.05955778 -0.11017001 0.13062462 0.048237648
000040 4e 47 e3 3d af 59 32 3e b4 f8 10 3e 18 1c 7c 3d
       0.11097585 0.17417024 0.14157373 0.06155023
000050 c8 87 79 bb ce fc 13 be ad 83 8e 3d c4 a7 de bd
       -0.0038075317 -0.14451906 0.06958709 -0.108718425
000060 26 04 19 bb 00 58 4e 39 65 a8 fe bd 98 8c 6f bd
       -0.002334842 0.00019678473 -0.124344625 -0.05848369
000070 41 c6 e4 bc c4 c1 b0 3d 3d 81 1d be 6d fe 6e 3d
       -0.027926566 0.08630708 -0.15381332 0.058348108
000080 7e a4 3a 3d 84 1a 65 bd ee 3b f2 3d 1f 35 02 bd
       0.04556703 -0.05593349 0.11827837 -0.03178894
000090 fd 10 73 bd 1f ef ed 3d 08 24 a1 bd 0c ed 15 3d
       -0.059342373 0.11617874 -0.078682005 0.03660302
0000a0 d6 9a f1 3d 56 b0 84 3d b8 11 a9 bc 48 65 ec 3c
       0.11797111 0.06478946 -0.020638332 0.028856888
0000b0 bf 9a 13 3d 97 40 be 3d 24 3c 74 3d 48 77 45 bd
       0.03603625 0.09289663 0.059627667 -0.04820946
0000c0 f4 f7 95 3c 77 49 09 3d 16 31 ae bc 78 e9 de 3c
       0.01830671 0.033517327 -0.02126364 0.027210936
0000d0 db de bb bc 87 8d 17 3e 24 e0 c3 3c 03 4a d3 bd
       -0.022933414 0.14800082 0.02391059 -0.10316851
0000e0 9f a2 1e 3e 9c f6 1b 3c 0c 06 bd bd c2 b3 92 bd
       0.15491723 0.0095192455 -0.09229669 -0.07163192
0000f0 67 f0 b0 bc 00 d4 8c bc 5a d8 f8 bd 8f 4b 0c be
       -0.021599008 -0.017190933 -0.12150641 -0.13700698

fc3.weight f4 [64, 64]
000000 6d 28 87 bd 20 d2 bd 3c 24 e8 c9 bd 24 28 b3 bd
       -0.065995075 0.023171484 -0.098587304 -0.087478906
000010 00 41 07 3c 00 7e 92 3d 02 86 fc bd 16 16 97 3d
       0.008255243 0.07152939 -0.123302475 0.073772594
000020 90 86 78 3c 2f 2d b2 bd 14 8d 94 bd c0 5a d8 bb
       0.015168801 -0.08700024 -0.07253471 -0.006602615
000030 14 31 27 bd 22 dc b5 3d 42 de 9e bd 3f d1 aa bd
       -0.04081829 0.088798776 -0.07757236 -0.08340692
000040 62 5a d2 3d ba 9d 12 be ef 2e 69 3d be 32 96 3d
       0.102711454 -0.1431798 0.056929525 0.07333897
000050 77 2c 13 be 58 9e 11 be fd 73 85 bd 32 74 fd 3d
       -0.1437243 -0.1422056 -0.06516264 0.12375678
000060 60 b7 45 3d fa dc b5 bd 26 38 7e bc 40 ea 1b 3b
       0.048270583 -0.088800386 -0.0155163165 0.0023790747
000070 c0 39 fb bd c4 a7 30 bc dd 4a 12 be d7 a7 3c bd
       -0.12266874 -0.010782186 -0.1428637 -0.046058502
000080 5f dc fc 3c c0 f0 84 bd 2c cf ee bd 6a b3 a8 3d
       0.0308668 -0.06491232 -0.11660609 0.082373455
000090 5a fc ee 3b 05 1b a4 bc 98 2c d8 bc 21 27 8a bd
       0.0072932662 -0.020032415 -0.026388451 -0.067457445
0000a0 b4 ae 27 bd 33 57 ef bd 66 71 c4 bd 22 a4 c3 bd
       -0.040938094 -0.11686554 -0.095919415 -0.0955279
0000b0 f5 b5 46 3d 60 61 c3 3c 65 16 ed bc a8 55 84 bc
       0.04851337 0.023850143 -0.028941343 -0.016154125
0000c0 f3 a2 ce 3d f6 66 8d 3d cc 19 ac bd 80 11 ff 3c
       0.10089674 0.06904404 -0.08403358 0.031136274
0000d0 60 fd 4e 3c f9 88 2f 3d c9 e3 22 3c 06 9e ac 3d
       0.0126336515 0.042855237 0.0099420035 0.08428578
0000e0 71 55 0e 3d 08 ce 0e bd 4c d7 4c 3d fd 1e 9f bc
       0.034749452 -0.034864455 0.05001001 -0.019423956
0000f0 60 c3 9c 3d 82 90 c7 3d 60 3c 3a bc 0f af c5 3b
       0.07654452 0.097443596 -0.011366934 0.0060328315
000100 5f 46 1a 3d f3 e9 9c bb 84 72 89 3d 7c 0f 10 3d
       0.037664767 -0.004788631 0.06711295 0.035171017
000110 70 dc 8b bd b0 68 d2 3d bc 0c 89 bc 90 8d c5 3d
       -0.068291545 0.10273874 -0.016729705 0.096461415
000120 d4 5f 9b bd 1d b1 a0 3a b2 13 e0 bd 42 f4 ca 3d
       -0.07586637 0.0012259815 -0.109412566 0.0990987
000130 a4 fe 99 bd 8a b4 eb 3d dd 62 5b 3d 51 86 15 bd
       -0.07519272 0.115090445 0.05356108 -0.036505047
000140 80 81 27 3c 2d b9 0b be be a8 18 3d e1 e4 05 be
       0.010223746 -0.13644858 0.0372703 -0.13075592
000150 1f 9a f1 3c 49 ae de 3d 2f ff b5 3d f2 e3 d2 3d
       0.029492436 0.10873086 0.08886563 0.10297383
000160 37 a3 c5 bd 6c 44 c6 3d cc e2 ed 3d e4 4e 8f bd
       -0.096502714 0.09681019 0.11615524 -0.06997469
000170 f8 94 e1 bd 69 78 df 3d d0 a2 d4 bd fc 9a 26 3d
       -0.11014742 0.10911638 -0.103826165 0.04067515
000180 27 7c bd bd e6 1f d1 3d d6 9a f2 bd a0 93 51 bc
       -0.09252196 0.10211162 -0.11845939 -0.012791544
000190 a4 47 07 3d 8b 39 9e bc ea 31 af bd 12 80 f3 bc
       0.033027306 -0.019314548 -0.08554442 -0.029724155
0001a0 f9 f1 57 bd 7a d0 5b 3c 60 63 e3 3b e0 7e ce bd
       -0.052720997 0.013416404 0.0069393367 -0.10082793
0001b0 e2 9b ac bd 6e 42 b1 3d 7c f4 7b 3d 74 79 b3 3d
       -0.0842817 0.086552486 0.061512455 0.087634
0001c0 c1 1f 9e 3c 46 0f 6e 3d 90 29 6b 3d b8 72 9e 3d
       0.01930225 0.058120035 0.057412684 0.077367246
0001d0 4b 66 10 3d 3f f6 b0 bd 88 77 a3 bd 42 c1 33 3d
       0.035253804 -0.08640718 -0.07981783 0.043885477
0001e0 da b7 57 3d 66 a5 83 3d 88 52 7c 3d 75 8e ed 3d
       0.05266557 0.064280316 0.061602145 0.11599437
0001f0 de 42 61 3d 08 1f 33 bd 82 15 c9 3d 63 4e f5 bd
       0.05499541 -0.043730766 0.098185554 -0.11977842
000200 e0 25 1c be fe d2 1a 3e 7c 02 e3 bd d0 8b 4e bc
       -0.15248823 0.1511955 -0.11084458 -0.012606576
000210 89 37 ff bc 7a 87 ef 3d 8e 26 14 3d 98 6c e2 bd
       -0.03115441 0.11695762 0.03616958 -0.11055869
000220 70 5f 88 bc c5 44 29 3d a8 4d 8a 3d a0 7d ef bb
       -0.01664707 0.04132535 0.06753093 -0.007308677
000230 7c 62 dc 3d fa 9c 8e bd 09 1b 26 39 32 4a 09 3e
       0.10760972 -0.06963535 0.00015841065 0.1340721
000240 80 3b fd ba 85 86 2f 3e 63 bc e4 bc 43 c6 28 3b
       -0.00193201 0.17141159 -0.027921861 0.0025752939
000250 99 52 c0 bc 29 92 73 3d 5b 1e 2e 3d a6 f6 f6 bd
       -0.023476886 0.05946556 0.042509418 -0.12058763
000260 8a 27 cc 3d 90 e6 cd bc 5d 8e 98 3d 28 eb ab 3c
       0.09968479 -0.025134355 0.07449029 0.020986155
000270 01 51 d2 3d f9 96 bb 3c 93 e6 54 3d 76 9f 48 3e
       0.102693565 0.022899138 0.051977705 0.1959208
000280 97 5c e5 3d b0 b5 16 bc f6 18 c5 3d 34 74 f3 3d
       0.11199301 -0.009198591 0.096239015 0.11887398
000290 e4 6a ca bc b5 26 64 bd fe 47 85 bb 80 d9 3c 3e
       -0.024709173 -0.055700976 -0.00406742 0.18442345
0002a0 f1 d0 16 3e 0b 36 9a bb 7a c2 a5 3d dc 63 20 3d
       0.14728142 -0.0047061495 0.08093734 0.039157733
0002b0 16 70 03 3e ec 29 71 bd c7 f5 9d 3d 1a ca b4 3d
       0.12835726 -0.05887787 0.07712894 0.0882761
0002c0 ea 68 9c 3c de b6 dd 3d 8e 45 c1 3d 00 09 1d bd
       0.019092996 0.10825895 0.09437095 -0.03833866
0002d0 78 23 60 3d 7d 32 d2 3d 4f f0 33 3e c5 07 07 bd
       0.054721326 0.10263536 0.17572139 -0.032966394
0002e0 e0 d6 84 3c 9f 30 21 3e 8e 7c ae bd e6 40 b3 3d
       0.016215742 0.15741204 -0.08519851 0.08752613
0002f0 d0 72 9e 3d a0 e1 e3 bd 84 b0 92 3d 60 45 92 3d
       0.077367425 -0.11127019 0.07162574 0.071421385
000300 5c 21 3b be 16 ca 93 3d 00 82 19 3b 16 99 9c bd
       -0.18274444 0.07216279 0.0023423433 -0.07646386
000310 2f 62 f2 3d 70 61 2c bb e7 87 ac bd 16 c6 e2 3d
       0.11835133 -0.0026303194 -0.08424359 0.11072938
000320 38 c4 e2 3d a0 aa eb 3c c0 1a 3f bc 40 2e e6 bd
       0.11072582 0.028767884 -0.011664093 -0.1123929
000330 00 bc 34 3a 48 0b 2d bd 50 d0 a1 3d e9 f4 16 3d
       0.0006894469 -0.042247087 0.079010606 0.03685466
000340 f0 65 67 bd a1 3b ac bc 48 53 3b bd 4f bc 5f bc
       -0.0564937 -0.021024527 -0.04573372 -0.013655736
000350 a2 8e a5 3d e1 fb 3c 3d ab 9a 7e bd fa b4 99 bd
       0.08083846 0.046138648 -0.06215922 -0.07505222
000360 ad ce 56 bd c4 6b 41 3d 52 6c bd 3a 10 07 5f 3d
       -0.052443195 0.047221914 0.0014451838 0.054450095
000370 75 e7 a4 3d fd 20 54 3b 5a 85 90 3d 8c c3 e1 3d
       0.080519594 0.0032368295 0.07056685 0.11023626
000380 0e b2 0f bd 8c 64 ba 3d 9a e9 d0 bd 6f c4 a3 bc
       -0.035081916 0.09101209 -0.10200806 -0.019991128
000390 bd 96 b9 bc 62 06 e8 bb 22 9e 39 3c 18 be 82 3d
       -0.022654885 -0.007080839 0.011329206 0.06383914
0003a0 0c 41 78 bc d2 20 8e bd 80 ad 29 bd 10 71 21 bd
       -0.015152227 -0.06939854 -0.041425228 -0.039414465
0003b0 d9 c5 41 3d 7d 71 85 bd 78 e8 90 3b 80 83 16 3b
       0.047307823 -0.06515787 0.0044222437 0.0022966564
0003c0 02 92 64 3d e8 92 09 bc e7 9f c3 bd 5a 2d ab 3d
       0.055803306 -0.008396842 -0.09551983 0.083582595
0003d0 3e ec 91 bd 7f 98 82 bc 39 82 e1 bd f8 ba 5f 3d
       -0.07125138 -0.015941856 -0.11011166 0.054621667
0003e0 38 5e 5e 3c 23 f4 b7 3b 98 77 ec 3d 3e 51 e1 bc
       0.013572268 0.00561382 0.11546248 -0.02750456
0003f0 08 73 0d be ec 87 9c bd c6 60 9c 3d fc 9c be bd
       -0.13813412 -0.076431125 0.076356456 -0.09307286

fc3.bias f4 [64]
000000 6e ca 56 bc 40 6d 46 3c d4 3a 18 3e ff 54 da bd
       -0.013109786 0.012111008 0.14866191 -0.10660743
000010 88 f3 bc bc c2 79 d9 3d 0f 59 3d 3c e4 2c ec 3d
       -0.023065343 0.106189266 0.011556878 0.11532
000020 b0 c5 48 bd dd bf e0 3c b4 fa d8 bd af 51 ad 3d
       -0.049016654 0.027435238 -0.10594693 0.084628455
000030 30 b2 5d bd 0e 2f c2 3d a8 7c 98 bd e0 55 eb bc
       -0.05412501 0.09481631 -0.07445651 -0.028727472
000040 c7 bf 72 3d a6 17 bd bd ec 74 55 bd 64 4a 0e 3e
       0.059264924 -0.09233026 -0.05211346 0.13895565
000050 94 e4 07 be 6a c6 ca b9 09 0f 94 3c fe 9e 4c 3d
       -0.1327079 -0.00038676272 0.018073576 0.049956314
000060 e2 5a 0f bd 83 6a 53 3e d7 cb dd 3d 80 76 80 3c
       -0.034998782 0.206461 0.10829895 0.015681505
000070 00 22 8d 3e bd d6 98 bd a0 d8 df bd ab 4f d6 3d
       0.27565002 -0.07462833 -0.1092999 0.10464414
000080 51 3f 99 3c 1b df 79 3d 36 7b 9f ba 64 fe db bd
       0.01870695 0.061003786 -0.0012167457 -0.107418805
000090 32 15 a1 bd 1e 76 1d 3e c4 6f 15 bd 93 5e 00 3e
       -0.07865371 0.1537709 -0.03648354 0.12536077
0000a0 29 61 48 3c d4 12 3c 3d 21 be 0a bd ad b6 18 bd
       0.012230196 0.045916393 -0.033872727 -0.03728359
0000b0 66 63 bd bd db ec 6c bc 24 7b 8c 3d ac 92 23 3e
       -0.09247474 -0.014460768 0.06859425 0.1597392
0000c0 80 08 c9 bc 12 9b ac bc e8 56 96 bd 3a f9 cd bc
       -0.024540186 -0.021070037 -0.07340795 -0.025143255
0000d0 dc 4a 3d 3d 95 60 31 3e 1f 86 0b 3e a8 cb e3 3d
       0.04621397 0.17322 0.13625382 0.11122829
0000e0 20 1c ba 3c c8 04 8f bd 42 c2 95 bd ba 13 14 3e
       0.02271849 -0.06983334 -0.07312442 0.1446065
0000f0 98 80 21 be f2 e1 ef bd 20 da a5 3c 8a de 3a 3e
       -0.15771711 -0.117130175 0.020245612 0.18248954

mean_fc.weight f4 [4, 64]
000000 77 f7 69 3d 92 4d 44 3d 22 a1 29 be 91 b7 0f be
       0.057120766 0.04792554 -0.16565374 -0.14034869
000010 61 77 cf 3d b4 4d ba 3d e4 80 73 bd 8b 92 a1 3d
       0.101301916 0.09096852 -0.05944909 0.07889279
000020 22 9d ef bd 33 8d b7 bd b6 8a e8 bd d6 ab f4 bd
       -0.116998926 -0.089624785 -0.11354582 -0.119468376
000030 8c 2f 5a bd 88 e0 5f bd ac b7 cd bd 58 4e bd 3c
       -0.053268 -0.05465749 -0.10044798 0.023108646
000040 a8 67 28 3e af 35 a7 bd de f6 82 bd c3 77 02 be
       0.16445792 -0.08164536 -0.063947424 -0.12740998
000050 36 0e 03 3c 74 c7 38 bd 38 91 8c 3d cb 1f 1d be
       0.007998994 -0.04511209 0.06863636 -0.1534416
000060 f0 c9 25 be e2 fc 82 3e 7f 2f 14 3d 00 4a 43 ba
       -0.16190314 0.2558356 0.03617811 -0.00074496865
000070 c3 c4 a0 3e bc a5 ca bb 58 a4 c0 bd 86 bb 8a bd
       0.31400117 -0.006184308 -0.09406346 -0.067740485
000080 f6 f8 ed 3c da 74 cf 3c 7c a9 fe bd c0 15 02 3d
       0.029049378 0.025324274 -0.1243467 0.031759024
000090 ff ba cf 3d 77 45 f7 bd a0 37 5d bd e1 56 99 bd
       0.101430885 -0.12073796 -0.054008126 -0.07487274
0000a0 a0 a9 3f 3d f0 d1 46 bc 1c 28 09 bd 29 84 25 be
       0.046792626 -0.012135014 -0.033485517 -0.16163696
0000b0 c0 9f 18 be 34 59 60 bd 68 97 e0 bc d3 7f 28 be
       -0.1490469 -0.05477257 -0.027415946 -0.16455011
0000c0 28 7d 2d bd 56 90 94 3d c0 14 6e bd 07 ec 42 3d
       -0.042355686 0.072540924 -0.058125257 0.047588374
0000d0 f0 46 cd 3c 3f 5e 10 be a4 7b 83 3e 5f 55 ef 3d
       0.02505824 -0.14098452 0.25680268 0.11686205
0000e0 e5 f1 ab bd b9 36 92 3d 47 02 59 bd 9e fe f0 3d
       -0.08395747 0.07139344 -0.052980687 0.117673144
0000f0 82 0d 19 bd ac ae 78 3d 66 45 83 bd f6 bc 8c 3e
       -0.037366398 0.060713455 -0.06409721 0.27487916
000100 d7 c4 59 3d f1 1f 9f bd 91 a3 23 3d a7 be 4b bd
       0.053166237 -0.07769764 0.03995091 -0.049742367
000110 f2 ca 81 bd d0 d2 9c 3d f7 f7 c8 bc f2 df ec bd
       -0.06337537 0.07657397 -0.024532301 -0.11566152
000120 11 3d 04 be 4e 2b ef bd d2 8a b0 bd 54 03 8f 3c
       -0.1291392 -0.116781816 -0.08620228 0.017457642
000130 04 a9 55 bd 32 71 a6 bd e4 53 7f 3d 70 fe 9c bc
       -0.05216314 -0.08127059 0.062335864 -0.019164294
000140 b7 93 7e 3d 94 4b 6a bd 13 9a fd bd c5 2c d8 bc
       0.06215259 -0.057200983 -0.12382903 -0.026388535
000150 1c 3c 08 3d 21 49 1b 3d 06 64 88 bd 1b fc f1 3c
       0.03326045 0.037911538 -0.06659703 0.029539159
000160 6f b2 ab bd ea 55 f7 3d 08 19 cb 3c f0 a5 a9 3c
       -0.08383643 0.12076934 0.02479221 0.020709008
000170 8a c7 7f 3e 14 17 87 3d 00 b3 2c 3b b5 04 d9 3c
       0.24978462 0.06596199 0.002635181 0.026491502
000180 9c 60 82 3d 1b bc df bb 89 62 21 3d a0 61 ff 3b
       0.06366083 -0.006827844 0.03940061 0.00779362
000190 a4 9f bc bc 8a 8e 13 3c fb 62 b1 3d b3 5f e5 bd
       -0.023025341 0.009006152 0.08661457 -0.11199894
0001a0 61 3e 3c 3e d6 d7 df bd f5 e6 08 be 53 83 95 3d
       0.1838317 -0.10929839 -0.13369353 0.07300439
0001b0 d5 4d 81 bd 17 71 42 3d 66 55 9a bd 4a 8a cd bd
       -0.063136734 0.047471132 -0.0753582 -0.10036142
0001c0 3a 40 da bd c2 93 21 3e cc 3f 80 bd e5 8e 9c bd
       -0.106567815 0.15779021 -0.06262168 -0.076444425
0001d0 eb 95 00 be 5c 10 43 bd 2d b9 50 3b b2 a4 1d 3e
       -0.12557189 -0.047623023 0.0031848655 0.15394858
0001e0 23 f0 02 be b3 52 1a 3e 05 7c a9 3d eb 63 e1 3d
       -0.12786917 0.1507061 0.08275608 0.11005386
0001f0 dc 52 a0 3d 4f a9 b5 3d 44 d8 52 3d 50 0a 7b 3e
       0.07828304 0.08870184 0.05147578 0.24515653
000200 0d 7d 1e 3d 68 1b 60 bd 29 99 82 3a 6e 4d d0 bd
       0.038693476 -0.054713637 0.0009963858 -0.101710185
000210 fb cd 46 3b 1a 50 af 3d a5 d2 08 bd 4a 55 b0 3d
       0.0030335176 0.085602 -0.03340401 0.086100176
000220 87 43 ec 3c c3 c5 a2 3d 60 2b ee bc cc 80 01 be
       0.028840793 0.07947876 -0.029073417 -0.12646788
000230 58 85 e2 3c 89 d7 4d bd 98 05 d3 bd 42 2b ee bd
       0.027651474 -0.05025438 -0.10303801 -0.116293445
000240 b2 fe 5f 3e 3f 5d f5 bb d6 5e ac bd a6 ce 95 3d
       0.21874502 -0.0074879224 -0.08416526 0.07314806
000250 43 bd bb 3c be ed 6a 3d 83 b1 a0 bd b1 1a e5 bd
       0.022917395 0.057355635 -0.07846358 -0.111867316
000260 02 53 98 bd ff de a3 3d 98 2f cc 3d 88 a3 2b bd
       -0.074377075 0.080015175 0.09970015 -0.041904002
000270 2b 3e 88 3a 13 56 95 bd 8e 27 8e 3d cf db 3d 3d
       0.0010394504 -0.07291808 0.06941138 0.046352204
000280 84 66 03 3d b4 dc 25 bd 13 8b 8b bd a4 51 bd 3d
       0.03208019 -0.040493682 -0.06813636 0.09244087
000290 ad 4f d2 bc 60 b9 2a bd 5e 24 e6 3c 86 5f 73 bd
       -0.025672758 -0.041680694 0.028093513 -0.05941727
0002a0 7b f0 35 be 92 4c dd 3d 66 8a d0 bd 2e 78 00 bd
       -0.17767517 0.1080562 -0.101826474 -0.031364612
0002b0 72 c2 02 be 98 f8 cb 3d c2 8a 7a 3d ee 1c 3b 3d
       -0.12769488 0.09959525 0.061167486 0.045681886
0002c0 70 c5 98 bd 2b 34 0f 3e 56 b4 d7 3d 7e 42 76 bd
       -0.07459533 0.13984744 0.10532443 -0.060122006
0002d0 cd 85 f8 bd e5 b3 1c bd 55 a1 c4 3d 68 1b 7f bd
       -0.121348955 -0.0382575 0.09601084 -0.062281996
0002e0 27 7a 17 3d 6b 38 19 be 05 25 61 bd 3d fd ed bd
       0.036981728 -0.14962928 -0.054966945 -0.11620567
0002f0 54 6f 20 3d ef 76 a7 3d 8c 96 e6 bd 01 90 10 3e
       0.03916867 0.08176982 -0.11259183 0.14117433
000300 65 c3 bb 3c 55 b8 89 bd f9 aa 2c be 13 e2 a5 3d
       0.02292032 -0.06724612 -0.16862096 0.08099761
000310 87 3d db 3c 48 64 84 bd 14 c6 a9 bd 40 01 1d be
       0.026762737 -0.0646444 -0.082897335 -0.15332508
000320 88 48 0c be 79 9d a8 bd c0 fb e4 3b 91 3b 1d be
       -0.13699543 -0.082331605 0.0069880188 -0.15354754
000330 f0 be 77 bc 69 9e 61 3b 98 7c 36 bd 10 6e 04 3c
       -0.015121207 0.0034426695 -0.044552416 0.008082882
000340 c3 1e d2 3b 29 1a 2a 3d 26 0c 29 3d fe 90 92 bd
       0.0064123585 0.041528855 0.04127135 -0.07156561
000350 23 fd 9a 3d 41 ff 78 bd 7b 93 a1 bd ef ee 6b bd
       0.07567813 -0.060790304 -0.07889458 -0.05760091
000360 77 98 de 3c 80 97 a5 3d 6e 22 da bc f4 14 c7 bd
       0.02717231 0.08085537 -0.026627745 -0.09720793
000370 b2 4b 32 3e a4 b5 ff 3d 5e e0 b7 3d b5 75 27 bd
       0.17411688 0.12485817 0.089783415 -0.04088374
000380 96 b3 ec 3d a5 bf be bd d1 f5 b7 bd 88 7a ed 3c
       0.11557691 -0.09313897 -0.08982433 0.028989092
000390 f3 2f 80 bb 24 48 2e be 28 53 30 bd cc 97 31 be
       -0.003911966 -0.17019707 -0.043048054 -0.17343062
0003a0 a9 15 a3 3d 60 56 f2 bc 06 3a 3a be 4d 45 37 be
       0.07963116 -0.029582202 -0.18186197 -0.1789753
0003b0 ec 6b 69 bd a1 55 44 3d 3f 88 f0 3d a1 fc de bb
       -0.056987688 0.047933225 0.11744737 -0.006805018
0003c0 90 08 1a 3c f4 8d 81 3c 40 1a 01 bd 2d b7 0a 3d
       0.0094014555 0.015814759 -0.031519175 0.033866096
0003d0 7b e0 c4 bd de 6e 52 bd ea 11 94 3d 05 b3 b2 bc
       -0.09613129 -0.051375262 0.07229979 -0.021813879
0003e0 15 52 a2 3c b4 b0 91 bd 4f 97 0c be 04 8d f7 3c
       0.01981453 -0.071137816 -0.13729595 0.030218609
0003f0 e6 e2 82 3d ae 13 98 3c a0 89 8a 3c de d3 9d bd
       0.06390934 0.018564072 0.016911328 -0.07706426

mean_fc.bias f4 [4]
000000 9f 2b 7a bb 69 17 91 3b 6b 5e d5 3d 42 af 1f 3c
       -0.0038172973 0.0044278395 0.104183994 0.009746375

var_fc.weight f4 [4, 64]
000000 f4 6c 80 3d e4 00 69 3e 1d 0f 7a 40 c9 f5 60 40
       0.06270781 0.22754246 3.9071724 3.5150015
000010 92 24 36 3e 6c c2 8f 3d 5c a3 7c 40 b2 26 49 40
       0.17787388 0.07019505 3.9474707 3.1429868
000020 fd cf 76 40 42 8b 6e 40 4c 4c 67 bd ee b6 69 40
       3.8564446 3.7272496 -0.056469247 3.6517901
000030 00 a9 17 bd a6 b5 62 40 9c 48 b3 bd 98 73 a7 bc
       -0.037026405 3.542337 -0.087540835 -0.020440862
000040 5d ce 80 40 71 d5 30 3d 7a 4f 53 40 17 4a 81 40
       4.025191 0.043172304 3.3017259 4.040294
000050 cb 55 88 3d 1b a4 3c 3e 9d 2d d2 3e 12 aa 5e 40
       0.06656989 0.18421976 0.41050425 3.4791303
000060 90 15 67 40 94 be d4 3f 01 91 52 3d 44 27 f7 bd
       3.610691 1.662066 0.051407818 -0.12068036
000070 fa 9c d3 3f d2 2e 95 bd 54 e7 24 bd 55 af c9 bd
       1.653228 -0.07284321 -0.040259674 -0.09847895
000080 f8 51 93 3d 08 d8 c3 3e 51 75 5a 40 14 0b f6 3d
       0.07193369 0.38250756 3.4134104 0.12013832
000090 6a 2a 9e 3e e9 a8 7d 40 cb 0c 5a 3e a9 fa 79 40
       0.30891734 3.9634345 0.21293943 3.905924
0000a0 cb 32 3e 40 9c f5 a4 bd e2 68 70 40 b9 e6 6a 40
       2.9718502 -0.08054659 3.7564015 3.6703322
0000b0 78 ad 6c 40 b5 50 e9 3d fc ea 3a bd 70 6a 7a 40
       3.6980877 0.11392347 -0.045634255 3.9127464
0000c0 50 b8 d3 3c 92 df 73 40 58 94 3f bd 77 fa bd 3e
       0.025844723 3.8105206 -0.04677233 0.37105152
0000d0 6e 38 ca 3e d9 f6 74 40 d8 d5 ef 3f 59 0f 26 3f
       0.39496177 3.8275664 1.8737135 0.6486717
0000e0 01 29 86 40 9b 8c 4f 40 ca 92 59 40 b0 d5 56 40
       4.1925054 3.2429569 3.3995843 3.3567924
0000f0 6a c6 dd bd 37 6c 9d 3e f4 de f0 bd 85 1b dc 3f
       -0.1082886 0.30746624 -0.11761275 1.7195898
000100 5d 9c da bd 5b e0 86 3e a9 79 7e 40 63 02 64 40
       -0.10674355 0.26343045 3.9761755 3.5626457
000110 b3 4e 4c 3e 88 76 23 bd 19 27 74 40 8f 01 3c 40
       0.19951896 -0.039907962 3.8148863 2.9375951
000120 97 d8 72 40 bb f1 76 40 f0 61 63 3d b0 58 6a 40
       3.7944696 3.858504 0.055513322 3.661663
000130 fc 4d 08 bd 37 a8 70 40 2c 1b bf 3d e8 4a d4 bd
       -0.033277497 3.760267 0.093313545 -0.1036585
000140 24 7e 83 40 72 aa 95 3d e1 4f 57 40 07 99 80 40
       4.109148 0.073079005 3.3642504 4.01868
000150 a4 19 00 3e b7 29 11 3e 53 74 19 3e d2 8d 58 40
       0.12509781 0.14176069 0.1498578 3.383656
000160 4f 36 5e 40 62 ff e3 3f a0 09 1d bd 14 46 0e 3d
       3.4720647 1.7812312 -0.038339257 0.0347348
000170 a8 e6 e0 3f b6 22 ba bd 08 15 36 3d d4 85 93 3d
       1.7570391 -0.09088652 0.04445365 0.0720326
000180 48 91 55 3d 88 43 ca 3e 38 f8 57 40 b4 d5 bc 3d
       0.052140504 0.39504647 3.374525 0.09220448
000190 80 a6 97 3e 5d 8d 76 40 f5 03 54 bc 7f 58 7f 40
       0.29619217 3.8523781 -0.012940397 3.9897764
0001a0 fa 90 42 40 8e 37 d9 3d 18 6f 6e 40 5b 5a 6d 40
       3.0400987 0.10606299 3.7255306 3.7086399
0001b0 e2 4e 69 40 0c e4 f5 bb 5d 24 8b bd b8 f4 83 40
       3.6454396 -0.007503992 -0.06794045 4.123623
0001c0 90 4c 68 3c 02 81 6d 40 e2 aa b4 bd 89 10 7d 3e
       0.01417841 3.710999 -0.08821656 0.24713339
0001d0 d8 1f 79 3e d5 f5 79 40 a2 3f 00 40 ac 16 38 3f
       0.24328554 3.9056294 2.0038838 0.71909595
0001e0 29 8e 89 40 92 25 4c 40 87 3b 62 40 b3 23 59 40
       4.2986035 3.189793 3.5348833 3.392804
0001f0 a5 50 fa 3d 14 72 52 3e d0 e1 e4 bc 41 3e f5 3f
       0.12222413 0.2055133 -0.027939707 1.9159623
000200 e1 9e b9 3c 6f cd 7d be 1a d8 67 c0 89 9e 5c c0
       0.022658767 -0.24785398 -3.6225648 -3.4471762
000210 20 58 b6 bd 22 88 ff bd b4 d1 73 c0 d9 6b 28 c0
       -0.08903527 -0.12477137 -3.8096743 -2.6315825
000220 0b d4 76 c0 36 b8 72 c0 ec 2a 5a 3d 05 38 6a c0
       -3.856692 -3.7924933 0.05326359 -3.6596692
000230 00 67 5b 3a 2f 13 5b c0 10 63 f5 bc e0 20 c3 bb
       0.0008369535 -3.4230459 -0.029954463 -0.0059548467
000240 a7 cd 7f c0 37 ca 80 bd f4 15 53 c0 13 65 71 c0
       -3.996927 -0.062885694 -3.298215 -3.771794
000250 5d 22 fc bd ab 7c 18 be 04 f1 35 bd 1c d5 56 c0
       -0.12311242 -0.14891307 -0.044419304 -3.3567572
000260 c5 b9 4b c0 90 80 df bf 14 d9 26 bd 7e 46 86 3d
       -3.1832135 -1.7461109 -0.040734366 0.06556414
000270 62 73 f3 bf 75 45 64 bd e4 db 41 3d 0f eb 95 bd
       -1.9019587 -0.055730302 0.047328845 -0.073202245
000280 04 10 88 bd 01 2a 93 be e0 7d 58 c0 48 4c 9a 3d
       -0.0664368 -0.28742984 -3.3826828 0.07534081
000290 a2 d2 37 be 7d 2c 6b c0 ea 73 5d bd 9b c5 77 c0
       -0.17951444 -3.6745903 -0.054065622 -3.8714359
0002a0 b9 60 39 c0 3a f7 f5 bd 99 b0 60 c0 d1 ea 6f c0
       -2.8965285 -0.12010045 -3.5107787 -3.748707
0002b0 ce 4a 65 c0 65 b4 41 3d de e3 1e bd bf e7 70 c0
       -3.5826907 0.04729118 -0.03879153 -3.7641447
0002c0 9a 9b 86 3d a9 55 72 c0 f0 a3 ea bc 61 c2 4b be
       0.065726474 -3.7864783 -0.028642625 -0.19898368
0002d0 3b 6e 88 be f9 1c 6f c0 02 1e f5 bf c3 9f 43 bf
       -0.266466 -3.7361434 -1.9149783 -0.7641565
0002e0 36 95 85 c0 f4 55 3d c0 1f 84 52 c0 89 6e 4f c0
       -4.174464 -2.9583712 -3.289314 -3.2411215
0002f0 02 76 18 3d 24 87 61 be e8 eb ca 3c 93 dc f5 bf
       0.037221916 -0.22024208 0.024770692 -1.9207939
000300 ee aa 09 be 01 82 9a be c8 32 62 c0 4c 08 54 c0
       -0.13444111 -0.3017731 -3.5343494 -3.3130064
000310 1f fc 64 be 00 95 bc 3a f8 ed 72 c0 da ca 48 c0
       -0.22361802 0.0014387667 -3.7957745 -3.137381
000320 c5 b3 6f c0 cb 7b 69 c0 88 a5 cb bd 88 67 60 c0
       -3.7453473 -3.6481807 -0.09943682 -3.506319
000330 62 e2 a4 bd e0 85 65 c0 74 94 49 bd 88 45 24 3d
       -0.080509916 -3.586296 -0.04921384 0.040105373
000340 7c 93 67 c0 c2 3f 8c bd fe f0 4b c0 06 5b 7b c0
       -3.6183767 -0.06848098 -3.186584 -3.9274306
000350 d5 80 84 bd 97 18 00 be 55 91 b0 be 18 1b 4b c0
       -0.06469885 -0.1250938 -0.3448588 -3.1735287
000360 17 8f 50 c0 c5 19 db bf 8e 5c 80 bd 20 49 71 bd
       -3.2587335 -1.7117239 -0.062676534 -0.058907628
000370 7d de d5 bf 5f 0b 4f 3d 8c 0f 34 bd d7 f3 c1 3d
       -1.6708523 0.050547954 -0.04396014 0.09470337
000380 e8 63 f7 bd 93 c9 f6 be 6c 07 55 c0 10 58 f6 bc
       -0.120796025 -0.48200664 -3.328578 -0.030071288
000390 c7 ac 55 be bf 56 6b c0 fa 71 5b be 9b 31 73 c0
       -0.2086669 -3.6771696 -0.21430197 -3.7999027
0003a0 3e 9d 4c c0 cc e7 e5 3d 53 97 65 c0 b5 dd 65 c0
       -3.1970973 0.11225852 -3.587361 -3.591657
0003b0 38 1e 61 c0 2f 03 1d 3c b6 02 72 3c 95 44 6d c0
       -3.5174694 0.009583279 0.014771154 -3.707311
0003c0 16 e8 b1 bd ee 3a 5d c0 68 9f 7c bd d0 e9 40 be
       -0.08686845 -3.4567218 -0.06167546 -0.18839192
0003d0 92 3b a1 be fe 39 67 c0 9a 12 ff bf c9 34 39 bf
       -0.3149076 -3.6129146 -1.9927552 -0.7234617
0003e0 70 1e 81 c0 e0 03 43 c0 c4 a3 57 c0 44 98 4e c0
       -4.0349655 -3.0471115 -3.3693705 -3.2280436
0003f0 72 d0 df bd 62 96 19 be 20 f1 29 3d 17 02 f2 bf
       -0.1092843 -0.14998773 0.04148972 -1.8906888

var_fc.bias f4 [4]
000000 20 12 73 40 c4 bc 70 40 e9 9c 5d c0 19 f5 6b c0
       3.7979813 3.7615213 -3.462702 -3.6868346
