DeepAcTS/networks/intermediary/OLD_Runs/intermediary_polnet_rX_3500.pth (torch, 3231 bytes, 4 tensors)

fc1.weight f4 [64, 4]
0.7175371 -0.0040752874 -1.0891365 -0.6103443 -0.31579185 0.10231008 -0.38759804 0.10813413
-0.018744837 -0.20787822 0.15733182 0.44247788 0.017429126 -0.03393586 0.3129838 -0.057482034
0.61943936 0.101218514 -0.8833031 -0.44053632 -0.21336094 -0.014469627 -0.1877533 0.48446867
0.075741604 -0.30826607 0.32010296 0.56703764 -0.46968114 0.07228342 0.52128273 0.6044284
0.4545118 0.33411288 -0.49779424 -0.5949262 0.34601238 0.2695419 -0.14720613 -0.5809657
-0.4769391 -0.38849217 0.5941814 0.17761533 -0.47709984 0.5786653 0.8831898 -0.106674254
-0.28776234 -0.23550907 0.12013382 0.5151507 0.07483045 -0.022001682 -0.24643882 -0.4618925
0.89262396 0.30660853 -1.4750137 -0.66954666 0.17379247 0.22387995 -0.37642908 -0.5354125
-0.23266697 -0.4741415 0.2966981 0.54530793 -0.23450664 -0.11925536 0.42173728 0.51605743
0.7026219 0.10782918 -1.3893428 -0.67187375 -0.99189776 -0.15116657 2.2166576 1.1090947
-1.1170597 -0.16297221 2.1348188 1.045328 -0.040276013 -0.031415034 0.3081538 0.5782353
-0.08357756 -0.052644555 -0.60009724 0.15930347 0.57153445 -0.02829537 -0.8688965 -0.49826464
-0.7360979 -0.5736931 0.8482696 0.26391095 -0.23373164 0.15372379 -0.33645433 0.11502688
0.18960635 0.00080655294 0.18516198 -0.45584765 -0.3131143 0.26775825 0.24584278 0.16539676
-0.10869004 0.25047296 -0.23313504 -0.690342 0.36612844 -0.115615 -0.37707058 -0.53036916
0.31219333 0.56191605 -0.29480764 -0.68134594 -0.7051215 0.093093075 0.72452706 0.83330387
-0.21176675 0.08126763 0.018515676 0.2364532 -0.62684745 -0.057124015 1.2004821 0.66237473
-0.5431323 0.2098088 0.29057646 0.5629892 -0.32876045 0.71005034 1.5342903 -0.08184062
0.31044376 -0.14938317 -0.004360061 -0.5341619 -0.37602115 -0.02723946 0.5767144 0.32171568
0.58570176 -0.12879042 -0.030065248 -0.425139 -0.102390945 -0.16371153 0.35259145 0.40645516
-0.3769005 0.19899671 -0.08898522 0.08933886 -0.15174992 -0.10461301 -0.15175854 0.035575103
-0.09216601 -0.44420186 0.38390762 0.38123596 0.1328488 0.049038325 0.08042147 0.17787495
0.09079262 -0.28348795 -0.4906635 -0.052079532 0.17779535 0.71835667 0.5412236 0.010764865
0.1916647 0.21790251 -0.7398706 -0.6271098 -0.07177875 0.29387644 -0.33203623 -0.5593265
-0.028224489 -0.21142487 -0.5160332 0.09956583 -0.11226312 0.07295269 -0.31311232 0.075762354
-0.10283003 -0.17035253 0.12957771 0.32989612 0.60517 -0.4568526 -0.81173855 0.06980768
-0.15015629 0.15908171 -0.1186961 -0.35608163 0.63698184 -0.23866609 -0.39591172 -0.6158861
-0.7882506 0.031355992 0.98761 0.7292073 0.17500947 0.07819778 -0.6503057 -0.24172746
-0.28933948 -0.22355105 0.31221962 0.4131241 -0.08498521 0.26945993 0.15306309 -0.21252096
0.3448238 -0.053261656 -0.20187604 -0.37665254 0.18269278 -0.20082714 0.13403313 0.47533917
-0.9186087 0.061426397 1.2569937 0.76994205 -0.60680366 -0.18636328 1.2926943 0.52455807
0.1854307 -0.36495176 0.38367707 0.97785187 -0.40459365 -0.5686812 0.20058563 0.7746725
00000000: 83b0 373f fd89 85bb d368 8bbf 863f 1cbf
00000010: 78af a1be f287 d13d 4073 c6be 6d75 dd3d
00000020: c68e 99bc 07de 54be 981b 213e 768c e23e
00000030: 87c7 8e3c 5400 0bbd 6a3f a03e 4872 6bbd
00000040: 9493 1e3f a74b cf3d 2720 62bf fa8d e1be
00000050: 4a7b 5abe 0412 6dbc 6742 40be 470c f83e
00000060: 6a1e 9b3d 0dd5 9dbe 89e4 a33e 6129 113f
00000070: 0c7a f0be 5409 943d c972 053f d2bb 1a3f
00000080: c5b5 e83e d810 ab3e e3de febe 154d 18bf
00000090: 8928 b13e 6501 8a3e 34bd 16be 2bba 14bf
000000a0: 5d31 f4be 72e8 c6be 461c 183f cbe0 353e
000000b0: 6e46 f4be 6923 143f ba18 623f 0878 dabd
000000c0: 9655 93be 4a29 71be b808 f63d ebe0 033f
000000d0: b540 993d df3c b4bc 755a 7cbe 2c7d ecbe
000000e0: 0183 643f cbfb 9c3e 40cd bcbf 6967 2bbf
000000f0: a7f6 313e c940 653e 50bb c0be cb10 09bf
00000100: 4040 6ebe adc2 f2be d0e8 973e 4d99 0b3f
00000110: 8222 70be 273c f4bd f3ed d73e 571c 043f
00000120: 07df 333f 8cd5 dc3d fcd5 b1bf ebff 2bbf
00000130: 03ed 7dbf 69cb 1abe b8dd 0d40 d1f6 8d3f
00000140: d0fb 8ebf 30e2 26be dfa0 0840 4fcd 853f
00000150: 76f8 24bd 0dad 00bd 56c6 9d3e 3b07 143f
00000160: b62a abbd d1a1 57bd f99f 19bf 7320 233e
00000170: 1550 123f b1cb e7bc 0070 5ebf 8b1c ffbe
00000180: e970 3cbf 8ddd 12bf 3228 593f 561f 873e
00000190: 5957 6fbe c569 1d3e be43 acbe 3693 eb3d
000001a0: 2b28 423e da6e 533a 1a9b 3d3e dd64 e9be
000001b0: 8450 a0be 9c17 893e 36be 7b3e c55d 293e
000001c0: e298 debd fe3d 803e f4ba 6ebe 41ba 30bf
000001d0: 3075 bb3e 8fc7 ecbd 650f c1be 46c6 07bf
000001e0: ced7 9f3e bbd9 0f3f 07f1 96be b06c 2ebf
000001f0: d882 34bf 95a7 be3d 9b7a 393f 6753 553f
00000200: 62d9 58be a56f a63d 30ae 973c ca20 723e
00000210: 1379 20bf dffa 69bd 66a9 993f 6491 293f
00000220: b80a 0bbf 1ed8 563e 70c6 943e 0f20 103f
00000230: 4a53 a8be dcc5 353f a063 c43f 0e9c a7bd
00000240: 7cf2 9e3e e7f7 18be d8de 8ebb d6be 08bf
00000250: d885 c0be 4a25 dfbc 8ea3 133f ebb7 a43e
00000260: 8df0 153f a3e1 03be 654b f6bc d2ab d9be
00000270: 58b2 d1bd ffa3 27be de86 b43e e41a d03e
00000280: 1af9 c0be cbc5 4b3e e23d b6bd 4bf7 b63d
00000290: 5564 1bbe 593f d6bd 9766 1bbe 33b7 113d
000002a0: 88c1 bcbd 6d6e e3be 8a8f c43e 5c31 c33e
000002b0: 8409 083e 69dc 483d 03b4 a43d da24 363e
000002c0: 7bf1 b93d 5525 91be 3f38 fbbe 5951 55bd
000002d0: fc0f 363e 39e6 373f a18d 0a3f 1e5f 303c
000002e0: c043 443e d621 5f3e 2968 3dbf 458a 20bf
000002f0: bd00 93bd f976 963e a700 aabe 0630 0fbf
00000300: 0b37 e7bc c37f 58be c01a 04bf 2be9 cb3d
00000310: 35ea e5bd 3868 953d 4250 a0be 4b29 9b3d
00000320: 8d98 d2bd e570 2ebe 05b0 043e 25e8 a83e
00000330: 6cec 1a3f 96e8 e9be 19ce 4fbf 54f7 8e3d
00000340: 92c2 19be 51e6 223e f116 f3bd 5550 b6be
00000350: 3e11 233f e264 74be f1b4 cabe b6aa 1dbf
00000360: cbca 49bf 246f 003d 02d4 7c3f 54ad 3a3f
00000370: af35 333e 2826 a03d 6f7a 26bf 6787 77be
00000380: 4e24 94be 91ea 64be 40db 9f3e 0185 d33e
00000390: ba0c aebd a7f6 893e 92bc 1c3e 189f 59be
000003a0: bf8c b03e e528 5abd 98b8 4ebe 9ad8 c0be
000003b0: d113 3b3e a1a5 4dbe fb3f 093e a85f f33e
000003c0: f129 6bbf 3f9a 7b3d 2be5 a03f ec1a 453f
000003d0: 7c57 1bbf 04d6 3ebe 0277 a53f 7049 063f
000003e0: 8ce1 3d3e f5da babe 5271 c43e 8054 7a3f
000003f0: e626 cfbe 1795 11bf 5266 4d3e f050 463f

fc1.bias f4 [64]
0.17754675 -0.34098458 -0.5989148 -0.07367602 0.20873782 -0.36894712 -0.22504535 -0.41104543
0.41023356 0.47728744 -0.27407753 -0.12770803 -0.42715183 0.27339113 -0.19650455 0.6395357
0.027601846 -0.44976106 -0.13937984 0.44449642 0.21936384 -0.3660979 -0.39053017 0.07869495
-0.4139126 -0.11253259 0.32568523 -0.32115486 -0.13024876 0.3476198 -0.03137068 0.26698333
0.031673476 0.25809902 -0.34603623 0.03923004 -0.14533536 0.065834835 -0.14272581 -0.4804226
-0.21143915 -0.6081431 0.022771997 -0.45140916 -0.4996766 -0.28674588 0.5966375 0.22087309
0.05245902 -0.05923572 0.014541579 0.0016425953 -0.011791981 0.387064 0.2569101 -0.111255325
-0.28235096 -0.97555 0.24908508 0.012432028 -0.12763563 -0.27564365 0.19027537 0.035560112
00000000: d1ce 353e 8895 aebe 7b52 19bf 74e3 96bd
00000010: 5ebf 553e a3e6 bcbe 4a72 66be 8c74 d2be
00000020: 220a d23e 055f f43e e453 8cbe e5c5 02be
00000030: a5b3 dabe ecf9 8b3e 7d38 49be 9db8 233f
00000040: 441d e23c 1547 e6be 97b9 0ebe 0995 e33e
00000050: eaa0 603e 2f71 bbbe 92f3 c7be d12a a13d
00000060: 5aec d3be 7d77 e6bd 37c0 a63e 696e a4be
00000070: ee5f 05be 39fb b13e 8b7e 00bd 0ab2 883e
00000080: 0cbc 013d 8e25 843e a92b b1be aeaf 203d
00000090: cbd2 14be 6ad4 863d b726 12be f3f9 f5be
000000a0: 8183 58be 44af 1bbf 578c ba3c 1a1f e7be
000000b0: 9cd5 ffbe 5bd0 92be 3cbd 183f 8e2c 623e
000000c0: 45df 563d 28a1 72bd ce3f 6e3c 5a4c d73a
000000d0: 2733 41bc 412d c63e b889 833e d5d9 e3bd
000000e0: 4e90 90be a5bd 79bf 2910 7f3e b4af 4b3c
000000f0: eab2 02be 2a21 8dbe 8cd7 423e 7ba7 113d

fc2.weight f4 [2, 64]
0.42088088 0.06802393 -0.020384893 0.004889768 0.21728927 -0.05352725 -0.21035884 -0.19983181
0.21577266 0.13967353 0.36362356 -0.5518966 -0.18325563 0.25964332 0.77495503 0.23126948
-0.20497175 -0.33383915 -0.56685835 -0.8759537 -0.65139896 -0.12522952 -0.008120124 0.3061577
0.82661134 0.09360169 0.17386205 0.0014073036 0.22448106 0.12705503 0.26005283 -0.29281393
-0.063708365 -0.34834617 -0.2840963 -0.37080705 0.018731967 -0.24973373 -0.08898317 -0.15586805
-0.1090222 0.0041533853 0.010940761 -0.03708893 0.013445908 -0.37054324 0.22003067 0.13518381
-0.0106512355 0.065731965 -0.04573276 0.38749832 0.09857012 0.28492188 -0.29875803 -0.4385474
-0.2772208 -0.496949 0.13861829 -0.12837365 0.8340437 0.6189093 -0.083722755 -0.2414133
-0.3794175 -0.07384721 -0.0031156554 0.009594738 -0.10038013 0.17090696 0.15438981 0.26091456
-0.2873002 -0.19361374 -0.5012401 0.32079253 0.16067453 -0.11279744 -0.70219845 -0.034577746
0.04322174 0.32898495 0.37173903 0.842872 0.67034733 0.16922718 -0.026781885 -0.36253273
-0.90864795 -0.03092491 -0.12808686 -0.05125687 -0.16694492 -0.27590412 -0.38910592 0.13510053
-0.028749155 0.40041274 0.40864006 0.474183 -0.12419073 0.10639548 -0.05556051 0.13930011
-0.09349445 -0.11615923 0.17109217 -0.032924574 0.01146526 0.49925074 -0.2199713 -0.23676616
0.07321778 0.07939652 0.1056039 -0.39084584 -0.16262038 -0.19204699 0.10530371 0.3921257
0.3790534 0.49742845 -0.2736175 0.05964404 -0.8974413 -0.6932994 0.1908713 0.027203059
00000000: b37d d73e 2150 8b3d 38fe a6bc 593a a03b
00000010: 1481 5e3e 643f 5bbd 4f68 57be b6a0 4cbe
00000020: 82f3 5c3e 9406 0f3e de2c ba3e 1849 0dbf
00000030: 5da7 3bbe f8ef 843e 7463 463f e8d1 6c3e
00000040: 1de4 51be f7ec aabe a11d 11bf 803e 60bf
00000050: 15c2 26bf 2b3c 00be 450a 05bc b4c0 9c3e
00000060: cd9c 533f 3eb2 bf3d e508 323e 4675 b83a
00000070: 5dde 653e b71a 023e a525 853e b5eb 95be
00000080: 8879 82bd 6e5a b2be 1275 91be 6cda bdbe
00000090: c873 993c 33ba 7fbe cf3c b6bd e09b 1fbe
000000a0: 0847 dfbd 1f19 883b e140 333c 90ea 17bd
000000b0: 3a4c 5c3c d8b7 bdbe b84f 613e a06d 0a3e
000000c0: 8582 2ebc 7b9e 863d 4652 3bbd 2e66 c63e
000000d0: 22df c93d 48e1 913e d0f6 98be 4989 e0be
000000e0: e2ef 8dbe 1970 febe f4f1 0d3e 6274 03be
000000f0: e383 553f d770 1e3f d676 abbd 0c35 77be
00000100: 0343 c2be 353d 97bd 0630 4cbb 3f33 1d3c
00000110: 1994 cdbd 3c02 2f3e 5d18 1e3e 9896 853e
00000120: 0319 93be ae42 46be 4551 00bf eb3e a43e
00000130: dd87 243e 5802 e7bd 47c3 33bf 65a1 0dbd
00000140: 4709 313d b770 a83e 9454 be3e 76c6 573f
00000150: e29b 2b3f e449 2d3e af65 dbbc e49d b9be
00000160: 279d 68bf 3d56 fdbc 3429 03be b9f2 51bd
00000170: 9cf3 2abe 4e43 8dbe e438 c7be cb57 0a3e
00000180: 5983 ebbc e602 cd3e 4539 d13e 1dc8 f23e
00000190: b657 febd e0e5 d93d 6b93 63bd b0a4 0e3e
000001a0: 057a bfbd e4e4 edbd c932 2f3e ebdb 06bd
000001b0: c9d8 3b3c cb9d ff3e 2840 61be d472 72be
000001c0: 34f3 953d a59a a23d dc46 d83d f21c c8be
000001d0: f585 26be f7a7 44be 79a9 d73d b3c4 c83e
000001e0: 4a13 c23e f1ae fe3e 9817 8cbe 4f4d 743d
000001f0: b7be 65bf 127c 31bf c473 433e f3d8 de3c

fc2.bias f4 [2]
0.052954707 -0.026886426
00000000: 09e7 583d ec40 dcbc
