DeepAcTS/networks/intermediary/OLD_Runs/intermediary_polnet_rX_4000.pth (torch, 3231 bytes, 4 tensors)

fc1.weight f4 [64, 4]
0.736699 -0.03077219 -1.1925759 -0.65032035 -0.31579185 0.10231008 -0.38759804 0.10813413
-0.002581494 -0.140042 0.17383392 0.39620623 0.017429126 -0.03393586 0.3129838 -0.057482034
0.6955515 0.091709346 -1.0500966 -0.49708897 -0.28622484 0.012158919 -0.014356587 0.5173759
-0.046256743 -0.29160258 0.5022972 0.59494483 -0.54437083 0.07164754 0.629397 0.63999337
0.5782343 0.33343506 -0.7014519 -0.65916026 0.4603808 0.26868683 -0.34958872 -0.6470015
-0.55398464 -0.37723538 0.7114105 0.23189484 -0.46395314 0.60808015 0.9416428 -0.111706875
-0.34930435 -0.22629967 0.21508677 0.55556273 0.18308048 -0.015896061 -0.42887667 -0.5273069
0.90615124 0.2689672 -1.5456347 -0.6961206 0.28873807 0.2213527 -0.5770282 -0.60719454
-0.3100088 -0.46450308 0.41834775 0.58880293 -0.29343942 -0.13213189 0.54953605 0.54740226
0.7345766 0.08822245 -1.5172024 -0.7216366 -1.0394366 -0.114452735 2.3400962 1.1179818
-1.1930113 -0.12431859 2.3313797 1.1058793 -0.1369254 0.0019325773 0.5060675 0.6085751
-0.08261138 -0.048274174 -0.5999467 0.15624183 0.73517454 -0.04866632 -1.1746196 -0.6386216
-0.80601007 -0.5463648 1.0193894 0.33825657 -0.23299403 0.15451682 -0.3367012 0.11363297
0.30119 -0.00025411713 -0.008683499 -0.52164346 -0.3131143 0.26775825 0.24584278 0.16539676
-0.03850918 0.249371 -0.3634587 -0.71237904 0.48227176 -0.11411575 -0.57108486 -0.6006645
0.3937016 0.55539536 -0.45011377 -0.7239702 -0.8460282 0.08874317 0.9441987 0.7985913
-0.31157702 0.0663446 0.18027431 0.21795036 -0.6670966 -0.041932777 1.3237563 0.6839359
-0.5913065 0.19915694 0.47370654 0.59652597 -0.4178787 0.7589639 1.5724497 -0.11276499
0.43378052 -0.23851949 0.078489184 -0.3983977 -0.4537318 -0.024144579 0.7670529 0.4006048
0.49249673 -0.025866644 -0.6526381 -0.4911447 -0.14692041 -0.17774275 0.44342154 0.44212896
-0.3769005 0.19899671 -0.08898522 0.08933886 -0.15174992 -0.10461301 -0.15175854 0.035575103
-0.18349008 -0.42886725 0.4675491 0.41914812 0.1328488 0.049038325 0.08042147 0.17787495
0.090849265 -0.28328902 -0.4906637 -0.052216858 0.047002688 0.7912204 0.67206764 -0.03104256
0.30317384 0.22140576 -0.9364752 -0.7087237 0.018276151 0.28951955 -0.5042949 -0.60854465
-0.14874429 -0.12212635 -0.30439568 0.046839077 -0.11232169 0.07287754 -0.31310415 0.0758581
-0.11122777 -0.17278004 0.22004999 0.35195234 0.6828654 -0.5788055 -1.0348572 0.08723448
-0.039660096 0.16345622 -0.27605626 -0.39718854 0.7498314 -0.23861124 -0.5890768 -0.6932291
-0.82740575 0.03486174 1.1341499 0.7348485 0.26538298 0.07864334 -0.86327726 -0.36037758
-0.32836553 -0.20713133 0.4196749 0.44901893 -0.087085225 0.25756025 0.14905553 -0.21297319
0.42924714 -0.07193655 -0.39973307 -0.44529042 0.06640208 -0.187977 0.3197513 0.49388924
-0.957413 0.08509933 1.3525606 0.80107707 -0.62779427 -0.16940004 1.3951325 0.54339826
0.07874891 -0.35828206 0.5600918 1.0251428 -0.47595087 -0.5638836 0.38799334 0.81152374
00000000: 4e98 3c3f f615 fcbc 54a6 98bf 657b 26bf
00000010: 78af a1be f287 d13d 4073 c6be 6d75 dd3d
00000020: 482e 29bb 2c67 0fbe 8501 323e 8bdb ca3e
00000030: 87c7 8e3c 5400 0bbd 6a3f a03e 4872 6bbd
00000040: aa0f 323f 1cd2 bb3d 9169 86bf 7282 febe
00000050: 108c 92be 3436 473c e437 6bbc bf72 043f
00000060: b677 3dbd ef4c 95be 8d96 003f 4e4e 183f
00000070: e35b 0bbf f2bb 923d 2920 213f 9bd6 233f
00000080: 2a07 143f 00b8 aa3e 5a92 33bf babe 28bf
00000090: 08b7 eb3e 5291 893e 4bfd b2be e4a1 25bf
000000a0: f0d1 0dbf ff24 c1be 001f 363f d775 6d3e
000000b0: 448b edbe 24ab 1b3f 810f 713f 93c6 e4bd
000000c0: 05d8 b2be 1abb 67be b53f 5c3e 5c39 0e3f
000000d0: 7379 3b3e 7538 82bc b995 dbbe 96fd 06bf
000000e0: 87f9 673f 12b6 893e 5cd7 c5bf f634 32bf
000000f0: 7ad5 933e 48aa 623e 1fb8 13bf 1a71 1bbf
00000100: 79b9 9ebe 59d3 edbe ad31 d63e cabb 163f
00000110: b13d 96be 954d 07be 65ae 0c3f 8e22 0c3f
00000120: 360d 3c3f f9ad b43d b033 c2bf 2dbd 38bf
00000130: 420c 85bf 3266 eabd 23c4 1540 071a 8f3f
00000140: 98b4 98bf bf9a febd 5335 1540 748d 8d3f
00000150: 2c36 0cbe 894e fd3a a48d 013f 94cb 1b3f
00000160: 2830 a9bd 24bb 45bd 1b96 19bf dcfd 1f3e
00000170: 6634 3c3f 5656 47bd ef59 96bf b57c 23bf
00000180: ad56 4ebf 90de 0bbf 5a7b 823f f72f ad3e
00000190: fd95 6ebe a839 1e3e 1a64 acbe 67b8 e83d
000001a0: 9335 9a3e 063b 85b9 3c45 0ebc 6d8a 05bf
000001b0: 8450 a0be 9c17 893e 36be 7b3e c55d 293e
000001c0: cdbb 1dbd 1d5b 7f3e 4217 babe 795e 36bf
000001d0: 53ec f63e 85b5 e9bd 9e32 12bf 26c5 19bf
000001e0: 4293 c93e 642e 0e3f 5075 e6be 1c56 39bf
000001f0: 4e95 58bf fbbe b53d 02b7 713f 7b70 4c3f
00000200: 0687 9fbe addf 873d d499 383e 612e 5f3e
00000210: d8c6 2abf b4c1 2bbd d970 a93f 6c16 2f3f
00000220: dd5f 17bf ccef 4b3e aa89 f23e edb5 183f
00000230: 32f4 d5be 754b 423f 0846 c93f 55f1 e6bd
00000240: 7b18 de3e 743e 74be f0be a03d c9fa cbbe
00000250: 894f e8be daca c5bc 945d 443f 131c cd3e
00000260: 8828 fc3e 49e6 d3bc 4a13 27bf 5177 fbbe
00000270: 4e72 16be 3202 36be 2608 e33e ba5e e23e
00000280: 1af9 c0be cbc5 4b3e e23d b6bd 4bf7 b63d
00000290: 5564 1bbe 593f d6bd 9766 1bbe 33b7 113d
000002a0: d3e4 3bbe 7d94 dbbe 9862 ef3e 959a d63e
000002b0: 8409 083e 69dc 483d 03b4 a43d da24 363e
000002c0: 2e0f ba3d 420b 91be 4638 fbbe 58e1 55bd
000002d0: e485 403d 6c8d 4a3f a00c 2c3f f74c febc
000002e0: 9a39 9b3e 31b8 623e d7bc 6fbf eb6e 35bf
000002f0: deb7 953c e83b 943e 7819 01bf 95c9 1bbf
00000300: 6c50 18be 611d fabd c0d9 9bbe 55da 3f3d
00000310: ea08 e6bd d240 953d 304f a0be 7e5b 9b3d
00000320: 63cb e3bd 40ed 30be c954 613e 1933 b43e
00000330: 44d0 2e3f 992c 14bf 3376 84bf fea7 b23d
00000340: a072 22bd 1161 273e 3f57 8dbe 4c5c cbbe
00000350: f3f4 3f3f 8156 74be bdcd 16bf 7677 31bf
00000360: ddd0 53bf 2fcb 0e3d d32b 913f 081f 3c3f
00000370: 47e0 873e c20f a13d bdff 5cbf 6983 b8be
00000380: 871f a8be 3c1a 54be a1df d63e cfe5 e53e
00000390: bd59 b2bd f0de 833e 03a2 183e a515 5abe
000003a0: 48c6 db3e 7853 93bd d0a9 ccbe 1bfd e3be
000003b0: d0fd 873d 0b7d 40be 71b6 a33e 0ddf fc3e
000003c0: 0519 75bf 8f48 ae3d b520 ad3f 6313 4d3f
000003d0: 20b7 20bf 3477 2dbe b493 b23f 261c 0b3f
000003e0: 1c47 a13d bf70 b7be 2d62 0f3f e137 833f
000003f0: d5af f3be ad5a 10bf 10a7 c63e 05c0 4f3f

fc1.bias f4 [64]
0.19075568 -0.34098458 -0.63732606 -0.07367602 0.24487685 -0.35119376 -0.23278812 -0.39244092
0.42550746 0.4901145 -0.30536458 -0.13087425 -0.40418604 0.28789926 -0.20568633 0.6487402
0.00795945 -0.4387176 -0.17656684 0.47828108 0.25966212 -0.33512774 -0.3928594 0.093107715
-0.4489265 -0.11347432 0.33725506 -0.32115486 -0.11429148 0.3611141 -0.009967062 0.2831612
0.030825138 0.28654572 -0.33790565 0.06518409 -0.20767395 0.090659216 -0.19599658 -0.48183492
-0.21143915 -0.6081431 0.0056592794 -0.45140916 -0.49976113 -0.26912832 0.6090791 0.24030147
0.008728266 -0.059145626 -0.005616891 0.001911351 -0.002280121 0.40065908 0.28312844 -0.17271735
-0.2816973 -0.9806413 0.26445147 0.008181275 -0.11214939 -0.29135886 0.16484152 0.011501377
00000000: 7555 433e 8895 aebe cd27 23bf 74e3 96bd
00000010: ffc0 7a3e abcf b3be 0260 6ebe 04ee c8be
00000020: 1ddc d93e 4af0 fa3e bf58 9cbe e603 06be
00000030: 79f1 cebe 8867 933e 709f 52be d613 263f
00000040: 5a68 023c 989f e0be f0cd 34be 42e1 f43e
00000050: 6ff2 843e dd95 abbe de24 c9be 42af be3d
00000060: b2d9 e5be 3965 e8bd b2ac ac3e 696e a4be
00000070: a711 eabd f3e3 b83e e34c 23bc 81fa 903e
00000080: 0085 fc3c 1fb6 923e f801 adbe 3c7f 853d
00000090: 7ba8 54be 8aab b93d 54b3 48be 11b3 f6be
000000a0: 8183 58be 44af 1bbf 7a71 b93b 1a1f e7be
000000b0: b1e0 ffbe 30cb 89be 9cec 1b3f 9711 763e
000000c0: 0001 0f3c af42 72bd e60d b8bb 4c86 fa3a
000000d0: 156e 15bb 3023 cd3e 36f6 903e d1dc 30be
000000e0: a13a 90be 4f0b 7bbf 2f66 873e c10a 063c
000000f0: 94ae e5bd fd2c 95be 37cc 283e 4670 3c3c

fc2.weight f4 [2, 64]
0.45343742 0.06802393 -0.018554641 0.004889768 0.28534052 -0.06490806 -0.26177937 -0.28435162
0.25249204 0.1699218 0.47728002 -0.5919424 -0.19679403 0.29132444 0.81918216 0.25910816
-0.2243439 -0.38351673 -0.71466553 -0.9207687 -0.73848486 -0.15482654 -0.008531746 0.4658736
0.9527206 0.09358432 0.19925724 0.0014073036 0.24181719 0.16469394 0.2943029 -0.32807124
-0.088692926 -0.39005473 -0.38347897 -0.41528186 -0.06168348 -0.3224373 -0.29614684 -0.2108178
-0.1090222 0.0041533853 -0.0010939175 -0.03708893 0.013184549 -0.4693855 0.25295398 0.16441663
0.03140766 0.06571018 -0.04888191 0.5281473 0.116617754 0.32649526 -0.33941722 -0.7653445
-0.311987 -0.4960664 0.17443335 -0.1286687 0.90612525 0.6940687 -0.091424115 -0.26411664
-0.41214806 -0.07384721 -0.01661642 0.009594738 -0.16856982 0.17741294 0.20480372 0.34084922
-0.32413515 -0.22396363 -0.6157104 0.36066395 0.17171685 -0.1445842 -0.7473716 -0.062502764
0.062312517 0.37377366 0.51851827 0.88755524 0.75724626 0.19560808 -0.026877834 -0.5225056
-1.0355536 -0.030908622 -0.1535769 -0.05125687 -0.18487887 -0.31364048 -0.4237309 0.17022605
-0.003966382 0.44198966 0.5026127 0.51854354 -0.045568187 0.17890938 0.14968589 0.18665874
-0.09349445 -0.11615923 0.18284835 -0.032924574 0.0117004085 0.59793156 -0.25298935 -0.2661487
0.031047696 0.0794172 0.10845413 -0.5316259 -0.18107079 -0.23371759 0.14583078 0.7171114
0.4121874 0.4965228 -0.3095351 0.059641093 -0.97020775 -0.76994646 0.19838624 0.049625788
00000000: f328 e83e 2150 8b3d e7ff 97bc 593a a03b
00000010: 2718 923e 84ee 84bd f207 86be 8996 91be
00000020: a346 813e fbff 2d3e 0c5e f43e 8a89 17bf
00000030: 6084 49be 7a28 953e ecb5 513f d3a9 843e
00000040: 68ba 65be 4e5c c4be 52f4 36bf 7fb7 6bbf
00000050: 580d 3dbf d98a 1ebe bdc8 0bbc fc86 ee3e
00000060: 7fe5 733f 23a9 bf3d 170a 4c3e 4675 b83a
00000070: ed9e 773e 87a5 283e dfae 963e f4f8 a7be
00000080: a3a4 b5bd 41b5 c7be 5b57 c4be d39f d4be
00000090: d1a7 7cbd 8016 a5be 8fa0 97be 9fe0 57be
000000a0: 0847 dfbd 1f19 883b c861 8fba 90ea 17bd
000000b0: 0204 583c 4c53 f0be 2f83 813e d55c 283e
000000c0: 52a5 003d 0f93 863d 6638 48bd a934 073f
000000d0: 4ad5 ee3d 632a a73e 18c8 adbe 9eed 43bf
000000e0: c3bc 9fbe 6afc fdbe a89e 323e bac1 03be
000000f0: d3f7 673f 7cae 313f 913c bbbd 4c3a 87be
00000100: 1205 d3be 353d 97bd 291f 88bc 3f33 1d3c
00000110: 919d 2cbe bdab 353e 11b8 513e ca83 ae3e
00000120: 0bf5 a5be b956 65be 329f 1dbf f2a8 b83e
00000130: 8bd6 2f3e e10d 14be bf53 3fbf 7301 80bd
00000140: 693b 7f3d 435f bf3e 9dbd 043f d236 633f
00000150: e4da 413f 7c4d 483e e72e dcbc edc2 05bf
00000160: 058d 84bf 1434 fdbc 4343 1dbe b9f2 51bd
00000170: e350 3dbe 7c95 a0be 42f3 d8be bd4f 2e3e
00000180: 6cf8 81bb 784c e23e 3aab 003f 45bf 043f
00000190: b5a5 3abd 0534 373e 4247 193e 7823 3f3e
000001a0: 057a bfbd e4e4 edbd 993c 3b3e ebdb 06bd
000001b0: 12b3 3f3c 0b12 193f d287 81be a444 88be
000001c0: bd57 fe3c 7ca5 a23d 331d de3d a318 08bf
000001d0: 9f6a 39be aa53 6fbe aa54 153e 9d94 373f
000001e0: 3a0a d33e 3d38 fe3e 627b 9ebe 384a 743d
000001f0: 895f 78bf 361b 45bf c325 4b3e 6944 4b3d

fc2.bias f4 [2]
0.07179147 -0.045795903
00000000: 6807 933d 7c94 3bbd
