DeepAcTS/networks/intermediary/OLD_Runs/intermediary_valnet_rX_1000.pth (torch, 3231 bytes, 4 tensors)

fc1.weight f4 [64, 4]
-0.28243703 0.32927874 -0.0051649334 -0.014908592 -0.104911536 0.45295748 0.28825375 0.079365395
-0.022511065 0.08034158 0.21859473 7.8737736e-05 -0.27211186 0.13583294 0.0025056028 -0.18148576
-0.017452998 0.18687603 0.5290597 -0.21721692 -0.6249014 -0.08131955 0.40232933 -0.4111693
0.26911125 -0.5435721 -0.0077698203 0.1291625 -0.7987787 -0.80892783 1.7248383 1.2891904
-0.60104436 0.2679191 0.09666927 0.5485439 -0.34364262 -0.29062203 -0.14676656 0.25019783
0.15133762 0.21132725 -0.12754755 0.41862124 0.11381269 -0.36566013 0.46136287 -0.38236627
-0.47792605 0.5277898 0.77248657 -0.010669984 -0.50949645 0.25693333 0.4000446 0.4640807
-0.33817092 0.47172487 0.4273142 0.030091504 -0.5096553 -0.6639623 1.395427 1.2960788
-1.3082374 -0.50491905 1.440646 1.459725 0.3227741 0.3269899 -0.10348859 0.20582804
-0.7406335 -1.0965865 1.5458066 0.9404725 0.36189476 -0.4100382 -0.54860926 0.115778245
-0.6746282 0.18766756 0.64019716 -0.16334967 -1.4489622 -0.9754003 1.2819785 1.2120068
0.0014282645 -0.0059469813 0.11786092 0.26330367 -0.40627775 -0.034706388 0.77804357 -0.2813103
0.06676765 -0.011116246 0.3378934 -0.15509853 0.23622139 0.18464927 0.31567782 -0.09783278
-0.020665722 -0.15849094 -0.1776497 0.31785056 -0.5487402 0.08909175 -0.114074074 0.14232288
0.40920156 -0.1809397 0.31898075 -0.16834839 -0.13168967 0.07665241 0.48071223 0.113363564
0.08975098 -0.043569636 0.8003816 -0.2850918 0.048278857 -0.423994 -0.013410779 -0.4040346
0.19020306 -0.32146776 -0.7159281 0.23999557 0.1839669 -0.47761616 0.041315448 -0.30821934
0.26313013 -0.28123206 -0.15084492 -0.123074025 -0.5604542 -0.00951834 -0.038063183 -0.12641266
0.26411843 0.13253494 0.11345111 0.50231594 0.54764605 -0.49071318 -0.85493314 0.05558363
0.5830217 0.2981334 -0.33142403 0.59278494 0.40172687 0.35542065 -0.1757991 0.11822776
0.056151386 -0.1688297 -0.07896341 0.39765605 -0.26475817 -0.21653974 0.35321364 0.12766495
-0.607223 -0.0054935175 0.81151086 -0.29567003 -0.6160916 -0.20485623 0.3103575 -0.30497375
0.38125408 -0.42378354 -0.17352577 0.18538144 0.35351753 0.2920732 -0.2961152 0.3843034
0.3880002 0.34257063 0.55049706 0.039724 0.40093714 0.024020035 -0.10128234 0.3620974
0.06907991 -0.013976728 -0.05846272 -0.032669608 0.24468273 -0.3242751 -0.6339882 0.41241044
0.044003665 -0.19083196 0.1804735 -0.102862895 0.026406998 -0.17696235 -0.41189823 -0.22574347
-0.7310109 0.32603022 0.5963137 -0.2005638 -0.49289057 -0.30227926 0.34973806 -0.04075467
0.14024082 0.11859848 0.5616637 0.34175998 0.29194692 -0.67446804 -0.49754044 -0.09423546
-0.8387104 -0.29920074 0.47964334 -0.3913622 0.7970761 1.1122736 -1.1531272 -0.81941694
0.66541433 0.17476614 -0.114556484 -0.7966064 0.22812606 0.29773098 0.3589775 -0.17731272
0.46979958 -0.41486174 -0.61168855 -0.02766048 -0.34514987 -0.0037573301 -0.4245426 0.29043365
0.19615601 -0.09992555 -0.15098011 0.06780395 -0.5400018 -0.5414986 0.22856936 -0.3072086
00000000: 969b 90be 3997 a83e 9a3e a9bb 2b43 74bc
00000010: dcdb d6bd 0bea e73e ff95 933e 538a a23d
00000020: 2069 b8bc 208a a43d 4cd7 5f3e 0020 a538
00000030: 3f52 8bbe ca17 0b3e 0a35 243b 67d7 39be
00000040: 97f9 8ebc 6e5c 3f3e 7570 073f 1d6e 5ebe
00000050: 8af9 1fbf dd8a a6bd 1cfe cd3e c884 d2be
00000060: f3c8 893e 8b27 0bbf fa99 febb 2d43 043e
00000070: c37c 4cbf e515 4fbf 80c7 dc3f 3104 a53f
00000080: 0bde 19bf b12c 893e 8afa c53d 5f6d 0c3f
00000090: edf1 afbe 69cc 94be f949 16be ee19 803e
000000a0: 40f8 1a3e 2c66 583e d39b 02be 8655 d63e
000000b0: a116 e93d ce37 bbbe c137 ec3e 83c5 c3be
000000c0: b9b2 f4be 3b1d 073f aec1 453f 28d1 2ebc
000000d0: 5c6e 02bf c48c 833e a5d2 cc3e fc9b ed3e
000000e0: bd24 adbe ec85 f13e edc8 da3e 7582 f63c
000000f0: c578 02bf 6ff9 29bf 5a9d b23f e9e5 a53f
00000100: 5374 a7bf 6042 01bf 1767 b83f 45d8 ba3f
00000110: a642 a53e 386b a73e d3f1 d3bd 96c4 523e
00000120: 289a 3dbf f25c 8cbf fedc c53f cec2 703f
00000130: 454a b93e 87f0 d1be a871 0cbf 251d ed3d
00000140: 6fb4 2cbf ed2b 403e f6e3 233f 2345 27be
00000150: 9877 b9bf d6b3 79bf df17 a43f 0a23 9b3f
00000160: 9b34 bb3a e5de c2bb 1161 f13d bdcf 863e
00000170: a303 d0be 4928 0ebd dd2d 473f e707 90be
00000180: 7abd 883d ea20 36bc 5d00 ad3e 26d2 1ebe
00000190: 05e4 713e b314 3d3e 86a0 a13e 8d5c c8bd
000001a0: 294b a9bc 734b 22be cee9 35be 4fbd a23e
000001b0: 3d7a 0cbf bc75 b63d ab9f e9bd 17bd 113e
000001c0: de82 d13e 4248 39be 7251 a33e 8563 2cbe
000001d0: a8d9 06be f0fb 9c3d ea1f f63e 282b e83d
000001e0: 5dcf b73d 1376 32bd cfe5 4c3f 8df7 91be
000001f0: 0dc0 453d be15 d9be e2b8 5bbc a0dd cebe
00000200: 97c4 423e 6c97 a4be 1047 37bf 66c1 753e
00000210: d261 3c3e 1b8a f4be 633a 293d edce 9dbe
00000220: feb8 863e a6fd 8fbe 1777 1abe 3c0e fcbd
00000230: ed79 0fbf d0f2 1bbc 24e8 1bbd 5272 01be
00000240: 883a 873e 3db7 073e 0e59 e83d c797 003f
00000250: 8832 0c3f c23e fbbe e6dc 5abf a9ab 633d
00000260: e940 153f f1a4 983e 69b0 a9be c1c0 173f
00000270: 25af cd3e b2f9 b53e ae04 34be 6521 f23d
00000280: fffe 653d b1e1 2cbe 91b7 a1bd 9399 cb3e
00000290: 628e 87be 98bc 5dbe 6bd8 b43e 9aba 023e
000002a0: f772 1bbf f702 b4bb 2dbf 4f3f 1062 97be
000002b0: 2eb8 1dbf d5c5 51be 2ee7 9e3e 8525 9cbe
000002c0: bc33 c33e 28fa d8be bdb0 31be a2d4 3d3e
000002d0: 4000 b53e 9e8a 953e 699c 97be 6ac3 c43e
000002e0: f6a7 c63e 6b65 af3e 60ed 0c3f a2b5 223d
000002f0: a247 cd3e aac5 c43c 1e6d cfbd d564 b93e
00000300: c579 8d3d a5fe 64bc 9b76 6fbd 91d0 05bd
00000310: 1c8e 7a3e 6307 a6be 0d4d 22bf 7627 d33e
00000320: 303d 343d 7469 43be 0cce 383e c8a9 d2bd
00000330: 7d53 d83c 9e35 35be 53e4 d2be 4c29 67be
00000340: 8823 3bbf 6fed a63e 04a8 183f 9960 4dbe
00000350: 275c fcbe 59c4 9abe de10 b33e 5eee 26bd
00000360: 4a9b 0f3e c3e3 f23d 31c9 0f3f 2afb ae3e
00000370: 117a 953e f0a9 2cbf 9fbd febe 85fe c0bd
00000380: bab5 56bf d730 99be d093 f53e a060 c8be
00000390: 2e0d 4c3f fb5e 8e3f ac99 93bf 4fc5 51bf
000003a0: 9858 2a3f e5f5 323e 979c eabd 66ee 4bbf
000003b0: e199 693e 3270 983e e6cb b73e 7791 35be
000003c0: 9289 f03e c268 d4be 9f97 1cbf 3b98 e2bc
000003d0: 7cb7 b0be 8a3d 76bb a65d d9be b8b3 943e
000003e0: 1fdd 483e c4a5 ccbd 889a 1abe ccdc 8a3d
000003f0: 8f3d 0abf a79f 0abf 160e 6a3e 724a 9dbe

fc1.bias f4 [64]
1.1442522 0.6992413 -0.32921374 1.1333886 0.86652577 1.0643208 1.0256317 -0.13573469
1.0458422 0.9920731 0.6176401 0.92263085 0.79457307 0.83513343 0.9431961 -0.06960018
-0.26533964 0.8257413 -0.27285388 0.5958772 0.56340396 -0.24801494 0.63466686 0.47289062
0.5381801 0.7297209 0.8956682 0.9172909 0.46886662 -0.2970642 0.65521044 0.8859678
0.81920165 1.1865258 1.1749443 0.83038324 0.9335434 0.30562285 0.83224976 -0.3912146
1.0983214 1.0773673 0.5541961 0.9938504 0.92918885 1.1618268 -0.35664943 0.7290999
1.1556784 1.2220287 -0.45428306 1.2091324 0.7954777 1.0777701 0.7112675 0.5937393
0.63072973 -0.010163115 0.1432503 1.115129 -0.07293108 0.6152101 0.8820089 -0.2858618
00000000: db76 923f 7a01 333f b48e a8be e112 913f
00000010: a2d4 5d3f aa3b 883f e647 833f 09fe 0abe
00000020: 28de 853f 81f8 7d3f a91d 1e3f 8931 6c3f
00000030: 2469 4b3f 4ecb 553f 4d75 713f 8a8a 8ebd
00000040: 99da 87be c863 533f 81b3 8bbe 688b 183f
00000050: 3e3b 103f a1f7 7dbe 8779 223f b81e f23e
00000060: 2cc6 093f fdce 3a3f 834a 653f 94d3 6a3f
00000070: 490f f03e cc18 98be dfbb 273f c9ce 623f
00000080: 33b7 513f 14e0 973f 9364 963f ff93 543f
00000090: b3fc 6e3f 997a 9c3e 520e 553f 484d c8be
000000a0: cc95 8c3f 2ce7 893f ccdf 0d3f fb6c 7e3f
000000b0: 52df 6d3f beb6 943f c19a b6be 4ba6 3a3f
000000c0: 45ed 933f 706b 9c3f ca97 e8be dac4 9a3f
000000d0: 6da4 4b3f 5ff4 893f a015 363f 4cff 173f
000000e0: 8177 213f 3283 26bc 35b0 123e 8cbc 8e3f
000000f0: e45c 95bd 697e 1d3f 56cb 613f 7a5c 92be

fc2.weight f4 [2, 64]
-0.56296206 -0.37922746 0.060118675 -0.6115783 -0.4171803 -0.57648885 -0.5612276 0.9629417
-0.6616288 -0.4960546 -0.33673933 -0.6870535 -0.57441163 -0.69636065 -0.5566099 1.0243105
0.92485017 -0.5076462 0.82450503 -0.21118215 -0.21509902 0.7913351 -0.35375077 -0.015991261
-0.25688756 -0.4884579 -0.38737792 -0.6601347 -0.0011481728 0.05379486 -0.32015562 -0.5961393
-0.41198006 -0.63611394 -0.61817074 -0.6122188 -0.5182359 -0.09528104 -0.6776072 0.004405075
-0.4595089 -0.57055986 -0.19342959 -0.4962635 -0.43184337 -0.59178257 -0.13032255 -0.67184633
-0.5948713 -0.53098154 0.078868285 -0.49153328 -0.34802818 -0.6622988 -0.7535305 -0.6521581
-0.32976326 0.5968219 0.31010756 -0.4058147 -0.41347152 -0.3277327 -0.6679216 -0.18559463
-0.5724178 -0.4559076 -0.036927313 -0.4716415 -0.30558708 -0.3984465 -0.6774207 0.7266673
-0.66950023 -0.46021268 -0.43456414 -0.5937517 -0.39625886 -0.7664004 -0.45486847 0.74698395
0.9619464 -0.67569584 0.8995598 -0.4300716 -0.20075224 0.75386566 -0.3230749 -0.077962086
-0.26983953 -0.3246491 -0.5856861 -0.52856785 -0.19958703 -0.11547428 -0.2436991 -0.40395674
-0.48415327 -0.5216966 -0.4935356 -0.536958 -0.81565964 -0.29644525 -0.7133467 -0.5064743
-0.6633443 -0.5355517 -0.10472425 -0.57063586 -0.46993557 -0.6942703 -0.57365847 -0.6651643
-0.42743236 -0.611593 0.09167935 -0.573036 -0.17133632 -0.66407174 -0.82255095 -0.56984496
-0.36273393 1.0167648 0.27008626 -0.34028643 -0.40133774 -0.47652543 -0.592606 0.051706605
00000000: 481e 10bf 1a2a c2be 003f 763d 6590 1cbf
00000010: a898 d5be c694 13bf 9dac 0fbf 5983 763f
00000020: 8160 29bf defa fdbe 1969 acbe bde2 2fbf
00000030: a40c 13bf b144 32bf fd7d 0ebf 9b1c 833f
00000040: fbc2 6c3f 1af5 01bf c312 533f 2240 58be
00000050: eb42 5cbe f094 4a3f d21e b5be 1b00 83bc
00000060: c486 83be 2717 fabe 6656 c6be 96fe 28bf
00000070: 497e 96ba 0058 5c3d 70eb a3be 969c 18bf
00000080: 0def d2be 5dd8 22bf 7040 1ebf 5fba 1cbf
00000090: 1cab 04bf b522 c3bd aa77 2dbf 7358 903b
000000a0: c044 ebbe 3610 12bf 6812 46be 4016 febe
000000b0: 931a ddbe 107f 17bf 4673 05be 1ffe 2bbf
000000c0: 7c49 18bf 68ee 07bf b285 a13d 40aa fbbe
000000d0: c030 b2be 6a8c 29bf 60e7 40bf d5f3 26bf
000000e0: bbd6 a8be 52c9 183f 6bc6 9e3e f2c6 cfbe
000000f0: 8ab2 d3be 95cc a7be e9fc 2abf 850c 3ebe
00000100: f989 12bf b96c e9be 1841 17bd ff7a f1be
00000110: e975 9cbe 2e01 ccbe 716b 2dbf de06 3a3f
00000120: 5e64 2bbf ffa0 ebbe 317f debe 1d00 18bf
00000130: 71e2 cabe d132 44bf 85e4 e8be 573a 3f3f
00000140: 1f42 763f 67fa 2cbf 8d49 663f 5832 dcbe
00000150: ff91 4dbe 57fd 403f 136a a5be 96aa 9fbd
00000160: 6828 8abe 6838 a6be 86ef 15bf 3950 07bf
00000170: 8b60 4cbe c87d ecbd 428c 79be 6bd3 cebe
00000180: f0e2 f7be e98d 05bf b3b0 fcbe 1476 09bf
00000190: 12cf 50bf acc7 97be e49d 36bf 4da8 01bf
000001a0: efd0 29bf eb19 09bf ab79 d6bd 3115 12bf
000001b0: 659b f0be b3bb 31bf 48db 12bf 3548 2abf
000001c0: 6ad8 dabe 5c91 1cbf 62c2 bb3d 7db2 12bf
000001d0: ca72 2fbe 9b00 2abf b392 52bf 5ce1 11bf
000001e0: 43b8 b9be 5925 823f bf48 8a3e 063a aebe
000001f0: 247c cdbe 24fb f3be 07b5 17bf 4eca 533d

fc2.bias f4 [2]
-0.40462875 -0.46086702
00000000: 802b cfbe c3f6 ebbe
