DeepAcTS/networks/intermediary/OLD_Runs/intermediary_vartransnet_rX_1000.pth (torch, 38535 bytes, 10 tensors)

fc1.weight f4 [64, 1]
000000 5e 93 69 3f f4 86 51 bf 82 a1 42 bf 90 ce 39 be
       0.9124049 -0.8184655 -0.7602769 -0.18145204
000010 c4 1c ec be 32 7f c5 3e 5c 17 d3 be 00 4b 9a 3d
       -0.46115696 0.38573605 -0.4122876 0.07533836
000020 ef 2a ac be 60 29 bb be 8d d9 f2 3e 28 ac 79 bf
       -0.33626506 -0.36555004 0.47431603 -0.97528315
000030 14 1b da 3e 84 f8 f8 bc 97 8d 6d 3f cb 1f 50 3f
       0.42598784 -0.030391939 0.92794174 0.8129851
000040 ec a0 49 bf c8 9e 99 be 92 c0 74 bf 4d d3 40 3f
       -0.7876117 -0.30003953 -0.9560634 0.7532242
000050 14 b8 3f 3f 20 b3 5f bf 40 7d 8f 3d 80 58 73 bc
       0.74890256 -0.873827 0.070063114 -0.014852643
000060 a0 f2 1a 3d 74 d7 76 bf 63 b0 e4 bd b5 a5 51 3f
       0.03782904 -0.96422505 -0.111664556 0.81893474
000070 01 ce 59 3f b0 70 92 3d 00 f7 c4 3d b8 12 dd be
       0.8507996 0.071504 0.09617424 -0.43178344
000080 9e 8b 06 3f 07 ee 21 bf 9a cc 6a 3f 6c 06 fb be
       0.5255679 -0.63253826 0.9171845 -0.49028337
000090 c0 64 be be 3d 36 82 3f 88 88 2d 3f fe b4 10 bf
       -0.3718624 1.0172802 0.67786455 -0.5652617
0000a0 11 1b 46 bf 5f ed 3b 3f a4 1f 2a bf 52 2e 7d bf
       -0.7738505 0.73409075 -0.6645453 -0.98898804
0000b0 68 c9 b5 3e ec 8c ce be c1 32 96 3d 0a 3f 8e 3e
       0.35505223 -0.4034189 0.07333899 0.2778247
0000c0 c8 a7 15 3e 80 3f 0b 3d 74 3a 1b bc b8 51 9f be
       0.14614785 0.033996105 -0.0094743855 -0.31117034
0000d0 8c e6 0c bf e2 2f 1e 3f d8 fe fe be 06 50 32 bf
       -0.55039287 0.61791813 -0.49803805 -0.69653356
0000e0 d6 a3 13 3f 7c 73 cb 3e 40 f5 81 3d 0a a2 4a bf
       0.5767187 0.39736545 0.06345606 -0.791535
0000f0 9c b5 40 bf e0 ab 89 3d 12 d2 74 bf ef 01 ed 3e
       -0.75277114 0.06722236 -0.9563304 0.46290538

fc1.bias f4 [64]
000000 e4 67 4e 3f 2f 46 70 3f 2b 83 38 3f e0 b4 ca be
       0.80627275 0.9385709 0.72075146 -0.39591122
000010 9d 48 eb 3e 04 9c 1a 3f 48 02 60 bf 70 32 0e bf
       0.45953837 0.6039431 -0.8750348 -0.5554571
000020 d5 d9 03 3f 61 91 04 3f 74 bf b8 3e a4 b0 cb be
       0.5150426 0.5178433 0.36083567 -0.39783204
000030 b0 3b 3c 3f e6 ef d3 3e 8c c3 d4 be 4f d0 5b 3e
       0.73528576 0.41393965 -0.4155544 0.21466182
000040 a1 6c 2b 3f f2 06 5a 3f ab 76 25 3f ab 0b ec bd
       0.6696263 0.8516685 0.646342 -0.11525663
000050 8f 00 4c bf db 9d 56 3f 00 2d 3c bf da 88 21 bf
       -0.7968835 0.8383462 -0.73506165 -0.63099444
000060 34 78 ba be 3a 80 44 bf f3 d7 d7 3e 79 01 67 3f
       -0.36419833 -0.7675816 0.42156944 0.9023662
000070 3b f0 8c bd 20 e0 60 be 00 80 fe be 70 45 da bd
       -0.06881758 -0.21960497 -0.4970703 -0.106577754
000080 62 33 94 bd b6 d5 60 3f dd e9 49 3e 61 4f 24 3f
       -0.07236363 0.87826097 0.19718118 0.6418362
000090 84 37 c9 be d4 02 a0 3e 58 47 3d bf c0 f5 29 3f
       -0.39300168 0.31252158 -0.73936987 0.6639061
0000a0 93 59 68 3f 27 60 11 bd 58 a1 0d be 08 86 4c bf
       0.9076168 -0.03549209 -0.13831079 -0.79892015
0000b0 82 ab 5e bf f1 68 17 3f 9d 23 a7 bd 48 a9 14 3f
       -0.8698045 0.591445 -0.081610896 0.580708
0000c0 24 13 7b bf cc 3f 7b bf 24 11 4d 3f 3e fe 4e bf
       -0.9807608 -0.9814422 0.8010428 -0.8085669
0000d0 e6 d1 28 3f e0 fc 41 be 9e ea 05 bf 2e f2 7b bf
       0.6594528 -0.1894412 -0.5231112 -0.9841641
0000e0 2a f7 6b bf 9c 63 39 bf 88 a2 46 be dc e2 40 3f
       -0.9217402 -0.72417617 -0.19397938 0.7534616
0000f0 78 91 a1 be 50 9a aa be 38 f4 32 3f 4f a9 10 3f
       -0.31556296 -0.33320856 0.699039 0.56508344

fc2.weight f4 [64, 64]
000000 a5 2c 62 3d 7b 32 a8 3d 40 5c b6 bd f2 3f df 3d
       0.055218358 0.082127534 -0.08904314 0.109008685
000010 b8 b7 ea 3d 68 dc 38 3d 1c 2e d4 bd 28 34 c0 bc
       0.11460823 0.04513207 -0.10360357 -0.02346237
000020 c1 35 c7 3c b8 a9 06 bd 8f 27 5c 3d 24 0a 88 3d
       0.024317624 -0.0328767 0.053748664 0.06642559
000030 b9 11 99 bc 7b 1a c0 3d ff 4d 08 3d c0 1d 3b bc
       -0.018685209 0.09380051 0.033277508 -0.011420667
000040 0a ee 1c 3d 58 66 41 3c 89 ca d2 bd a9 02 67 bd
       0.03831295 0.011804186 -0.10292537 -0.05639902
000050 c9 1c e9 bc 30 7e 12 3d 60 54 19 bc a4 07 ce bd
       -0.028456109 0.035764873 -0.0093584955 -0.10060051
000060 e2 e5 f4 bd 18 65 02 3d 60 81 34 bd 7f 6b 06 be
       -0.11957909 0.03183469 -0.044068694 -0.13126944
000070 06 f7 86 bd 90 98 18 3c a0 27 ff bb 90 58 04 bd
       -0.06590085 0.0093137175 -0.007786706 -0.032311022
000080 c1 a7 ec 3d 1e 95 a6 bd 54 d6 fe 3c ef fc ce bc
       0.11555434 -0.081339106 0.031108059 -0.025267093
000090 1e 62 a2 bd 10 41 f2 3d 12 53 80 3d f1 d4 93 bc
       -0.079288706 0.11828816 0.062658444 -0.018045874
0000a0 b5 a0 63 3c f4 8b a1 3d c0 4d d0 3b 50 b4 7f 3d
       0.013893296 0.07888022 0.006356925 0.06242782
0000b0 64 d8 d1 3d 0b 82 7b bd d0 71 df 3d 57 7e 04 be
       0.10246351 -0.061403316 0.1091038 -0.1293882
0000c0 50 f7 3d 3d b2 6a b8 3d 67 9b d7 bd c4 7d 15 3d
       0.046378434 0.090047255 -0.105276875 0.036496893
0000d0 11 6c a9 bd ea ab 39 bc d8 fa 0d bd 50 3e fe 3c
       -0.08272565 -0.011332491 -0.03466305 0.031035572
0000e0 4e a3 b8 3d 00 8e 87 bc 78 82 8b 3c 91 65 14 be
       0.09015523 -0.016547203 0.017029986 -0.1449187
0000f0 d2 3c af 3d 0a 0e b6 bd ed ef c5 bd 04 c0 92 bd
       0.085565224 -0.088893965 -0.09664903 -0.0716553
000100 0a 85 ce bb 14 93 2f bd a3 2a f3 bd 90 f1 b2 bc
       -0.0063024806 -0.042864874 -0.11873367 -0.021843702
000110 2e eb a3 3b 97 ed cb bc d8 24 34 3d 70 7b aa bd
       0.005002401 -0.024893565 0.04398045 -0.08324325
000120 70 6d a4 3d 68 a8 c8 3d 0e a7 9f bc 08 fd a8 bc
       0.08028686 0.09797746 -0.019488838 -0.020628467
000130 05 0c a4 3c df 0b 7f 3d ae 0a ff bd 96 59 81 3d
       0.020025263 0.06226718 -0.12453209 0.06315915
000140 af bd 0b be 1b 52 d4 3c 85 01 d4 bd d2 e9 ac bb
       -0.13646577 0.025918057 -0.10351852 -0.005276897
000150 4e 34 36 bb 03 ae ee 3b 68 ee 97 3d c2 d8 93 3d
       -0.0027802172 0.0072839274 0.07418519 0.07219078
000160 14 5c 14 3d 74 41 77 3d 4f 9d 91 3c 8c f2 3d bd
       0.036220625 0.060365155 0.017775206 -0.04637389
000170 5b 0e c7 bd 88 83 33 bd ac 5c 99 3d 9c 32 c5 bd
       -0.09719535 -0.04382661 0.07488379 -0.096287936
000180 20 8e 17 3d d7 e8 c4 bd 7c f2 33 3d c9 29 0e 3d
       0.037000775 -0.09614723 0.043932423 0.03470782
000190 fa 7a 88 bd 1f 0b bf 3d b2 98 a5 3d 57 49 19 bd
       -0.06664081 0.09328293 0.08085765 -0.037423458
0001a0 ee 21 fb bc be 5a 97 bd e8 8c 9d bc 48 0a 9e 3d
       -0.030655827 -0.073903546 -0.019232228 0.07716805
0001b0 2a 93 d9 bd 08 17 ad bd 47 3f 8e 3d 3d 7b e7 bd
       -0.106237724 -0.084516585 0.06945663 -0.11302803
0001c0 94 56 f5 bd 60 a6 ff 3b 5a f4 1c 3d b8 4f a0 bd
       -0.11979404 0.007801816 0.03831897 -0.07827705
0001d0 87 57 43 be b1 d2 ad 3c e0 32 25 bc c0 58 cf bc
       -0.19076358 0.02121863 -0.01008293 -0.025310874
0001e0 9c 1e 9f 3d 3a 56 dd 3d a8 88 f3 bd b2 39 fd bd
       0.0776951 0.10807462 -0.118912995 -0.1236452
0001f0 c8 72 9a bd d8 cc c2 3c 0a 6d 69 3b 9b 96 9a 3d
       -0.07541424 0.023779318 0.003561797 0.07548257
000200 24 84 3a bd f8 f8 9c 3c ee 44 c1 3d 18 b6 dd bd
       -0.045536175 0.019161686 0.094369754 -0.10825747
000210 00 a0 d4 3b d4 9e 8c bd c8 67 f5 3c 4a e5 db 3d
       0.0064888 -0.068662316 0.029956713 0.10737093
000220 fa 85 dc bd f8 f6 49 3d 90 90 ff 3d 8c 4c 6e 3d
       -0.107677415 0.049307793 0.12478745 0.05817847
000230 98 ac a0 3c 98 a1 16 3d e4 d0 c2 bd 3c 1d 8f bd
       0.01961355 0.0367752 -0.09512499 -0.06987998
000240 c4 b1 53 bd 68 ff b7 bc a0 61 e5 bb 86 48 de 3d
       -0.051683202 -0.022460654 -0.007000163 0.108536765
000250 3e 04 bc 3d d4 4b 09 bd 0c 1b e4 3d f8 5f b4 3c
       0.09180497 -0.03351958 0.11137971 0.022018418
000260 1a 7c 85 bd 9c eb 9e 3d c0 c7 bb 3c 68 6d dd bc
       -0.06517811 0.07759783 0.022922397 -0.027029708
000270 a0 18 11 3d aa a1 8d 3d 40 c2 ef bb 30 ae ef bd
       0.035423875 0.069156006 -0.0073168576 -0.117031455
000280 88 80 cf bc 30 9f aa bc 40 db 4b 3c 88 84 e8 bc
       -0.025329843 -0.02082786 0.01244241 -0.028383508
000290 80 7b 08 3d c0 4d 87 bb 4c b8 c8 bd d8 02 e4 3c
       0.033320904 -0.0041291416 -0.09800777 0.027833387
0002a0 74 da 61 bd 86 d8 da bd a8 e9 97 3c ce a3 e8 bd
       -0.055139974 -0.1068583 0.018544033 -0.11359368
0002b0 ca 68 de bd 3c 90 f3 3d 20 da 42 3c c0 52 06 bd
       -0.10859831 0.11892745 0.011892825 -0.03279376
0002c0 e4 88 bd 3d a8 99 3d bd e0 dc d7 bd 1a 65 e8 bd
       0.092546254 -0.046289116 -0.105401754 -0.113474086
0002d0 d4 98 ff bd 40 b2 7e bb c4 be 19 bd c2 da 9b 3d
       -0.124803215 -0.003886357 -0.037535444 0.07610084
0002e0 b8 f5 74 bd 66 56 90 bd 90 eb fe 3d 6e f8 91 bd
       -0.05980465 -0.07047729 0.12447274 -0.07127462
0002f0 40 04 97 bc 8a 81 e0 3d f4 e3 c0 3d d8 15 d9 3d
       -0.018434644 0.109622076 0.094184786 0.105998695
000300 4e b8 e1 bd c0 17 f7 bd 16 9b 0f 3d 70 ab 1a bd
       -0.110214815 -0.12065077 0.03506001 -0.03776115
000310 32 1d 78 bc 89 73 df bd 3c 86 b0 3d 32 13 e6 bd
       -0.015143679 -0.109107085 0.08619353 -0.1123413
000320 b0 83 b2 3c 64 2a 8f bd 29 33 c4 bd 16 85 bc bd
       0.02179131 -0.06990507 -0.095800705 -0.09205072
000330 54 d3 8c 3d 3c fa 11 be 0e a8 1d 3e ae 1f 65 3d
       0.06876245 -0.14255613 0.15396139 0.055938415
000340 6f f8 3b bd 53 54 89 3d 9f 04 cd bb 2e 8f 8c 3d
       -0.04589122 0.06705537 -0.0062566544 0.06863247
000350 39 88 e2 3d b8 1b 0b be 10 1b 05 bd 68 db be 3c
       0.11061139 -0.13584793 -0.032496512 0.02329798
000360 e2 24 b2 3d 54 0f 10 bd bf 4a 13 bd e3 16 c4 bd
       0.08698441 -0.035170868 -0.035959955 -0.09574678
000370 3b ad 02 3e d8 1e e7 bd f4 97 c6 3d d8 b0 7a bd
       0.12761395 -0.1128518 0.096969515 -0.061203808
000380 13 c1 05 3e 8b 1c 09 be 24 34 e3 3d ea 92 54 be
       0.13061933 -0.13389795 0.110939294 -0.20759168
000390 00 59 de 3c d7 29 fa 3d 70 5b 8a 3c 95 22 58 bd
       0.027142048 0.122150116 0.016889304 -0.052767355
0003a0 12 7f 11 be 8a 4a 0c 3e 1c 86 3d bd a0 6b c4 bd
       -0.1420863 0.1370031 -0.046270475 -0.0959084
0003b0 90 26 cf 3d 6d e5 28 bd 3b 6a 96 3d c5 97 28 bd
       0.10114777 -0.041234422 0.073444806 -0.041160364
0003c0 d6 3b df 3d e8 f2 f1 bd 5e d9 96 3d c0 80 c9 bb
       0.10900085 -0.11813909 0.07365678 -0.0061493814
0003d0 ef ec 32 be 41 09 06 3e 7e fa b9 bd c8 0e 79 bd
       -0.17473195 0.13089468 -0.09080981 -0.060805112
0003e0 c2 30 b3 bd fc ad 6d 3d 0a f6 bd 3d 36 3a 14 bd
       -0.08749534 0.058027253 0.09275444 -0.036188327
0003f0 20 a7 4c 3c 20 b0 5c 3c 79 17 a3 bd 89 4b d2 3d
       0.012491018 0.013469726 -0.079634614 0.102683134

fc2.bias f4 [64]
000000 e3 15 68 bb 66 0e 35 bd 48 92 cd bc 7d ff 13 3d
       -0.0035413436 -0.044203185 -0.025094166 0.036132324
000010 70 41 0e bd af 99 40 bd d0 9b 90 3d c3 b2 d3 3c
       -0.034730375 -0.047021564 0.07060969 0.025842076
000020 01 29 2b 3d d7 91 da 3d 25 62 0b 3d 0c 1c d4 bd
       0.04178715 0.10672348 0.034029145 -0.10356912
000030 0f ae 0d 3d d0 d4 98 bc 8f d8 d4 bd 52 14 6a bc
       0.034589823 -0.018656164 -0.10392868 -0.014287071
000040 a6 e4 88 3d cc b3 cc bd 7c 54 51 3d 67 f6 96 3d
       0.06684236 -0.09995231 0.05110596 0.07371216
000050 95 ac fa bd 57 e4 76 3d b3 2e 1c bc 14 d7 51 3e
       -0.12239949 0.060276356 -0.009532618 0.20492202
000060 e4 6d 49 3d 1b 66 1d 3d 4c 0b c5 3c 10 70 65 bd
       0.049177065 0.038427453 0.024053238 -0.056015074
000070 cf 87 97 3d 2d 98 9b bd 54 1e d7 bd 24 ee 85 3d
       0.0739895 -0.075973846 -0.105038315 0.06539562
000080 66 5d 20 3e 6f bd 86 bd e4 1e c0 bd 03 d5 48 bd
       0.15660629 -0.065791 -0.09380892 -0.04903127
000090 b0 54 58 3c 6b 73 9c 3c 92 c7 90 3d 48 37 38 3d
       0.013203785 0.019098004 0.07069315 0.044974595
0000a0 21 d5 92 3e 8a 19 d1 bd e7 19 4f 3e ce 95 d3 3d
       0.2867823 -0.10209949 0.20224725 0.10331307
0000b0 ab c7 12 3d 6c 9d 7e bd d8 bd 01 3d fe f3 46 bd
       0.03583495 -0.062161848 0.03167519 -0.048572533
0000c0 de fc a0 3c 8c a0 ca 3d f0 01 c8 3c 9c 6a dd bd
       0.019651826 0.09893903 0.024414986 -0.1081135
0000d0 b0 2b b0 3c fd af 06 bc 7e f4 66 3d 30 ca d7 bd
       0.021505207 -0.00822067 0.05638551 -0.10536611
0000e0 dc 54 cd 3d 4a b7 a1 bd 64 ee 33 3d da c7 db 3d
       0.10025951 -0.07896288 0.04392852 0.10731478
0000f0 72 9a fc bd 6c ed 20 3d 80 49 05 3c 3c 46 89 3d
       -0.123341456 0.039288923 0.0081352 0.06702849

fc3.weight f4 [64, 64]
000000 67 01 33 3d 21 43 b2 bd ec 68 7d bd 49 08 f2 3c
       0.04370251 -0.0870421 -0.06186764 0.029544966
000010 7a 17 f5 bd b5 a4 cd 3d b0 05 72 3c fc 45 a2 bd
       -0.119673684 0.10041181 0.014771864 -0.07923505
000020 74 d8 71 bd 3e 6e 83 bd f9 d7 92 3d 0c 4e 46 bd
       -0.059044316 -0.064175114 0.071701 -0.048414275
000030 b2 ff bf bd 12 10 8e bd 5b 29 14 bd 13 67 ca bd
       -0.09374942 -0.06936659 -0.036172252 -0.09882941
000040 ac dc 67 3d ca 82 b6 bd fe 07 c1 bc a0 07 f7 bd
       0.056606933 -0.08911665 -0.023563381 -0.12062001
000050 a8 80 79 3c 5e b7 be bd 70 e5 9b 3c 7e a8 e8 bb
       0.015228428 -0.09312318 0.019030303 -0.007100164
000060 0c 0d bc 3d 82 42 86 bd 30 50 ce 3c 48 d9 a8 bd
       0.09182176 -0.06555654 0.02518472 -0.08244568
000070 50 3f 1f 3c d1 5c 40 3c 10 44 9c 3d 88 61 c9 3d
       0.009719685 0.011740879 0.076301694 0.09833056
000080 79 69 2f bd ec 30 62 bd d0 75 f6 3d 1a 8e e2 bd
       -0.042825196 -0.055222437 0.1203419 -0.1106226
000090 b0 65 44 3c 8e 2b a9 3d 5d 0b eb 3c f6 19 fd bd
       0.011987135 0.082602605 0.028691942 -0.12358467
0000a0 82 40 a8 bc 90 88 66 3c 81 a7 b8 3c 6a 81 80 3d
       -0.020538572 0.014070645 0.02254081 0.06274684
0000b0 92 c5 bd 3d d0 31 7e bc e8 0d ea bd f6 60 93 3d
       0.09266199 -0.015514806 -0.11428434 0.07196228
0000c0 33 9d d0 bd 3e c2 83 bd a0 a1 d0 bd d8 ed a5 bc
       -0.10186233 -0.06433533 -0.101870775 -0.020255014
0000d0 aa aa c3 3d ce 55 8f bd 3c cf 64 3d 93 81 05 be
       0.09554036 -0.06998788 0.055861697 -0.1303771
0000e0 99 78 db bd df f8 2f bd f3 e9 a8 bd 40 aa 67 bb
       -0.107163616 -0.04296195 -0.08247747 -0.003534928
0000f0 e8 e3 40 bd 80 42 8d bc d0 5a db 3d 40 6f 06 bc
       -0.04709235 -0.017243624 0.107106805 -0.008205235
000100 2a f0 f6 bd 8c c9 3a 3d 58 34 eb bc f3 98 9e bc
       -0.120575264 0.045602366 -0.028711483 -0.019360041
000110 0c 07 24 3d 08 41 db bd 00 8b c8 3c 04 7f c8 bd
       0.040045783 -0.10705763 0.024480343 -0.09789851
000120 9e a5 06 be 1c f6 14 bd f8 f7 1a 3d 00 e3 86 bc
       -0.13149115 -0.03636752 0.037834138 -0.016465664
000130 f0 9c 48 3c 04 86 31 3d da 7b d9 bd 72 e6 a9 3d
       0.012244448 0.043340698 -0.10619326 0.08295907
000140 a0 d6 d0 3c 18 dd 99 3c ea 3f 9e 3d 08 23 f7 3d
       0.025492966 0.018782184 0.077270344 0.120672286
000150 c4 83 ac 3d 39 f1 7b 3a 38 85 b1 3d bc 9c 7b bd
       0.0842357 0.0009610835 0.086679876 -0.06142877
000160 56 b4 8b bd a3 ec 12 be b1 20 48 be 6c 17 7f 3d
       -0.06821506 -0.14348082 -0.19543721 0.062278196
000170 1c ca f6 bd 74 88 04 3d 88 00 22 3d 74 f8 4e bd
       -0.12050268 0.032356694 0.039551288 -0.050529912
000180 3e 43 f3 bc b0 93 59 3c b4 ca 67 3d 12 ef cd bd
       -0.02969515 0.01327984 0.056589797 -0.10055365
000190 74 fb 07 3d 20 8b 19 bc 18 95 6f bd 44 fc 23 3d
       0.03319879 -0.009371549 -0.058491796 0.0400355
0001a0 a0 db 5a be 3c eb 41 3d eb 09 ca be 28 51 60 bd
       -0.21372843 0.047343478 -0.39460692 -0.054764897
0001b0 65 8c 44 be 80 aa b7 3d 58 b6 14 3d 80 ba 72 bb
       -0.19194181 0.08968067 0.03630671 -0.0037037432
0001c0 35 ed 06 be e6 ef a6 3d b2 b1 82 bd b0 fc ac bd
       -0.13176425 0.08151226 -0.06381549 -0.08446634
0001d0 74 fe 1b 3d c8 57 14 3d 2f b9 c8 bd 8e e5 a9 3d
       0.038084462 0.036216527 -0.09800946 0.08295737
0001e0 20 4a d3 3b f0 22 72 bc a0 6f 23 bd 98 d9 b3 3c
       0.0064480454 -0.014778838 -0.039901376 0.021954343
0001f0 9a 77 91 3d 58 33 85 3d e0 bb 02 3c 58 fe 2f bd
       0.0710289 0.06503934 0.007979363 -0.04296717
000200 4b 17 dc 3d 04 78 fd bd 04 a7 d4 bd 32 50 97 3c
       0.1074663 -0.12376407 -0.10383418 0.018470857
000210 8c e2 32 bd 04 7e cd 3d 7a ec 7c bc e0 c1 a7 3d
       -0.043673083 0.10033801 -0.01543724 0.081912756
000220 79 ea 1a be c0 db 00 3d 01 a5 05 bd 86 ac a3 3d
       -0.15128507 0.03145957 -0.032628063 0.079918906
000230 a6 4b b7 bb 37 2d 5c bc 80 04 8a 3d 75 a9 63 bd
       -0.005593735 -0.013438514 0.067391396 -0.05558153
000240 e8 a2 cf bc 00 14 c1 bc 58 1f 8c 3d 6b e2 06 3e
       -0.025346234 -0.023569107 0.06841916 0.13172309
000250 13 9f df bd 46 fb 0b bc 22 55 96 3d b4 b6 05 3d
       -0.10919013 -0.008543795 0.073404565 0.032644942
000260 b4 24 ca 3d bb 3a c2 bc 34 0a 4a 3d 6e 0f a4 3d
       0.09870282 -0.023709645 0.049326137 0.080107555
000270 bb ae e9 3d 33 4b d9 bc e4 9f f4 bd 72 e6 17 bd
       0.1141028 -0.026525116 -0.11944559 -0.037085004
000280 02 9e 00 be 25 93 af 3c 72 07 44 bd ec 26 9b bd
       -0.12560275 0.021432469 -0.047858663 -0.07575783
000290 88 b6 2c bd 29 ea d8 3d a7 ec 9b bc 30 b2 ce bd
       -0.042166263 0.105915375 -0.019033743 -0.1009258
0002a0 ec a3 1b be 88 29 fa bc 0c 78 30 3d 40 7e 97 3c
       -0.1519925 -0.030537382 0.043083236 0.018492818
0002b0 8f a9 15 bc 6a c8 93 3d 50 01 6a 3c 8b 40 73 3d
       -0.009134664 0.0721596 0.0142825395 0.059387725
0002c0 4b 1f d1 bd 28 04 d4 bc 50 29 de 3c 58 c1 69 bd
       -0.10211047 -0.025880888 0.027119309 -0.057069153
0002d0 a6 e4 91 bd 38 1f bc bc c5 69 e1 bd 93 84 43 bd
       -0.07123689 -0.022964105 -0.11006502 -0.047733855
0002e0 48 19 77 bd 53 ea e6 3d fb 65 4c 3d fe 16 8f 3d
       -0.060326844 0.112751625 0.049901944 0.06986807
0002f0 b0 cb 67 bd 46 c7 61 3d 64 03 a2 3d 42 26 af 3d
       -0.056590736 0.055121683 0.07910803 0.08552219
000300 18 c0 32 3b 83 b0 d5 bd 7a 90 ef bd 44 b6 5f bd
       0.0027275141 -0.104340576 -0.116974786 -0.05461718
000310 e8 d3 cb 3d 43 f6 a0 bb 30 93 a8 bd ba 82 81 bd
       0.09952527 -0.004912169 -0.08231199 -0.06323762
000320 35 63 74 3d d8 04 e4 3d 87 4c fc bd 00 13 bc ba
       0.059664924 0.11133736 -0.12319284 -0.0014348924
000330 b2 36 23 bd 10 78 12 3d 5a 61 aa bd 62 2b 8c bd
       -0.039847083 0.03575903 -0.083193496 -0.06844212
000340 44 57 79 3d 54 be e2 3d c6 c1 c0 bd 54 70 e8 bd
       0.06087424 0.110714585 -0.09411959 -0.1134955
000350 a1 b0 9c 3c 19 a4 8f 3b ab 5d b5 3d 09 1f 06 bd
       0.019127192 0.0043835756 0.08855756 -0.03274444
000360 d6 df ae bd 4e 79 d6 bd 14 55 38 bd ba 2f ba 3d
       -0.08538787 -0.10472356 -0.04500301 0.09091134
000370 e2 c7 a5 3c db 72 96 3d 18 aa e8 bc d4 c8 85 bd
       0.020236913 0.07346126 -0.02840142 -0.065324455
000380 ca 98 c1 3d 6d c8 61 3d 93 7b 50 ba 4e 4f 63 bd
       0.0945297 0.05512278 -0.00079529843 -0.055495553
000390 ec c1 55 bd 10 91 c8 bc 42 8a b5 3c 20 e7 6a bc
       -0.05218689 -0.024483234 0.022160653 -0.014337331
0003a0 be 72 2a bd 82 db 92 bd 26 a1 9e bb 50 58 73 bc
       -0.041613333 -0.07170774 -0.0048409877 -0.014852598
0003b0 90 e1 d8 bc 48 4e df 3c e8 df ad 3c 55 7b 13 bd
       -0.026474744 0.027259007 0.02122493 -0.03600629
0003c0 54 a2 5a 3c ae f5 dc 3d 0c 22 1d 3d 0e de ae bd
       0.013344366 0.10789047 0.038362548 -0.08538447
0003d0 80 9b d7 3d f8 83 dd bd 52 57 fb 3b 5f 34 4a 3d
       0.10527706 -0.10816187 0.0076703215 0.04936635
0003e0 c5 ac 78 bd df a4 9c bc 5c 3e c4 bd 30 05 de 3c
       -0.06071164 -0.019121585 -0.095822066 0.027102083
0003f0 70 42 f2 bd b0 fb d8 bd 12 8e c3 3d 54 0c 47 3d
       -0.11829078 -0.105948806 0.09548582 0.04859574

fc3.bias f4 [64]
000000 c7 34 22 be 9f eb b7 3e 28 9f b2 bd 3b 55 5b bd
       -0.15840445 0.35921952 -0.08721763 -0.05354808
000010 bc 97 2b 3e 5a 5b e0 3d ad 65 1b be 25 09 56 3e
       0.16757101 0.10954924 -0.15175505 0.20901926
000020 0f 3d 36 be 47 30 86 3d 9c 78 41 bb 3c 6c 81 3e
       -0.1779673 0.06552177 -0.0029521352 0.2527789
000030 3c b7 78 bc 60 90 b6 3e 67 87 8e 3d c5 48 c9 3d
       -0.015180405 0.35657024 0.0695942 0.09828333
000040 75 60 72 3d d4 f5 19 bd 77 82 52 3e 52 40 fb bb
       0.05917402 -0.037587956 0.20557581 -0.0076675797
000050 6e f5 5e bc 2d e2 11 bd 92 ab 21 3e 74 f8 95 bd
       -0.01360832 -0.03561609 0.15788105 -0.07322779
000060 2d 8b 5a 3e f2 8d bd bd 8b 8a 82 3e 2b e2 ae 3c
       0.21342154 -0.092555895 0.25496325 0.02134808
000070 f5 1b 4e bd 97 55 9c bd ca fb 17 3e 10 3e bb 3e
       -0.05031963 -0.076335125 0.14842144 0.36570787
000080 05 e6 e4 bd 61 a5 2a 3e 90 07 fc 3a c3 29 c8 3d
       -0.11176685 0.1666465 0.0019228328 0.097735904
000090 a3 e7 11 be c2 18 91 3e af 31 ae 3e 01 ce 00 3d
       -0.14248519 0.283392 0.3402228 0.03144646
0000a0 39 89 8f 3e e4 a3 b6 bd 14 85 2e 3d 0a 47 0a 3e
       0.2803438 -0.089179784 0.042607382 0.13503662
0000b0 34 78 58 3d 71 e3 b7 3d d0 49 30 3d 6e 64 9e 3c
       0.05284901 0.08978928 0.043039143 0.019334998
0000c0 c3 11 c2 3d 78 86 9d 3e 75 26 0a bd d3 59 80 3e
       0.09476044 0.30766654 -0.03372808 0.2506853
0000d0 ff 6a 12 3f 44 ae e7 bc 11 21 54 3d ea b7 27 3a
       0.57194513 -0.028281339 0.051789347 0.000639795
0000e0 28 f9 74 3d db 0c 38 3d a4 27 1a be 07 d9 00 bc
       0.059807926 0.044934135 -0.15054184 -0.007864243
0000f0 a7 e4 99 3e 2c 6a a2 bd 99 2c c4 3d 17 ac 03 3e
       0.3005726 -0.07930407 0.09578819 0.12858616

mean_fc.weight f4 [4, 64]
000000 23 22 9e 3c 10 a2 0d 3e 9d 07 fd bb 35 f0 6b bd
       0.019303387 0.13831353 -0.007721855 -0.057602126
000010 33 da a1 be ac ef 83 3e 65 1f 95 3d 3b 6e 91 3b
       -0.31611785 0.25768793 0.07281379 0.0044381893
000020 7e ec 13 3e 02 6f a7 3e 52 ee 66 bc 39 66 1f be
       0.14445683 0.3270188 -0.014094906 -0.15566339
000030 64 a1 01 bd 1c 69 85 be 2e 5e fc 3d 37 12 aa 3d
       -0.031648055 -0.26056755 0.12322651 0.083042555
000040 3e 7f 0c 3d 4e b0 be bd 93 7c ce bd dd 43 77 3c
       0.034301035 -0.09310971 -0.100823544 0.015091863
000050 ef 38 14 bd 3e 56 50 bd 26 bc 33 be e4 5b 03 be
       -0.03618711 -0.050863497 -0.17552242 -0.12828022
000060 eb 47 17 3f 82 e9 b0 3d 94 dc d9 be e0 7b 99 bd
       0.59094113 0.08638288 -0.425511 -0.074943304
000070 05 00 ce 3d a1 42 97 ba 1c 9d bd bd 3f 9d c2 be
       0.100585975 -0.0011540243 -0.09258482 -0.38010594
000080 c2 de 0a be 3c d9 40 3e 37 75 63 bd 7e a1 d8 3d
       -0.13561538 0.18832868 -0.055531707 0.10577677
000090 7a b3 b1 3d 0d a7 7a bd 59 1e 61 be 0e a8 83 3d
       0.086768106 -0.06119447 -0.21984233 0.06428538
0000a0 20 11 d3 be 6b 0d fd 3d ef 0f 59 3e b1 08 aa be
       -0.41224003 0.12356075 0.21197484 -0.33209756
0000b0 bb c2 c7 3c 49 f8 6a 3e e2 37 d1 3e bc 68 38 be
       0.024384847 0.22946276 0.40862948 -0.18008703
0000c0 e2 0b c0 bb 59 89 8d be 25 6a b2 3e f1 4f aa be
       -0.0058607915 -0.2764385 0.34846607 -0.33264115
0000d0 7e b1 be be 74 16 1f 3d cd 6b 12 be f7 dd ad 3d
       -0.3724479 0.038839772 -0.14298935 0.08489602
0000e0 54 16 80 be 24 17 66 be de 59 9e 3d a2 0b 17 3d
       -0.25017035 -0.22469765 0.077319846 0.03687633
0000f0 bb 9a b0 be a0 11 f0 3c 7b d3 05 3e cd 85 8b be
       -0.3449305 0.02930528 0.13068955 -0.2725052
000100 dc 96 a2 bc f2 5c fe 3e 38 8d 76 3d a1 0b c4 bd
       -0.019847326 0.49680287 0.06019327 -0.095725305
000110 42 27 7a 3c 98 ef 89 3c 53 32 d9 3d 68 96 47 be
       0.015268149 0.01683788 0.10605302 -0.19490969
000120 3f 8c fe 3c bf 55 33 be 98 31 8d bc 30 a3 54 3e
       0.031072734 -0.17513178 -0.017235562 0.20765376
000130 75 fc 93 3d 9a ee 34 3e 12 51 0a be 5b 51 a3 3d
       0.07225887 0.17669144 -0.13507488 0.07974502
000140 a8 fb 83 3b 76 af bd 3d 29 d1 20 3e 69 aa 64 bd
       0.0040278025 0.09261982 0.15704788 -0.05582658
000150 c6 f6 1f 3e 43 36 b8 3d 69 9e d4 3d 46 1c 13 3e
       0.1562148 0.089947246 0.10381777 0.14366254
000160 39 ea 8c 3e a0 a0 04 3d ea 7f 6b 3e b4 ed 59 3e
       0.27522448 0.032379746 0.22998014 0.21282083
000170 30 1d 22 bd e5 82 76 bc 32 97 a0 bd 77 94 b7 3e
       -0.039578617 -0.015045856 -0.07841338 0.35855457
000180 fd 2e 79 bd d2 49 84 bd e9 00 6f 3e 95 b6 5b 3d
       -0.060835827 -0.064593926 0.23340191 0.05364092
000190 f6 32 17 3e aa 3e 6b 3b 8b a2 56 3e ca bd 15 be
       0.14765534 0.0035895505 0.20960443 -0.1462318
0001a0 8f 7e 5b 3e 24 e6 a8 3c f0 45 01 3e 4d 65 77 bd
       0.21434997 0.020617552 0.12624335 -0.060399342
0001b0 e2 e2 d2 bc f3 b6 9c be 05 f6 84 be 96 0e 2f bc
       -0.025742952 -0.3060833 -0.25968948 -0.01068463
0001c0 ed 8d a6 bc ac e7 dc 3c 7a b7 98 be 14 cc f7 bd
       -0.020331347 0.026965939 -0.29827482 -0.12099472
0001d0 e0 00 70 3e a1 89 0b be 8b 7e 91 3d 89 10 9f bd
       0.23437834 -0.1362672 0.07104214 -0.07766826
0001e0 ca 86 c8 3c 9a aa 3c 3e 6f d6 8c 3d 97 f8 7b 3d
       0.024478335 0.18424454 0.068768375 0.06151637
0001f0 f6 3e ad 3d 4c d4 81 3d ae 38 2b bd 96 90 47 3e
       0.084592745 0.063393205 -0.0418021 0.19488749
000200 45 bd 52 bd 59 08 01 3e b9 7d 21 bd ae 9c 28 bd
       -0.051450033 0.1260084 -0.03942654 -0.041165046
000210 f1 95 88 bd e1 a3 0b be a4 6a 96 bd 5c 64 62 3d
       -0.06669224 -0.13636734 -0.07344559 0.05527149
000220 94 d0 3a bb 17 b0 2e 3c 07 15 3b be 18 ae ba 3b
       -0.002850567 0.0106621 -0.1826974 0.005697023
000230 42 da 46 bc 8b 6e 6e bd 68 94 e6 bd 9f 55 45 be
       -0.012136998 -0.05821089 -0.11258775 -0.19270943
000240 72 99 0e be 28 07 6e 3c 7e ba 9b bd ce f9 b9 3b
       -0.13925722 0.014528073 -0.0760393 0.005675531
000250 24 df 59 bd f3 12 c4 bd d1 76 95 3d ec 95 8a bd
       -0.05319132 -0.09573927 0.07298053 -0.067668766
000260 2b 06 f2 3e 30 46 49 bc ab e4 a2 3d 44 f2 0d be
       0.4727033 -0.0122848 0.07953771 -0.13861948
000270 08 02 83 3c b0 40 a4 3a b9 94 62 be 69 29 cd be
       0.01599218 0.0012531485 -0.22127046 -0.40070656
000280 0d 11 7d bc 4b 7b 04 3e 3b 77 92 bc a6 c7 9a bd
       -0.01544596 0.12937658 -0.01787912 -0.07557611
000290 0c 34 a1 3d 3d 8b 84 3d 7c 3d 82 3a e5 43 91 bc
       0.07871255 0.0647187 0.0009936537 -0.01773257
0002a0 2b d7 9b 3d 51 48 d7 bd 08 56 f1 bd 3d ac 29 3d
       0.076093994 -0.1051184 -0.11783987 0.041424025
0002b0 90 c4 a5 3c 6a e6 98 3e f7 d4 b9 be 16 8b 0a 3e
       0.02023533 0.29863292 -0.36295292 0.1352962
0002c0 02 78 38 be 55 1f bc be 39 65 b5 3e c4 a5 d8 3d
       -0.1801453 -0.36742654 0.3542879 0.10578492
0002d0 b4 7e 03 3f 71 12 11 3d 18 62 18 bd fa 59 0c be
       0.5136521 0.035417978 -0.037202924 -0.13706198
0002e0 76 8f 0c be f7 47 50 be 0e 7d 21 bd 42 03 2f bd
       -0.13726601 -0.20339952 -0.039425902 -0.042727716
0002f0 56 95 9b be f0 15 c7 bd 47 41 9f bd 26 f6 02 3e
       -0.30387372 -0.09720981 -0.077761225 0.1278921
000300 1f 3f d2 bd 12 7a 96 be 5f f9 35 bd 8f 75 1d bd
       -0.10265946 -0.29390007 -0.044427272 -0.03844219
000310 d0 85 46 3e 23 7a 72 3d 4c 36 d4 3b 2c 5c cd 3e
       0.19386983 0.05919851 0.0064761993 0.40109384
000320 24 2f 7b bd 3f d5 6b be 84 a7 60 3d 95 6a b8 3e
       -0.061324254 -0.23030566 0.054847255 0.36018816
000330 38 fa 9e bd 47 48 a7 3e 64 5a c3 3c 39 09 05 3e
       -0.07762569 0.3267233 0.023846813 0.129918
000340 84 10 71 3d 1f af 2e bd 6d df b0 3e 4a 97 6f 3d
       0.05885364 -0.042647477 0.3454546 0.05849389
000350 a1 f4 6f bd 63 ed 72 3b 07 fe 9c 3d fb 6a b3 3d
       -0.058582906 0.0037067763 0.07665639 0.08760639
000360 97 80 7b be ae f5 c4 bd b4 3e 17 be 09 9c 14 bd
       -0.24560772 -0.09617172 -0.14770013 -0.03628162
000370 d9 6a 96 3d 81 f9 43 bc 88 d1 59 3d 92 67 63 be
       0.07344598 -0.011961342 0.05317834 -0.22207478
000380 d5 6c 02 bb f3 1d 3a bd f7 f7 8a be 26 d8 83 bd
       -0.0019901295 -0.045438718 -0.27142307 -0.064377114
000390 65 9c d7 bd 85 b0 ad 3e 6a 13 a1 3e 01 f8 c8 3b
       -0.10527877 0.33923736 0.31460124 0.00613308
0003a0 bc bd cd 3e 45 d9 c9 bd f7 c8 30 bd 83 2e 8c 3e
       0.40183818 -0.09855894 -0.043160405 0.27379236
0003b0 c5 b8 1d bd 99 7e ba 3e 40 94 03 bc d4 1f 03 3e
       -0.038506288 0.3642471 -0.008030951 0.1280511
0003c0 50 90 5a 3d 46 4a ae bd 16 26 f9 bd 06 b1 a3 3e
       0.053360283 -0.0851026 -0.121654674 0.31970996
0003d0 0a b1 d4 3e cc 70 9a bd 61 c9 d2 bb fa 5a 75 bc
       0.4154132 -0.075410455 -0.0064326976 -0.014975304
0003e0 28 85 05 3e f7 85 7f bd 09 77 e2 bd 2b 35 0b bb
       0.13039076 -0.06238362 -0.110578604 -0.0021241407
0003f0 37 9b 35 be 28 ff ca bd e0 49 01 3c 5d 48 bb bd
       -0.17734991 -0.099119484 0.007891148 -0.091446616

mean_fc.bias f4 [4]
000000 f2 65 ec 3d 08 b3 08 be 42 40 12 bd 74 19 6c 3e
       0.11542882 -0.13349545 -0.035705812 0.23056585

var_fc.weight f4 [4, 64]
000000 fd ae 0b be ae 8e 7a bf 9e 70 8f bf bc 80 a1 bf
       -0.13640971 -0.9787396 -1.1206243 -1.2617412
000010 0b ae e0 bf de 8c 8a c0 84 34 24 3d 32 ad c8 c1
       -1.7553114 -4.3296957 0.040089145 -25.084568
000020 d7 f6 9a c1 54 59 a3 c1 47 27 ae bf 67 7c d1 c1
       -19.370527 -20.418617 -1.3605736 -26.185743
000030 a4 8a 84 bd c9 88 cf c1 98 6f 98 c0 1c 88 d2 c1
       -0.06471756 -25.94179 -4.7636223 -26.31646
000040 6e c8 c5 c0 ba be bf c1 bf a5 cb c1 61 20 b3 bd
       -6.1807165 -23.968128 -25.45593 -0.0874641
000050 0b b4 83 c0 21 05 c1 c1 10 0a b0 c1 e4 8e 9f be
       -4.115728 -24.127504 -22.004913 -0.31163704
000060 d5 fa a8 c1 2c 4a a7 bd aa d7 b0 c1 12 63 cc c1
       -21.122477 -0.08168444 -22.105305 -25.548374
000070 2f ac dd bf b1 a0 6b c0 9f b8 d3 c1 6b 1b cc c1
       -1.7318171 -3.6816828 -26.465147 -25.513388
000080 26 f3 be be 1c 37 b3 bf 94 ea 1c bf ef f9 84 c0
       -0.37294883 -1.4001193 -0.6129544 -4.1555095
000090 b3 87 1d c0 fe b3 cc c1 7f bb ce c1 28 ad aa c1
       -2.4614074 -25.587887 -25.84155 -21.334549
0000a0 f8 6a d0 c1 70 82 44 c0 d9 4c a8 c1 dc 01 b2 bf
       -26.05223 -3.0704613 -21.037523 -1.3906817
0000b0 a2 b7 93 c0 e6 3c aa c1 69 ff aa c1 92 35 65 c0
       -4.616166 -21.279736 -21.374712 -3.5813947
0000c0 97 99 cf c1 95 a8 ce c1 db 8a a9 c1 d9 60 c1 bf
       -25.949995 -25.832315 -21.1928 -1.510768
0000d0 ba 1e a8 c1 1d c0 d3 be 75 56 cb c1 9e 3f aa c0
       -21.015003 -0.41357508 -25.417215 -5.320266
0000e0 18 ba aa c1 03 d3 d2 c1 65 97 12 c0 0d c2 a5 3d
       -21.340866 -26.353033 -2.2904904 0.08093653
0000f0 9e f3 c9 c1 48 9d 5c bd 52 30 99 c0 03 06 ad c1
       -25.243954 -0.053860933 -4.7871485 -21.627935
000100 db 05 32 be 6e ba 90 bf 15 fe 9f bf aa 46 a8 bf
       -0.17385046 -1.1306894 -1.2499415 -1.3146565
000110 b5 a1 d3 bf 2b 12 88 c0 ee 12 8a 3d f7 b9 c7 c1
       -1.6533724 -4.252218 0.06741892 -24.965803
000120 12 59 9b c1 d8 50 a4 c1 ca 1f ba bf c6 2f d0 c1
       -19.418491 -20.539474 -1.4540951 -26.023327
000130 9a 33 f2 bc a6 59 cc c1 22 f8 98 c0 4d d8 d0 c1
       -0.029565621 -25.543774 -4.7802896 -26.105616
000140 12 09 c4 c0 32 9c be c1 4c 12 c9 c1 ce 0e 65 3d
       -6.126107 -23.826267 -25.133934 0.055922322
000150 bf 83 79 c0 ef 68 c1 c1 aa f7 b0 c1 9b 16 83 be
       -3.8986661 -24.176237 -22.12093 -0.25603184
000160 e3 fc a7 c1 e0 a3 c1 3d cf 18 af c1 1c cb cb c1
       -20.99848 0.09455085 -21.887114 -25.474174
000170 4c c2 c6 bf 7f 6f 62 c0 5b e6 d1 c1 0c 1c cb c1
       -1.5528045 -3.5380552 -26.237478 -25.388695
000180 54 00 08 bf 7f d4 bc bf 87 d1 4c bf c2 ee 7c c0
       -0.531255 -1.4752349 -0.80007213 -3.9520726
000190 30 f3 20 c0 fb 9a ca c1 85 d8 cc c1 22 91 aa c1
       -2.514843 -25.325674 -25.605722 -21.320866
0001a0 2b f0 cd c1 15 0b 49 c0 9d 47 a7 c1 db 32 bb bf
       -25.74227 -3.1413014 -20.909967 -1.4624895
0001b0 aa cd 8e c0 72 7b aa c1 3c 84 aa c1 23 af 61 c0
       -4.4626055 -21.310276 -21.314568 -3.5263145
0001c0 7c 0a d0 c1 c8 cf cc c1 7e 78 aa c1 d1 e9 b5 bf
       -26.00512 -25.601456 -21.308834 -1.421198
0001d0 58 8f a8 c1 24 8e 04 bf 94 a0 ca c1 59 e5 a7 c0
       -21.069992 -0.5177939 -25.328407 -5.2467465
0001e0 b4 f5 aa c1 76 3f d2 c1 a9 7f 17 c0 cb 2f c3 bd
       -21.369972 -26.280987 -2.3671668 -0.095306
0001f0 26 18 c8 c1 98 d9 bd 3d 77 03 97 c0 0f d2 ac c1
       -25.011791 0.09270018 -4.719173 -21.602568
000200 d8 7c 9e 3c 5e f2 78 bf 5a b9 9b bf c9 67 ad bf
       0.01934664 -0.9724482 -1.216594 -1.3547298
000210 b9 32 e7 bf bd 06 8a c0 c6 e4 fd bd c1 96 c8 c1
       -1.8062354 -4.3133225 -0.12397151 -25.07361
000220 34 de 9a c1 59 40 a3 c1 a2 62 a2 bf d9 55 cf c1
       -19.358498 -20.40642 -1.268635 -25.916918
000230 b5 fb 5b 3d 2a 53 cc c1 ca 5f 96 c0 17 63 cf c1
       0.053706843 -25.540607 -4.699193 -25.923384
000240 5f 9c c6 c0 32 68 bf c1 ac 86 c9 c1 0c 9f d9 3d
       -6.2065883 -23.925877 -25.190758 0.10626039
000250 42 49 80 c0 7e 1d c1 c1 06 8e af c1 2c 73 18 be
       -4.0089426 -24.1394 -21.944347 -0.14887685
000260 46 d4 a7 c1 fc 0f f1 3d e8 92 ae c1 42 65 ca c1
       -20.97865 0.11770627 -21.821732 -25.299442
000270 b6 c8 d6 bf ad e8 5c c0 9d 5d d1 c1 57 7b ca c1
       -1.6780002 -3.4517014 -26.17071 -25.310225
000280 7e 40 a7 be a6 62 b1 bf b0 82 2a bf 44 09 82 c0
       -0.3266639 -1.385823 -0.66605663 -4.063631
000290 81 fc 1c c0 10 13 ca c1 6a 89 cb c1 91 ad aa c1
       -2.4529116 -25.259308 -25.442097 -21.33475
0002a0 a4 74 cd c1 43 bb 4a c0 59 b2 a7 c1 b7 df c1 bf
       -25.681953 -3.1676795 -20.962084 -1.5146397
0002b0 ac 31 8b c0 e5 8a a8 c1 d8 1f ab c1 8d 38 57 c0
       -4.3498135 -21.06782 -21.390549 -3.3628266
0002c0 77 1d cf c1 dd 0f cd c1 f0 42 aa c1 64 5e cc bf
       -25.889387 -25.632746 -21.282684 -1.5966306
0002d0 31 37 a7 c1 c4 78 08 bf a2 82 c8 c1 d7 b9 a8 c0
       -20.901949 -0.53309274 -25.063786 -5.2726855
0002e0 43 73 aa c1 ca 59 d1 c1 fa 51 12 c0 4b 32 79 3d
       -21.30628 -26.168842 -2.2862535 0.06083898
0002f0 8c 0e c9 c1 fc 41 28 bd 2c fb 99 c0 43 a7 ac c1
       -25.132103 -0.041078553 -4.8119106 -21.58167
000300 33 3f c2 bd 1b fb 99 bf 4f f0 9e bf f5 3e ac bf
       -0.094847105 -1.2029756 -1.2417086 -1.3456713
000310 5e c2 c9 bf c6 6e 8c c0 af 96 c9 3c 77 15 c9 c1
       -1.5762441 -4.388522 0.024607984 -25.13548
000320 b3 05 9c c1 af b9 a3 c1 9b 19 a9 bf c4 99 d0 c1
       -19.502783 -20.465666 -1.3210939 -26.07508
000330 c3 db 25 bc e6 2d ce c1 6d 37 9d c0 94 45 d1 c1
       -0.010123196 -25.772411 -4.913016 -26.158974
000340 0f 05 c5 c0 18 22 c0 c1 dc 79 ca c1 46 53 ce 3d
       -6.1568675 -24.016647 -25.309502 0.10074477
000350 39 ac 7e c0 16 b3 c1 c1 c3 dd af c1 5f 1c bf bd
       -3.9792616 -24.212444 -21.983282 -0.09331583
000360 b1 b0 a9 c1 e0 52 4c bd 8d 16 af c1 ed 1c cc c1
       -21.211275 -0.049883723 -21.886011 -25.514124
000370 84 ad cc bf 9a 74 6a c0 e5 83 d1 c1 79 a6 ca c1
       -1.5990453 -3.6633668 -26.189402 -25.331285
000380 cb 08 11 bf 2e 13 ad bf 7d bd 14 bf 72 5a 83 c0
       -0.5665404 -1.3521478 -0.58101636 -4.1047907
000390 b0 1c 27 c0 93 50 ca c1 a2 ae cc c1 fd 6d ab c1
       -2.611126 -25.289343 -25.58527 -21.428705
0003a0 c2 6d cf c1 20 e4 4f c0 93 24 a8 c1 24 ef c6 bf
       -25.928593 -3.2482986 -21.017859 -1.554173
0003b0 24 7d 92 c0 e1 97 a9 c1 bb db ab c1 5b 7e 5a c0
       -4.577776 -21.19916 -21.48229 -3.4139621
0003c0 94 f6 cf c1 28 fb cc c1 85 80 aa c1 a3 12 b1 bf
       -25.9954 -25.622635 -21.312754 -1.3833812
0003d0 0e 23 a8 c1 d4 17 1a bf c6 41 cb c1 69 39 ad c0
       -21.017117 -0.6019261 -25.407116 -5.413258
0003e0 33 41 aa c1 34 db d1 c1 3b fb 0b c0 07 94 1f be
       -21.281836 -26.232033 -2.187209 -0.15583812
0003f0 6c 01 c9 c1 0c 77 fc 3d 6b 3a 9d c0 ab 63 ad c1
       -25.125694 0.12327394 -4.913381 -21.673666

var_fc.bias f4 [4]
000000 38 a7 c5 c1 66 73 c4 c1 b4 94 c3 c1 3b fd c4 c1
       -24.70665 -24.556347 -24.447609 -24.623648
