DeepAcTS/networks/intermediary/OLD_Runs/intermediary_transnet_rX_1500.pth (torch, 3999 bytes, 4 tensors)

fc1.weight f4 [64, 5]
0.032880943 0.21053517 -0.6852754 -0.045063823 -0.32758433 2.1194024 0.74154514 1.489477
-0.1347771 -0.5195322 1.0104936 -0.40646458 -1.9126263 0.5514417 -0.18754342 0.12158963
-0.20148358 -0.14251602 -0.17008159 0.4052918 -0.11469762 -0.13324402 1.3454149 0.57447237
0.53804535 0.015346589 0.22089788 -0.77140796 -0.3338206 -0.5989253 1.4832054 0.41899016
1.2021911 -0.13952473 -0.37752488 -0.5715296 0.2811466 -0.2573608 -0.02492246 0.010471987
0.34406787 0.39895552 -0.3595492 0.2638177 0.03994823 -0.19022694 -0.6003215 2.1677613
0.48074332 0.06902373 -0.22586468 0.09661838 0.7182086 0.13319278 0.21702646 0.36793342
-0.19965038 0.4041615 -0.024188444 0.22814748 -0.16426261 0.46711016 -0.919177 0.32448184
0.26283506 1.3249679 0.045533378 -1.1274127 -0.38460496 -0.10484529 -0.7858895 -0.5925871
0.35773045 0.4661969 0.036547184 1.2174194 0.16408281 -0.7437441 -0.40194485 0.20199761
1.2438997 0.2213869 0.59349996 -0.18211664 0.092420265 -1.3871323 0.40290236 0.66503185
-0.68219763 0.32375205 0.052996915 -0.052371345 1.6944842 0.7159484 -0.19541313 -0.13520093
-0.3540825 0.14318246 -0.46850258 -0.4456258 0.25608563 -0.20218758 -0.49068484 -0.17334202
0.14951266 0.10378499 -0.0064623957 0.06485793 0.060139008 -0.43590578 3.2953227 0.6110823
0.04259775 -0.63874125 0.45602235 0.10572709 0.037087463 -1.7100787 -0.6174367 0.1057105
0.16971008 0.16687097 -0.008911945 0.03864807 0.034465604 0.76582277 0.5997327 -0.8937832
-0.49376562 0.017618177 0.68720365 -0.4327452 0.24505997 0.42145118 0.15446238 0.030731272
-0.6453109 -1.3035434 0.60511523 -0.066308446 -0.5487121 -0.06588617 -0.26301938 0.13584566
-0.26736617 2.0497134 0.19306298 -1.8994029 -0.72475153 -0.068492204 -0.56288886 0.35601574
-1.1489584 0.26058048 0.044418614 -0.5754628 0.27106005 -0.714516 0.12932152 0.35385844
0.35047078 -0.13331276 0.27138722 -0.0854709 -0.08966903 -0.26572877 0.044093877 -0.85231054
-0.12453905 -0.03258689 -0.34272864 0.07200842 -0.7119811 0.16665626 0.24251103 0.4914973
0.27545825 -1.644432 -0.35871533 -0.09738736 0.31408206 0.32177815 0.0039975373 0.48168463
0.33920705 0.7978205 -0.02069282 -2.010044 -0.21856833 0.5239567 -0.68101734 0.3537247
1.2400957 -0.32098976 0.09800809 -0.7213264 0.27576908 1.4664981 -0.39759663 0.09998544
-0.09299477 0.31553882 0.041454487 0.15383936 0.22353555 0.3775416 0.23342247 2.0353196
0.5444861 0.14831966 -2.0300937 -0.33681414 2.1799629 0.67877555 0.15980485 -0.33589372
0.15361361 -0.2542974 0.16475406 -0.058981854 -0.27510852 -0.37686405 0.26437098 -0.39923123
0.079478145 -0.18891282 -0.5283396 -1.6039232 0.6704526 -0.12639894 1.6694213 0.6928929
1.1714778 -0.096016474 -0.40664706 0.22926381 -0.33554205 -0.119629525 -0.104779355 0.06894722
0.026104016 -0.006886639 0.019504832 0.038287383 0.30947807 -0.29291406 -0.1513312 1.9269577
0.029811902 -0.42380962 -2.515855 -0.683147 0.44692042 0.45104477 -0.33705863 -0.45655397
00000000: 2bae 063d 8896 573e 356e 2fbf d894 38bd
00000010: 22b9 a7be 4aa4 0740 e7d5 3d3f 2fa7 be3f
00000020: 0203 0abe 1000 05bf db57 813f 201c d0be
00000030: f0d0 f4bf 492b 0d3f 620b 40be fc03 f93d
00000040: b651 4ebe b8ef 11be de29 2ebe 6882 cf3e
00000050: 96e6 eabd 1f71 08be 8e36 ac3f 9f10 133f
00000060: 57bd 093f 4270 7b3c 0e33 623e fe7a 45bf
00000070: 89ea aabe 2b53 19bf add9 bd3f e185 d63e
00000080: 66e1 993f 92df 0ebe f14a c1be c44f 12bf
00000090: 72f2 8f3e cbc4 83be 302a ccbc b292 2b3c
000000a0: aa29 b03e e643 cc3e d516 b8be 1d13 873e
000000b0: c1a0 233d daca 42be abae 19bf 9abc 0a40
000000c0: fd23 f63e 505c 8d3d 1249 67be dbdf c53d
000000d0: 85dc 373f b063 083e 2f3c 5e3e c561 bc3e
000000e0: 2671 4cbe 42ee ce3e d826 c6bc 7e9f 693e
000000f0: 7534 28be 1029 ef3e 2f4f 6bbf 7c22 a63e
00000100: 5192 863e 8c98 a93f 3581 3a3d 0f4f 90bf
00000110: f1ea c4be 21b9 d6bd 0e30 49bf cab3 17bf
00000120: 7228 b73e 5cb1 ee3e 80b2 153d 66d4 9b3f
00000130: 5305 283e 0366 3ebf b7cb cdbe 76d8 4e3e
00000140: 1b38 9f3f 3fb3 623e 9def 173f c97c 3abe
00000150: d646 bd3d 8d8d b1bf 3849 ce3e 873f 2a3f
00000160: 81a4 2ebf d4c2 a53e 4b13 593d 5683 56bd
00000170: dce4 d83f 6548 373f 611a 48be 1d72 0abe
00000180: 4d4a b5be 6c9e 123e 92df efbe 1129 e4be
00000190: a81d 833e 430a 4fbe 0b3b fbbe 9280 31be
000001a0: d919 193e 3a8d d43d 81c2 d3bb 3cd4 843d
000001b0: 5254 763d 0b2f dfbe 91e6 5240 e46f 1c3f
000001c0: fa7a 2e3d 8c84 23bf c37b e93e 7287 d83d
000001d0: 06e9 173d dce3 dabf 5510 1ebf bf7e d83d
000001e0: 7bc8 2d3e 39e0 2a3e 6803 12bc 704d 1e3d
000001f0: ce2b 0d3d f60c 443f 1588 193f face 64bf
00000200: d9ce fcbe ff53 903c 94ec 2f3f c790 ddbe
00000210: 00f1 7a3e 73c8 d73e 632b 1e3e 26c0 fb3c
00000220: 1833 25bf 83da a6bf d5e8 1a3f b9cc 87bd
00000230: 6578 0cbf 54ef 86bd 7aaa 86be 201b 0b3e
00000240: 38e4 88be 812e 0340 4db2 453e a21f f3bf
00000250: 5189 39bf a445 8cbd 7c19 10bf b247 b63e
00000260: 1211 93bf ce6a 853e 4bf0 353d 8851 13bf
00000270: 62c8 8a3e 85ea 36bf dc6c 043e ef2c b53e
00000280: e870 b33e 2483 08be 44f3 8a3e 5e0b afbd
00000290: 65a4 b7bd 9a0d 88be c89b 343d 0631 5abf
000002a0: 540e ffbd d579 05bd 217a afbe 2779 933d
000002b0: 6544 36bf f0a7 2a3e d054 783e 89a5 fb3e
000002c0: dd08 8d3e bf7c d2bf 89a9 b7be 0673 c7bd
000002d0: 5dcf a03e 1bc0 a43e c6fd 823b 5e9f f63e
000002e0: 8cac ad3e f73d 4c3f fd83 a9bc 90a4 00c0
000002f0: 60d0 5fbe 0722 063f 2757 2ebf 671b b53e
00000300: 75bb 9e3f c558 a4be 77b8 c83d d9a8 38bf
00000310: 9b31 8d3e 36b6 bb3f c991 cbbe 2bc5 cc3d
00000320: 0b74 bebd 4e8e a13e 2ecc 293d 1188 1d3e
00000330: 81e6 643e 224d c13e 4d06 6f3e ad42 0240
00000340: 7163 0b3f 1ce1 173e 0eed 01c0 e772 acbe
00000350: 8384 0b40 3cc4 2d3f e2a3 233e 43fa abbe
00000360: e34c 1d3e 4533 82be 4ab5 283e f596 71bd
00000370: 06db 8cbe 53f4 c0be a25b 873e 0968 ccbe
00000380: 70c5 a23d 5d72 41be 4441 07bf 5b4d cdbf
00000390: c8a2 2b3f b96e 01be 99af d53f 6e61 313f
000003a0: fcf2 953f 49a4 c4bd 0b34 d0be 22c4 6a3e
000003b0: 2bcc abbe 5300 f5bd 8f96 d6bd 3334 8d3d
000003c0: 17d8 d53c 51a9 e1bb 99c8 9f3c 3bd3 1c3d
000003d0: e973 9e3e d5f8 95be 91f6 1abe 8da6 f63f
000003e0: 1738 f43c 93fd d8be c503 21c0 b9e2 2ebf
000003f0: c1d2 e43e 57ef e63e f392 acbe 71c1 e9be

fc1.bias f4 [64]
0.43663815 0.0002764917 -0.0008943717 0.11578407 0.06247878 0.16389917 0.040142376 0.4973865
-0.23264956 0.00021603066 0.2601893 0.24607384 0.3487207 0.04956419 0.00016322383 0.044365417
0.033866417 -0.093818195 8.802934e-05 -0.26813263 0.22481497 -0.24962434 0.00011197499 0.05447471
0.34467846 -0.06958453 0.2604395 -0.044195496 0.27055207 -0.08038727 0.207062 -0.26937363
0.13057688 0.46683353 -0.2769486 0.049897153 0.31474826 0.054577123 0.031003611 0.033604696
-0.44925383 -0.052980684 0.0006265356 -0.28699994 0.31446368 0.00018321554 -0.050003484 0.20200463
-0.4267922 3.5227866e-05 -0.063299306 0.3082532 -0.12404271 0.0001974212 0.074700125 0.00073641713
0.047830895 -0.061980534 -0.35685846 0.00028382166 -0.26757544 -0.31996354 -0.34957024 0.39630863
00000000: 098f df3e 16f6 9039 4574 6aba 3320 ed3d
00000010: c0e9 7f3d 2fd5 273e 556c 243d 71a9 fe3e
00000020: b03b 6ebe 4a86 6239 8837 853e c8fa 7b3e
00000030: 858b b23e d203 4b3d 1027 2b39 83b8 353d
00000040: 83b7 0a3d c123 c0bd 649c b838 ae48 89be
00000050: e535 663e 869d 7fbe 1dd4 ea38 e020 5f3d
00000060: b279 b03e 5682 8ebd 5358 853e 5606 35bd
00000070: cd85 8a3e 15a2 a4bd 1008 543e 57eb 89be
00000080: f2b5 053e ce04 ef3e 35cc 8dbe f560 4c3d
00000090: af26 a13e 438c 5f3d 49fb fd3c 14a5 093d
000000a0: 9904 e6be 4602 59bd 183e 243a a8f1 92be
000000b0: 6201 a13e 8c1d 4039 74d0 4cbd 4dda 4e3e
000000c0: 8284 dabe a2c1 1338 11a3 81bd 5dd3 9d3e
000000d0: 1b0a febd da02 4f39 61fc 983d 1e0c 413a
000000e0: 54ea 433d 4ddf 7dbd 27b6 b6be e6cd 9439
000000f0: a6ff 88be 43d2 a3be dffa b2be f7e8 ca3e

fc2.weight f4 [4, 64]
0.002984796 0.01207868 0.060687575 -0.116748735 0.008359726 -0.0009700768 -0.005273114 -0.1517298
0.07864419 -0.026210697 -0.082564816 0.07678124 0.009008002 0.06948128 0.006491509 0.016845906
0.016849149 -0.013204054 0.028364882 -0.106285006 0.35617813 0.039967477 0.042544812 -0.038975365
0.13858503 -0.0017481233 -0.0016359902 0.031967446 -0.0052685137 0.032658923 -0.17287521 0.006021282
0.14158851 -0.05178579 -0.007686254 0.04864172 0.09357407 -0.005077259 -0.02891808 -0.04392124
-0.028358465 0.027092563 -0.0329762 0.059775397 -0.091207966 -0.034659393 0.050013613 -0.0055799177
0.038638026 0.011607621 -0.06269038 -0.05125716 0.0033018694 0.0125095155 0.0199757 -0.039703377
-0.06964382 -0.0082354555 0.025262576 -0.06106413 -0.008447198 0.08778931 -0.024841025 -0.044134915
-0.12291287 -1.129409 -0.5985911 -0.19778107 0.21024945 -0.2930156 0.5583798 -0.110310204
0.30063972 -0.25807792 0.15748702 -0.01979482 0.053932045 0.45454863 -0.17176208 0.18042204
0.21560001 0.2769302 -0.33717123 -0.32792458 -0.3146317 -0.02001188 -0.64766455 0.24565211
0.040488567 0.3314233 0.06706206 0.3237954 -0.032708224 0.65159667 0.22973756 0.047919996
0.047857717 -0.040880125 0.12948932 0.23416586 0.2782185 0.22879153 0.3677756 0.2934314
-0.18848722 0.46391466 -0.63143635 0.0014932156 -0.15741916 -0.37112737 0.786154 0.03846477
0.04948199 -0.367621 0.6166599 -0.17940725 0.039635807 -0.67091805 0.46933976 -0.8354279
0.1456803 0.6156942 0.2487237 -0.43127808 -0.11330639 -0.0054050814 0.09228636 -0.18059278
0.00018582179 0.021810284 -0.025226047 -0.042279907 0.0052516656 -0.008218425 -0.015588508 0.20995085
-0.05269136 0.012571086 0.12562566 0.024154266 -0.06039458 0.001498486 0.002968311 0.0041784896
0.0067021665 0.004732806 -0.0058069797 -0.014923099 -0.17183714 -0.017043594 0.0061757974 0.0031675634
0.10069399 -0.007219211 0.014792937 0.0013154369 -0.001097989 -0.017264288 -0.37787592 0.00023769274
0.03197893 -0.09114719 -0.0030359568 -0.02302441 0.008608486 -0.010825042 0.03182509 -0.0013770099
0.03378497 0.033028927 0.012670166 0.08251281 -0.036997076 -0.0023099142 -0.02288869 -0.005997761
0.017685225 0.012792515 -0.012167744 0.045715727 0.0047030337 -0.011420455 0.019312067 -0.046390593
0.009219974 0.010838691 0.0045861388 0.011088031 -0.014912441 0.05648281 -0.05802782 -0.11261496
0.16422272 1.6062171 0.79313636 -0.016732981 -0.29108942 0.41912526 -0.8023411 0.24165761
0.19312459 0.46301916 -0.023401473 -0.16738051 0.11815457 -0.56238824 0.26873994 -0.25851753
-0.32844096 -0.37151563 0.5660919 -0.02261495 0.042729277 -0.03722061 0.9948401 -0.46423966
0.11016058 -0.49309108 -0.16195828 -0.53829485 0.04294916 -1.0156499 0.23655443 -0.07627551
0.012496471 0.14081669 -0.20978749 -0.41978544 0.030388324 -0.41838843 -0.33354864 -0.5057099
0.3786476 -0.59601754 0.8855802 -0.0832389 -0.088931836 0.5659534 -0.857124 -0.11164815
-0.043125648 0.62492245 -0.9479928 -0.20564383 -0.08837078 0.90688586 -0.6777053 1.1460304
-0.49003452 -0.83393264 -0.2229203 0.6937979 0.22357371 0.32744625 0.007910684 -0.089893125
00000000: 919c 433b a8e5 453c 8993 783d f619 efbd
00000010: 3bf7 083c c14c 7eba 16ca acbb 0f5f 1bbe
00000020: 3510 a13d d1b7 d6bc be17 a9bd 7c3f 9d3d
00000030: 4c96 133c 344c 8e3d b9b6 d43b 6d00 8a3c
00000040: 3a07 8a3c d155 58bc 785d e83c f4ab d9bd
00000050: fb5c b63e f0b4 233d 7843 2e3d a2a4 1fbd
00000060: 3ce9 0d3e 4921 e5ba b96e d6ba 4cf0 023d
00000070: 7fa3 acbb 5dc5 053d 3306 31be 2d4e c53b
00000080: 94fc 103e 561d 54bd f9dc fbbb 8a3c 473d
00000090: c3a3 bf3d 235f a6bb 9ce5 ecbc c2e6 33bd
000000a0: 0350 e8bc 39f1 dd3c 0d12 07bd 0cd7 743d
000000b0: 3ecb babd 02f7 0dbd 13db 4c3d bed7 b6bb
000000c0: e842 1e3d e42d 3e3c d063 80bd 07f3 51bd
000000d0: 2d64 583b b6f4 4c3c 14a4 a33c 02a0 22bd
000000e0: 6ba1 8ebd 01ee 06bc 76f3 ce3c 621e 7abd
000000f0: 1e66 0abc e2ca b33d 687f cbbc d0c6 34bd
00000100: beb9 fbbd 7990 90bf 443d 19bf 1f87 4abe
00000110: a24b 573e 2406 96be fbf1 0e3f 51ea e1bd
00000120: 73ed 993e ca22 84be 4744 213e bf28 a2bc
00000130: d9e7 5c3d 99ba e83e 66e2 2fbe 8ec0 383e
00000140: 40c6 5c3e ccc9 8d3e b5a1 acbe bbe5 a7be
00000150: 6817 a1be f4ef a3bc 58cd 25bf 3a8c 7b3e
00000160: 57d7 253d 51b0 a93e d557 893d 83c8 a53e
00000170: 0ff9 05bd 0acf 263f 5340 6b3e c247 443d
00000180: 7406 443d eb71 27bd d998 043e 2dc9 6f3e
00000190: a872 8e3e 5448 6a3e 154d bc3e a43c 963e
000001a0: cb02 41be 3986 ed3e d0a5 21bf 00b8 c33a
000001b0: 7d32 21be 6804 bebe 6341 493f 3c8d 1d3d
000001c0: a1ad 4a3d d238 bcbe 6cdd 1d3f 89b6 37be
000001d0: 2859 223d 49c1 2bbf 4d4d f03e 9ade 55bf
000001e0: 372d 153e 239e 1d3f 6db1 7e3e 7bd0 dcbe
000001f0: 2e0d e8bd 1c1d b1bb a200 bd3d 50ed 38be
00000200: 28d9 4239 7bab b23c dba6 cebc b22d 2dbd
00000210: 2a16 ac3b 93a6 06bc f166 7fbc 5bfd 563e
00000220: e5d2 57bd f5f6 4d3c 03a4 003e 2bdf c53c
00000230: 4f60 77bd d968 c43a ff87 423b b6eb 883b
00000240: d99d db3b a715 9b3b 7a48 bebb 0480 74bc
00000250: 13f6 2fbe 029f 8bbc 585e ca3b e596 4f3b
00000260: a738 ce3d 228f ecbb 135e 723c bd6a ac3a
00000270: 66ea 8fba d66d 8dbc f478 c1be 293d 7939
00000280: 57fc 023d 61ab babd e7f6 46bb b09d bcbc
00000290: 9b0a 0d3c 845b 31bc 075b 023d c97c b4ba
000002a0: 1c62 0a3d 5749 073d 8796 4f3c 7afc a83d
000002b0: 3f8a 17bd ee61 17bb 1081 bbbc de88 c4bb
000002c0: 9be0 903c b297 513c 385b 47bc 6a40 3b3d
000002d0: e81b 9a3b dc1c 3bbc 5734 9e3c 1004 3ebd
000002e0: 600f 173c c494 313c 5247 963b 93aa 353c
000002f0: 5053 74bc 855a 673d 94ae 6dbd aca2 e6bd
00000300: 002a 283e 8698 cd3f fc0a 4b3f 9b13 89bc
00000310: ac09 95be 9697 d63e 3a66 4dbf 1875 773e
00000320: 74c2 453e d910 ed3e 72b4 bfbc cc65 2bbe
00000330: 06fb f13d adf8 0fbf 4898 893e 695c 84be
00000340: 6a29 a8be 4c37 bebe 66eb 103f fd42 b9bc
00000350: e504 2f3d a374 18bd d7ad 7e3f d2b0 edbe
00000360: df9b e13d 6f76 fcbe 64d8 25be b1cd 09bf
00000370: 75eb 2f3d d100 82bf 533b 723e 5636 9cbd
00000380: 00be 4c3c 4032 103e 88d2 56be 1eee d6be
00000390: eff0 f83c 0237 d6be e3c6 aabe 3476 01bf
000003a0: 19de c13e 9b94 18bf 62b5 623f 2879 aabd
000003b0: e521 b6bd 52e2 103f 7a6c 5bbf c9a7 e4bd
000003c0: 85a4 30bd ebfa 1f3f a8af 72bf 4c94 52be
000003d0: bdfb b4bd ac29 683f 187e 2dbf 20b1 923f
000003e0: cee5 fabe 9c7c 55bf 3845 64be bd9c 313f
000003f0: 82f0 643e 09a7 a73e d09b 013c e319 b8bd

fc2.bias f4 [4]
0.035308722 0.029072069 0.0424351 0.050156683
00000000: e19f 103d 8c28 ee3c 6dd0 2d3d 1871 4d3d
