DeepAcTS/networks/intermediary/OLD_Runs/intermediary_transnet_rX_3500.pth (torch, 3999 bytes, 4 tensors)

fc1.weight f4 [64, 5]
000000 36 30 58 3e b0 86 2f 3e e7 34 70 bf 5c 83 26 bc
       0.21112141 0.17141223 -0.9383072 -0.010163154
000010 7f 51 af be 4d 61 26 40 85 cb 58 3f 71 e4 dd 3f
       -0.34241864 2.5996888 0.84685546 1.733534
000020 13 bc 78 be b3 e3 17 bf 52 6f e5 3f da dd fb be
       -0.24290495 -0.59331816 1.7924597 -0.49192697
000030 ee 16 f8 bf 11 81 2a 3f 59 6f 51 be 4d b5 03 3e
       -1.9381998 0.6660319 -0.20452632 0.1286213
000040 ce 53 5c be 23 7e 9c bd d5 5a 1d be d0 be 9e 3e
       -0.21516344 -0.07641246 -0.15366681 0.31004953
000050 2f cb 46 be 7c 7b bc be 74 47 cb 3f db d8 13 3f
       -0.19413446 -0.3681296 1.5881181 0.5775277
000060 6c ec 02 3f 35 73 d0 3d 06 03 87 3e 58 08 63 bf
       0.51142 0.10178224 0.26369494 -0.88684607
000070 90 ca e4 be c4 95 16 bf 7b 48 ef 3f 39 6b 0e 3f
       -0.44685793 -0.58822274 1.8693994 0.5563236
000080 d8 4b ad 3f 21 b7 4e be 35 4d e8 be 92 2b 0e bf
       1.3538771 -0.20187046 -0.45371404 -0.55535233
000090 c2 a5 90 3e 1d 1a 79 be d5 e2 0a 3c f9 af 0d 3d
       0.28251463 -0.24326368 0.0084769325 0.03459165
0000a0 13 9d be 3e 87 c8 ec 3e 1e f8 ba be 32 6a 91 3e
       0.37229213 0.4624674 -0.36517423 0.28401333
0000b0 9d 90 2a 3d 1a 29 b4 be 89 e5 33 bf 1f eb 22 40
       0.04164182 -0.35187608 -0.7027212 2.5456007
0000c0 23 a6 e6 3e d9 cf fe 3d f2 5a 40 be 84 11 cb 3d
       0.45048627 0.124419875 -0.18784693 0.0991545
0000d0 33 19 27 3f 38 6f be 3d 7a f6 17 3e 77 9d 9f 3e
       0.65272826 0.09298557 0.14840117 0.31174824
0000e0 28 75 57 be 37 a2 c4 3e a7 b5 c0 bd 10 43 fc 3d
       -0.21040785 0.3840501 -0.094096474 0.12317479
0000f0 a1 d7 9b be 6e 97 eb 3e 36 2c 59 bf 22 d9 ad 3e
       -0.3043795 0.4601397 -0.84833086 0.33954722
000100 5a 72 43 3e af df d7 3f 6d db e9 3d b1 79 c8 bf
       0.1908659 1.6865138 0.11418805 -1.5662137
000110 cc 28 f7 be 34 25 0a be 78 c7 a4 bf dc f9 3d bf
       -0.48273313 -0.13490754 -1.2873373 -0.7420938
000120 63 29 7c 3f 30 b9 06 3f 5a f8 e4 3d 56 df a2 3f
       0.9850065 0.52626324 0.11180182 1.2724407
000130 89 ec 1b 3e 73 f1 64 bf 19 20 ab be 84 7e 07 3e
       0.1522695 -0.8943092 -0.33422926 0.13231856
000140 79 17 90 3f af 10 02 3e 71 d1 42 3f fb b1 88 be
       1.1257163 0.12701677 0.7610083 -0.26698288
000150 de b0 b2 3d f5 17 e6 bf 5b 00 04 3f 84 27 e7 3f
       0.08725141 -1.7976061 0.5156304 1.8058934
000160 18 7f 2b bf 11 81 8e 3e 73 d7 4f be ed a4 d2 bc
       -0.66990805 0.27832845 -0.20297031 -0.025713408
000170 4e c4 07 40 32 6e 39 3f fa d2 35 be 07 30 35 be
       2.1213565 0.7243377 -0.17756262 -0.17694102
000180 4e e1 c9 be c7 ba 12 3c 1c 12 e6 be 11 29 e4 be
       -0.39429706 0.008955664 -0.4493569 -0.4456258
000190 c3 d0 71 3e 5a 46 50 be e6 7b f7 be 04 93 21 be
       0.23614793 -0.20339337 -0.48336715 -0.15778738
0001a0 93 da ff 3d 3a 8d d4 3d 81 c2 d3 bb 3c d4 84 3d
       0.124928616 0.10378499 -0.0064623957 0.06485793
0001b0 52 54 76 3d 0b 2f df be 61 ab 61 40 80 c9 3a 3f
       0.060139008 -0.43590578 3.5260851 0.72963715
0001c0 22 1c 9e be 44 42 45 bf f6 fd f7 3e 56 2f 24 3e
       -0.3088084 -0.7705424 0.48435944 0.16033682
0001d0 69 28 1c 3d 93 18 0e c0 82 77 35 bf 61 fc 03 3e
       0.038124476 -2.22025 -0.7088548 0.12889244
0001e0 f3 b3 29 3d 50 69 23 3e 31 1e 08 3e 97 34 94 3d
       0.04143138 0.15958142 0.13292767 0.07236593
0001f0 f4 49 01 3c c3 cb 91 3f df e4 37 3f 51 37 8b bf
       0.007891167 1.1390308 0.71833605 -1.0876256
000200 5d f6 f2 be 15 ca 45 bd 61 53 46 3f f5 f5 be be
       -0.47453585 -0.048288424 0.77470976 -0.37297025
000210 5d 75 fc 3e 8d fe fe 3e 1e 74 8f 3e c9 e2 89 bc
       0.4930829 0.49803582 0.28018278 -0.016831772
000220 89 5a 1e bf c8 c2 e6 bf 89 76 31 3f 87 08 c0 bd
       -0.61856896 -1.8028193 0.69321495 -0.093766265
000230 e2 15 db bd 05 7e 16 be 32 4b d4 be 7f 35 59 3d
       -0.10697533 -0.1469651 -0.4146362 0.053029533
000240 7f d0 67 be 55 c5 20 40 cd cc 1f 3e 35 09 07 c0
       -0.22638129 2.5120442 0.15605469 -2.109937
000250 ec cb 33 bf 99 53 cc bd ac 3f 02 bf ed a8 c1 3e
       -0.70233035 -0.099768825 -0.50878406 0.37824193
000260 2b 74 86 bf db 23 8c 3e 88 a1 21 3d 87 6f 08 bf
       -1.0504202 0.27371106 0.03946069 -0.5329518
000270 5e 41 7c 3e 17 88 6b bf b7 2f b1 3c de dd cf 3e
       0.2463431 -0.9200453 0.021629198 0.4059896
000280 fe 1b 97 bd 06 7f aa bd 31 5e 6a 3f 3a d2 c1 3b
       -0.07378386 -0.08325009 0.91549975 0.0059149535
000290 86 49 40 be 4f b7 4e be 6f 6d 7f 3d a8 6c 5a bf
       -0.18778047 -0.20187114 0.062360223 -0.85322046
0002a0 b8 1d a4 bd d9 5d a2 bc 3e 4f 2e bf 99 12 82 3d
       -0.08013481 -0.01982014 -0.68089664 0.063512035
0002b0 08 17 9f be 93 d5 3f 3e 5f 57 83 3e da ab 05 3f
       -0.3107226 0.18733816 0.25652596 0.5221535
0002c0 17 b7 e2 3e 20 2e f8 bf 63 d2 dd be c5 9e 1d be
       0.4428031 -1.9389076 -0.43324575 -0.15392597
0002d0 b2 ab 4b 3e 66 11 b3 3e 7b 8f 76 bc 47 3d d5 3e
       0.19889715 0.3497421 -0.015048857 0.41648313
0002e0 7d 5d 99 3e 42 08 27 3f ac b4 c9 3d c7 2a 1b c0
       0.29954138 0.65246975 0.098489136 -2.424486
0002f0 a5 64 74 be dc 91 1b 3f 78 6b 89 bf c8 59 91 3e
       -0.23866518 0.6076944 -1.0735922 0.2838881
000300 d4 c2 91 3f 60 2b c8 be 3d ed b9 3d 93 8d 87 bf
       1.1387582 -0.39095592 0.09078453 -1.059008
000310 39 4f 88 3e 16 84 b1 3f ed c9 e8 be 0c f9 cb 3d
       0.26622942 1.3868434 -0.45466557 0.09959611
000320 fe 4d 1d 3e 25 48 91 3e d8 a0 4b be 2c a6 69 3e
       0.15361783 0.28375354 -0.19885576 0.22817296
000330 b1 1c 64 3e c3 8b ca 3e 02 8a 02 3e 69 71 1b 40
       0.2227657 0.39559755 0.12747958 2.428797
000340 62 f8 2b 3f 69 e6 d7 3d 8f 71 1b c0 76 13 9b be
       0.6717588 0.10541994 -2.428806 -0.30288285
000350 58 b7 23 40 fe e5 36 3f 4f 1e 2b 3e c5 cc 9b be
       2.5580654 0.7144469 0.1671078 -0.30429664
000360 86 ba 3d 3e 94 d5 91 be b9 51 08 3e f5 96 71 bd
       0.18528184 -0.2848326 0.13312425 -0.058981854
000370 33 ce 4d 3c 55 62 b2 be f4 14 9f 3e 5f 18 84 be
       0.012561369 -0.34840646 0.31070673 -0.25799844
000380 6b a0 90 3d 11 e1 68 be 85 4f 08 bf ef cf 00 c0
       0.07061847 -0.22742106 -0.5324634 -2.0126913
000390 76 1c 3a 3f 0c da 09 be cb d1 f7 3f d5 45 2a 3f
       0.7269968 -0.13462085 1.9360899 0.66512805
0003a0 96 d2 a5 3f f7 12 2e be 2b 00 d5 be 55 79 c4 3e
       1.2954891 -0.16999422 -0.4160169 0.3837382
0003b0 08 15 9e be 55 6f 92 bd 91 fd db bd b7 11 da 3d
       -0.3087542 -0.07150141 -0.10741723 0.1064791
0003c0 17 d8 d5 3c 51 a9 e1 bb 99 c8 9f 3c 3b d3 1c 3d
       0.026104016 -0.006886639 0.019504832 0.038287383
0003d0 e9 73 9e 3e 80 ac c6 be d4 c9 21 be 92 7b 0e 40
       0.30947807 -0.38803482 -0.15799648 2.2262921
0003e0 1c 73 f5 3d 88 e0 04 bf 47 83 3b c0 56 a8 31 bf
       0.11984846 -0.5190511 -2.9298875 -0.69397485
0003f0 be d4 da 3e 98 fa 21 3f 22 31 c2 be 45 31 02 bf
       0.42740434 0.63273 -0.3792811 -0.5085643

fc1.bias f4 [64]
000000 68 fb cd 3e ba 90 40 39 ec 92 63 b9 8b de dd 3d
       0.4023087 0.00018364462 -0.0002170314 0.10833462
000010 83 09 5d 3d cd 41 24 3e d1 74 18 3d 72 21 f4 3e
       0.05396415 0.16040726 0.03722078 0.47681767
000020 f9 92 56 be 49 bf 33 39 3d 14 4d 3e 1f 64 43 3e
       -0.20954503 0.0001714203 0.20027252 0.19081162
000030 c2 77 8a 3e 3c df 33 3d 3d 09 3e 3a 5b 31 08 3d
       0.27044493 0.043914065 0.00072493014 0.033250194
000040 04 65 ca 3c 1a 77 84 bd 0a d9 9c 39 3b 2c 94 be
       0.024706371 -0.06468029 0.00029916345 -0.28939995
000050 ea 9d 65 3e 86 9d 7f be 4e e8 86 38 98 e1 3d 3d
       0.2242352 -0.24962434 6.432888e-05 0.04635772
000060 de 62 80 3e f9 c0 72 bd 58 ae f1 3d 95 04 13 bd
       0.2507543 -0.059266064 0.118008316 -0.03589304
000070 cc 32 32 3e 1f 72 70 bd b0 84 45 3e f9 76 b6 be
       0.1740219 -0.058702584 0.19288898 -0.35637644
000080 72 73 8f 3c 7c 16 d3 3e f2 d9 9a be a6 ea 4f 3d
       0.017511103 0.41228092 -0.30244404 0.050760888
000090 05 ac 8d 3e fe 66 2d 3d 41 1b e8 3c f6 39 f6 3c
       0.27670303 0.04233455 0.028333308 0.030056935
0000a0 03 66 0b bf 2b da 29 bd 3f de c2 39 bd 18 a3 be
       -0.5445253 -0.041467827 0.0003716815 -0.3185481
0000b0 68 ea 57 3e 25 7c 40 3a 58 60 16 bd 37 bf 17 3e
       0.21085513 0.0007342718 -0.036712974 0.14819036
0000c0 82 84 da be bf a5 25 3a f8 bc 3a bd fa 15 88 3e
       -0.4267922 0.00063189486 -0.04559037 0.26579267
0000d0 09 57 07 bd 71 f4 2f ba f1 35 72 3d 96 ef 41 b9
       -0.033041988 -0.0006712145 0.059133474 -0.00018495167
0000e0 36 4e 24 3d b5 68 46 bd fd 4c ba be ce c9 46 39
       0.04011365 -0.0484397 -0.36386862 0.0001895793
0000f0 88 e5 3e be af 79 90 be df fa b2 be de dd a1 3e
       -0.18642247 -0.28217837 -0.34957024 0.31614584

fc2.weight f4 [4, 64]
000000 63 0b a2 3a a9 d3 9f 3c 74 02 7e 3d 7d 9c d4 bd
       0.0012363013 0.019510107 0.06201406 -0.1038141
000010 18 c7 9b 3b f3 47 f5 3a 02 7a ff bb 76 0a 1f be
       0.0047539584 0.0018713459 -0.007796527 -0.15531334
000020 5f af d7 3d c1 e1 92 bc f5 d5 8d bd 83 48 ac 3d
       0.10531496 -0.017929913 -0.06925575 0.08412268
000030 2b 59 d5 3b 95 7d 9e 3d f1 dc 46 3c 9f 2c 89 3b
       0.006510874 0.077387966 0.0121376375 0.0041862275
000040 86 0b c9 3b 0a c6 a9 bc a9 33 e6 3c a1 8a c9 bd
       0.006135407 -0.020724315 0.028100805 -0.098408945
000050 38 ed a7 3e f0 b4 23 3d be 15 4b 3d ee 5a ff bc
       0.3279817 0.039967477 0.04958128 -0.031171288
000060 11 42 0b 3e 88 bc 29 bc 6b 04 18 bb 7c b5 91 3c
       0.13599421 -0.010359891 -0.0023195993 0.017786734
000070 85 ce 47 3b 2c 46 34 3d 2e 98 37 be 5b 8b 60 bb
       0.0030488085 0.044012234 -0.17929146 -0.003426275
000080 09 71 1c bc 71 e8 5e bd 8d c7 b4 bb 14 d3 87 3c
       -0.009548434 -0.054420892 -0.0055169524 0.016580142
000090 4b 7e d4 3d eb 6a ee bb 5e bd 00 bd 28 35 0f bd
       0.10375651 -0.007275929 -0.031430595 -0.034962803
0000a0 75 88 a1 3c 8e 07 20 3d 06 86 38 bd d4 61 f6 3c
       0.019718388 0.039069705 -0.04504969 0.030075945
0000b0 80 75 8a bd ef c3 ab bc 97 90 04 3d 74 20 50 bb
       -0.067606926 -0.020967452 0.032364454 -0.0031757625
0000c0 e8 42 1e 3d 6b 16 4c 3c 84 7a 77 bd 52 65 a7 bd
       0.038638026 0.012456517 -0.060419574 -0.08173622
0000d0 51 bc 29 bb 6e 5d 18 3c 8c 69 a7 3c 91 a7 46 bd
       -0.00258996 0.009299619 0.02043607 -0.048499648
0000e0 72 31 58 bd fb da cb bb 4d 3c d4 3c de 20 65 bd
       -0.05278153 -0.006221173 0.02590766 -0.055939548
0000f0 14 7f 91 bb 9f 7d 8a 3d 68 7f cb bc 2c 23 e7 bc
       -0.0044401977 0.067622416 -0.024841025 -0.028215013
000100 fb 6b d7 bd e6 ce b2 bf 3a 2b 59 bf 90 ba 33 be
       -0.105186425 -1.396939 -0.84831583 -0.17551637
000110 c4 98 7b 3e c1 dc a7 be d8 5a 4a 3f 00 eb ce bd
       0.24569994 -0.3278561 0.79044867 -0.101034164
000120 64 14 85 3e f0 da b4 be a6 5d f0 3d f0 8a 8c bd
       0.2599212 -0.35323286 0.11736612 -0.06862438
000130 ea 19 7a 3d e3 b1 1e 3f 3a f8 9a be 02 fe 12 3e
       0.06105987 0.61990184 -0.30267507 0.14354709
000140 fc b1 36 3e cc f6 e0 3e 25 52 c7 be 08 7c 68 be
       0.17841333 0.4393829 -0.3892986 -0.22703564
000150 80 da 9a be f4 ef a3 bc d6 8c 3d bf ee 48 b9 3e
       -0.30244827 -0.02001188 -0.74043024 0.36188453
000160 44 29 50 3d 33 85 ce 3e 7e 86 e5 3d cf 83 d5 3e
       0.050820604 0.40335998 0.11207293 0.41702124
000170 7a b2 24 bd c5 0f 47 3f 42 09 66 3e 97 29 36 3e
       -0.04020927 0.7775844 0.22464469 0.17789303
000180 6d 12 4f 3e 68 5a 19 bd ef 01 8d 3d 24 dc b2 3e
       0.20221873 -0.037439734 0.068851344 0.3493358
000190 1f a0 77 3e 7b b9 a8 3e 7a a5 c2 3e 19 38 a0 3e
       0.24182175 0.3295401 0.38016874 0.312928
0001a0 8b f4 b2 bc 1a 2f 1a 3f 70 c8 36 bf 28 21 ec bc
       -0.021845123 0.6022812 -0.71399593 -0.028824404
0001b0 af 65 0f be d8 86 df be a1 dc 52 3f 78 76 9b 3c
       -0.14003633 -0.43657565 0.82367903 0.018977389
0001c0 a1 ad 4a 3d a5 9e 01 bf 85 84 45 3f ea c5 55 be
       0.04948199 -0.506327 0.77155334 -0.2087628
0001d0 8a cc 1b 3e ee de 36 bf bd b0 2b 3f d6 65 8f bf
       0.15214744 -0.71433914 0.67066556 -1.1202953
0001e0 18 15 96 3e 28 72 30 3f 13 d3 ac 3d 3c af 13 bf
       0.29312968 0.6892419 0.08438697 -0.5768926
0001f0 60 ef 07 be 58 d1 b3 3d a2 00 bd 3d 78 e8 35 be
       -0.13274908 0.087801635 0.09228636 -0.17764461
000200 e8 2f 93 b9 c6 eb 89 3c 3b a0 cb bc 94 3b b0 bc
       -0.00028073718 0.016836058 -0.024856677 -0.021512784
000210 b9 c4 7c 37 98 f7 fa 3a b9 50 25 bc d3 bf 49 3e
       1.5066174e-05 0.0019147275 -0.010090047 0.19702081
000220 d8 ce 04 bd c1 8a 37 3c 5b 93 fb 3d 3d f8 08 3d
       -0.032423824 0.011202515 0.12283965 0.033439863
000230 2e 29 58 bd 36 f5 d4 bb 50 d1 da 3b f3 ff 6b 39
       -0.052773647 -0.006498958 0.006677784 0.00022506695
000240 42 c3 f4 3a 07 bd 38 3c 5d 06 19 3c 89 5e 8f bc
       0.0018673914 0.011275536 0.009339896 -0.017501133
000250 b8 fe 25 be 02 9f 8b bc b6 e0 48 3c 10 7d 0d bc
       -0.16210449 -0.017043594 0.0122606065 -0.008635774
000260 6b 1d b5 3d e5 20 fb bb 8a aa 5e b8 94 e2 35 ba
       0.08843502 -0.0076638334 -5.308775e-05 -0.0006938365
000270 b4 a2 9b 3a 9f 9d 85 bc 3c 7d b5 be 88 32 b0 b9
       0.0011874051 -0.016310511 -0.3544711 -0.00033606985
000280 fa 03 c4 bb f8 bb cf bd a4 33 e6 b8 dd 87 6d bc
       -0.0059819194 -0.10143274 -0.000109768735 -0.014497724
000290 e3 1f 9e 3c 17 7e 1b bc bc 35 bf 3c 7e 10 f6 ba
       0.019302314 -0.009490511 0.023341052 -0.0018773226
0002a0 25 ff f9 3b cc 69 29 3d 77 32 86 3c 05 4b c5 3d
       0.0076292926 0.04136066 0.016381485 0.096334495
0002b0 b0 ac b4 bc 24 a3 f9 3a 9e e0 56 bb f1 be b3 bb
       -0.022055 0.0019045812 -0.003278769 -0.0054854085
0002c0 9b e0 90 3c 3a 76 5b 3c ba 8c 5d bc 95 7d c9 3c
       0.017685225 0.013394887 -0.013522321 0.024596015
0002d0 bb d0 5d bb bd 87 ec ba a8 b4 c1 3c fd 21 65 bd
       -0.0033846337 -0.0018045824 0.023645714 -0.055940617
0002e0 ba 6b 25 bc d4 50 1d 3b 07 06 35 bc c9 e4 c9 3b
       -0.010096485 0.0024004476 -0.0110488 0.0061613065
0002f0 07 73 e1 39 cd ca 02 3d 94 ae 6d bd 19 fb c4 bd
       0.00043001046 0.031931687 -0.05802782 -0.096182056
000300 8e 3b 48 3e 4c ff 01 40 7f 72 96 3f e0 88 4f bd
       0.19553968 2.031207 1.1753691 -0.050667644
000310 9a 32 b0 be ba 06 f9 3e 16 a9 91 bf 00 56 6c 3e
       -0.34413606 0.48637944 -1.1379726 0.23079681
000320 ef 5e 91 3e 96 0a 10 3f 67 32 6b 3c 15 da 02 be
       0.2839274 0.5626615 0.014355279 -0.12778504
000330 76 37 f7 3d fa 31 56 bf da 75 ec 3e 5d 75 76 be
       0.12071125 -0.8367001 0.46183664 -0.24068208
000340 cb e7 8f be e0 6b 1d bf 9c 2f 29 3f 41 37 97 bd
       -0.28106532 -0.6149273 0.6608827 -0.07383586
000350 55 d7 06 3c a3 74 18 bd a9 15 95 3f 3e ca 1e bf
       0.00823005 -0.03722061 1.1647235 -0.6202735
000360 ff ac cb 3d f6 14 1d bf e7 0f 33 be dd b2 28 bf
       0.09945106 -0.6136011 -0.17486535 -0.65897924
000370 8a 31 89 3d 89 64 98 bf ec c9 6f 3e 1a 44 98 be
       0.06698902 -1.1905681 0.23416871 -0.29739457
000380 71 bb a3 be cb d8 f2 3d b6 54 1b be 28 07 13 bf
       -0.31978944 0.11857756 -0.15169033 -0.57432795
000390 68 5a 9a 3d 0e ca 0a bf fb 19 c3 be 26 88 0e bf
       0.07536775 -0.5421456 -0.3810576 -0.55676496
0003a0 c5 65 1b 3e 67 3d 4c bf ae d8 86 3f b4 d3 56 bd
       0.15175541 -0.7978119 1.0534875 -0.05244799
0003b0 f4 d6 da bd 3c 83 2e 3f 0e a4 81 bf ff b8 cd bd
       -0.1068553 0.68169 -1.012819 -0.10045051
0003c0 85 a4 30 bd 47 74 51 3f ea 79 9a bf 7d ce 5f be
       -0.043125648 0.8181805 -1.2068455 -0.21856113
0003d0 d0 79 8c be a2 17 85 3f 1d 33 73 bf 9e f4 c5 3f
       -0.27436686 1.0397837 -0.9499987 1.5465276
0003e0 42 7b 20 bf f7 5c 7f bf 70 49 a1 bd 97 41 5a 3f
       -0.62688076 -0.9975123 -0.07875335 0.8525633
0003f0 20 e0 3f 3e 75 ae 23 3e d0 9b 01 3c 72 0e f3 bd
       0.1873784 0.15984519 0.007910684 -0.118679896

fc2.bias f4 [4]
000000 5a f0 3b 3d 7e 6d 7d 3c 36 b2 22 3d 05 44 53 3d
       0.045883514 0.0154679995 0.039720736 0.05157854
