DeepAcTS/networks/intermediary/OLD_Runs/intermediary_transnet_rX_4000.pth (torch, 3999 bytes, 4 tensors)

fc1.weight f4 [64, 5]
000000 48 e3 6c 3e c3 c3 32 3e 20 88 68 bf 0d ec 6f bc
       0.23133576 0.1745749 -0.9083271 -0.014643681
000010 f1 43 b0 be d4 46 2a 40 97 20 5c 3f 64 df e5 3f
       -0.34426835 2.660573 0.8598723 1.7958798
000020 a0 d7 84 be 06 8e 1a bf a9 31 f0 3f 13 b3 02 bf
       -0.2594576 -0.6037296 1.8765155 -0.51054496
000030 31 58 fd bf 52 18 2b 3f f7 fa 53 be 07 d6 f4 3d
       -1.9792539 0.66833985 -0.20701204 0.11954885
000040 84 64 51 be 80 96 43 bd dc db 17 be 15 1d 8e 3e
       -0.204485 -0.04775095 -0.14829963 0.27756563
000050 7b 7c 89 be 6b 39 c2 be 97 df d3 3f bc 85 0e 3f
       -0.26852784 -0.3793443 1.6552609 0.5567281
000060 2f f4 02 3f df 2d 17 3e f6 74 8c 3e 59 a1 5f bf
       0.51153845 0.14763592 0.27432984 -0.8735557
000070 08 d1 e2 be c9 c2 14 bf 65 73 f6 3f bc 15 15 3f
       -0.44300103 -0.5810972 1.9253966 0.5823629
000080 db be b1 3f bf d4 54 be 23 45 ee be 37 07 0e bf
       1.388637 -0.20784281 -0.46537122 -0.5547976
000090 8b d5 8e 3e 09 53 63 be a7 c4 af 3c c4 da 0c 3d
       0.27897295 -0.22199644 0.021456076 0.03438832
0000a0 3d be bf 3e 3f 53 f4 3e d6 6e a5 be 50 e3 94 3e
       0.37449828 0.47719762 -0.32311124 0.29079676
0000b0 58 54 15 3d 79 db b8 be 43 6b 32 bf a1 93 26 40
       0.03645739 -0.36104944 -0.6969492 2.6027606
0000c0 c6 f1 ea 3e a0 af 01 3e 1c b6 20 be eb 78 c3 3d
       0.45887583 0.12664652 -0.15694469 0.09544548
0000d0 8f 8e 1b 3f 3c 61 a7 3d af dd 02 3e 90 6a 9e 3e
       0.607644 0.08172843 0.12779878 0.30940676
0000e0 12 c1 5f be 4e a4 bc 3e 08 8c d3 bd 1b 64 cb 3d
       -0.21850994 0.36844105 -0.10329443 0.09931203
0000f0 b4 10 b1 be a0 98 ea 3e 68 c8 55 bf 05 d9 af 3e
       -0.34583056 0.4581957 -0.8350892 0.3434526
000100 1e 4a 2c 3e c2 33 df 3f a7 df 04 3e 34 42 d2 bf
       0.16825148 1.743767 0.12975942 -1.6426454
000110 77 f9 fe be de f9 0c be 31 bb b7 bf cf cf 47 bf
       -0.49799702 -0.13767192 -1.4354001 -0.78051466
000120 10 36 86 3f 15 e3 01 3f fa c6 ed 3d 29 ee 99 3f
       1.0485249 0.50737125 0.116102174 1.2025806
000130 ad c8 fa 3d 26 75 79 bf 60 49 ab be 68 89 e7 3d
       0.12245307 -0.9744438 -0.33454418 0.11305505
000140 fa 20 8c 3f b7 e8 f2 3d 61 16 48 3f 5e c3 88 be
       1.0947564 0.11860793 0.7815915 -0.26711553
000150 7d 08 ae 3d 47 6e ec bf d2 81 02 3f 5d a6 f4 3f
       0.08497713 -1.8471154 0.5097934 1.911327
000160 cb cb 2d bf bb 68 89 3e fd 2b 8e be ab 0c 6a bc
       -0.6788909 0.26837716 -0.27767935 -0.014285247
000170 be 7d 0b 40 90 e5 3a 3f 8a b2 32 be 30 b2 19 be
       2.1795497 0.73006535 -0.1745092 -0.1500938
000180 b8 eb cf be e3 f4 ed 3c 9e 70 e4 be 11 29 e4 be
       -0.40609527 0.029047435 -0.4461717 -0.4456258
000190 d8 be 6a 3e 16 ff 46 be 98 ce ec be 72 f5 1e be
       0.22924364 -0.19433245 -0.4625137 -0.15523317
0001a0 59 42 ee 3d 3a 8d d4 3d 81 c2 d3 bb 3c d4 84 3d
       0.116337486 0.10378499 -0.0064623957 0.06485793
0001b0 52 54 76 3d 0b 2f df be 14 e7 62 40 14 6a 3e 3f
       0.060139008 -0.43590578 3.545354 0.7438061
0001c0 3b 5b ab be 07 51 4b bf ab b0 f5 3e f8 db 64 3e
       -0.3346804 -0.7942051 0.4798635 0.22349536
0001d0 f9 a9 f7 3c a7 55 12 c0 d3 db 36 bf 18 40 09 3e
       0.030232416 -2.2864778 -0.71429175 0.13403356
0001e0 5c 9d 7f 3c 33 65 24 3e f0 1e 20 3e 41 f6 9c 3d
       0.015601482 0.1605423 0.15636802 0.07664157
0001f0 2c 8f 2d 3b 8f ad a7 3f e6 92 37 3f b9 2e 82 bf
       0.0026483042 1.3099841 0.71708524 -1.0170509
000200 f6 fa e8 be ca 11 4a bd 81 32 30 3f 8e 62 b9 be
       -0.45503968 -0.04933337 0.6882706 -0.36208004
000210 1a a7 07 3f 5c 5d 00 3f fe 27 98 3e 03 47 1c bd
       0.5298935 0.50142455 0.29718012 -0.03815366
000220 82 e6 1b bf 84 93 f4 bf 5a 1f 31 3f 51 cc cc bd
       -0.608986 -1.9107518 0.69188464 -0.09999908
000230 95 59 da bd e2 90 22 be 05 7a b4 be fd ff 56 3d
       -0.10661618 -0.15875581 -0.35249344 0.052490223
000240 fa 94 42 be 87 21 23 40 3b 33 17 3e dd a2 07 c0
       -0.19002143 2.5489213 0.14765637 -2.1193154
000250 f9 af 37 bf fc 06 d0 bd 39 08 00 bf e8 de c2 3e
       -0.7175289 -0.10157582 -0.50012547 0.3806069
000260 30 02 85 bf 6c 5d 90 3e f7 bc 06 3d 18 55 14 bf
       -1.0391293 0.28196275 0.032895055 -0.5794234
000270 67 d6 7b 3e 93 78 40 bf e8 57 98 bb d9 c0 e1 3e
       0.24593507 -0.7518398 -0.004649151 0.44092444
000280 95 98 14 be 2c 35 a9 bd a4 a8 93 3f 3d 45 26 3d
       -0.1451133 -0.08262095 1.153584 0.040593375
000290 33 c2 86 be 6c 62 4a be 97 a7 82 3d b1 0e 56 bf
       -0.26320037 -0.19764107 0.063796215 -0.8361617
0002a0 cc 3e 8c bd fd 52 c2 bc 40 83 32 bf 99 be 3f 3d
       -0.06847915 -0.023721213 -0.6973152 0.046812627
0002b0 8e fd 6e be 39 c1 2a 3e db a7 89 3e dd c1 f2 3e
       -0.23338911 0.16675271 0.26885876 0.4741353
0002c0 1e a6 f6 3e 14 0d 00 c0 d1 0b df be 70 d3 20 be
       0.48173612 -2.0007982 -0.43563703 -0.15705657
0002d0 94 fb 36 3e 9d 96 b6 3e d9 e2 b1 bc 53 70 cc 3e
       0.17869407 0.35661784 -0.021714615 0.39929447
0002e0 57 0c 93 3e e7 6e 25 3f 5a 1d cc 3d cf d5 1c c0
       0.28720352 0.6462235 0.09966536 -2.4505498
0002f0 c9 5d 71 be b7 e7 1c 3f fb b9 8f bf 46 fd 9a 3e
       -0.23570932 0.6129107 -1.1228632 0.30271357
000300 2c ab 93 3f a4 a6 c5 be 48 fd bd 3d f0 67 8e bf
       1.1536613 -0.386037 0.09276825 -1.1125469
000310 55 02 93 3e 38 35 b3 3f be 83 e6 be 5d 95 cb 3d
       0.28712717 1.4000616 -0.45022386 0.09940598
000320 33 2a 51 3e 6a da 89 3e f0 d1 fa be b8 0c 55 3e
       0.20426254 0.2692445 -0.48988295 0.20805633
000330 ae 53 7c 3e 4c 73 ed 3e 68 e5 dd 3d a7 67 1e 40
       0.24641296 0.46377027 0.108347714 2.4750764
000340 7a c1 2e 3f c5 08 d3 3d 5e eb 1d c0 29 74 9b be
       0.6826397 0.10304407 -2.4674907 -0.3036206
000350 3e 85 26 40 1b 5a 39 3f f6 41 2c 3e c5 cc 9b be
       2.6018825 0.72403115 0.16822037 -0.30429664
000360 86 ba 3d 3e 94 d5 91 be b9 51 08 3e f5 96 71 bd
       0.18528184 -0.2848326 0.13312425 -0.058981854
000370 b4 61 9a 3d 25 59 af be 66 dd 94 3e f1 21 72 be
       0.07538167 -0.342477 0.29075164 -0.2364576
000380 09 3c 49 3d 22 70 5d be 90 bb 08 bf 73 48 06 c0
       0.04912952 -0.21624807 -0.534112 -2.098172
000390 83 25 3a 3f 61 84 0b be e8 7c fa 3f f0 98 27 3f
       0.7271349 -0.13624717 1.9569368 0.6546774
0003a0 35 b6 ab 3f 11 3f 3e be 6d ca d4 be 2f 15 b3 3e
       1.341498 -0.18578745 -0.4156069 0.349771
0003b0 05 5c 98 be 98 07 80 bd 09 38 f9 bd 09 f6 c2 3d
       -0.29757705 -0.062514484 -0.12168891 0.09519584
0003c0 54 e1 c1 3c 7e c8 dd bb a3 9f 01 3c d1 c2 01 3d
       0.023667015 -0.0067682853 0.0079115955 0.031679932
0003d0 cf cc 93 3e 00 29 d7 be 08 7f 20 be ca 1d 15 40
       0.28867194 -0.42023468 -0.15673459 2.3299432
0003e0 cd 9b 07 3e 2a 03 0c bf 20 53 3e c0 c8 ae 34 bf
       0.13243027 -0.5469233 -2.9738235 -0.70579195
0003f0 74 b9 df 3e a4 5b 2a 3f 4a e0 c2 be 19 48 00 bf
       0.43696177 0.6654608 -0.38061744 -0.5011001

fc1.bias f4 [64]
000000 9d 96 cb 3e 5a 85 71 ba f9 7d 20 ba 26 62 d6 3d
       0.39763346 -0.00092132913 -0.0006122287 0.10467939
000010 a3 1a 51 3d ca 63 1f 3e f1 39 12 3d 41 af f3 3e
       0.051050793 0.1556541 0.03569979 0.47594646
000020 a0 88 4a be 43 eb 14 39 c7 8a 37 3e b4 56 29 3e
       -0.19778681 0.00014202022 0.17924033 0.16536981
000030 b1 74 80 3e 04 5c 36 3d 98 f8 01 b8 ed 65 f0 3c
       0.25089028 0.044521347 -3.0987518e-05 0.029345477
000040 93 60 c5 3c 5b a5 69 bd d7 60 2f ba 35 a2 91 be
       0.024093902 -0.05704246 -0.00066901505 -0.28444067
000050 c9 f5 65 3e 86 9d 7f be b7 e4 57 39 fa 2d 2a 3d
       0.22457041 -0.24962434 0.000205892 0.041547753
000060 4f 87 69 3e 81 f1 64 bd 1f 96 d1 3d 1e 69 13 bd
       0.22805522 -0.05589438 0.102337115 -0.03598892
000070 7a d0 12 3e a1 58 74 bd 31 93 3d 3e e6 d5 c4 be
       0.1433734 -0.059654836 0.1851318 -0.38444442
000080 4d bd b9 3c 0d 63 cd 3e 94 8e a3 be 98 89 4d 3d
       0.022673273 0.40114632 -0.31944716 0.050180048
000090 44 81 86 3e 65 b9 21 3d e8 d7 f0 3c de 62 03 3d
       0.26270497 0.039483447 0.029399827 0.03207671
0000a0 29 b8 04 bf 38 30 26 bd 1b 7b 8e b9 bd 18 a3 be
       -0.51843506 -0.04057333 -0.0002717607 -0.3185481
0000b0 31 4d 3e 3e fb f4 ed b9 e0 e1 0b bd ba fd 13 3e
       0.18584134 -0.00045386687 -0.034150958 0.14452258
0000c0 9c 2b e5 be 9c 2a 1b ba d9 17 36 bd 9a 69 7e 3e
       -0.44759834 -0.000591913 -0.044456337 0.24844971
0000d0 da db 1f bd bd fd 20 ba 9a 66 6a 3d b2 c2 58 38
       -0.039028026 -0.00061413256 0.057226755 5.1679737e-05
0000e0 05 01 28 3d 3e 8c 2e bd f1 0c a8 be c8 25 56 b8
       0.041016597 -0.042614214 -0.32822374 -5.1056762e-05
0000f0 0d d8 33 be ea 23 9e be df fa b2 be 7c ac 96 3e
       -0.17562886 -0.30886775 -0.34957024 0.2942847

fc2.weight f4 [4, 64]
000000 11 f4 06 3b aa 47 98 3c 59 bc 85 3d 23 7a c7 bd
       0.0020592252 0.01858886 0.06530065 -0.097400926
000010 f0 2a 95 3b 78 dc 23 3b d9 5f ba bb 23 97 1f be
       0.0045522377 0.0025003236 -0.0056876955 -0.15584998
000020 96 34 e2 3d c7 b5 97 bc 8e 24 87 bd f1 34 a7 3d
       0.11045186 -0.018519295 -0.06598769 0.08164395
000030 66 f9 d5 3b f7 9f 9a 3d 79 b3 5c 3c be 51 55 3b
       0.0065299748 0.07550042 0.013470524 0.0032549943
000040 b0 d2 c1 3b 33 6b c6 bc b6 a0 ea 3c bd 69 c6 bd
       0.0059150085 -0.024221038 0.028641086 -0.09688137
000050 45 cf a4 3e f0 b4 23 3d bb 5a 47 3d 13 3b fb bc
       0.32189384 0.039967477 0.04867051 -0.030667817
000060 38 e5 06 3e e4 b4 41 bc 72 78 29 bb 04 49 88 3c
       0.13173378 -0.011822913 -0.0025859145 0.016636379
000070 91 19 23 3b bb 0b 39 3d 62 77 34 be 84 ef d3 ba
       0.0024887065 0.045177203 -0.17623666 -0.0016169404
000080 a1 7f 0f bc ee 3a 5f bd 96 b9 00 bb 20 81 81 3c
       -0.008758456 -0.05449956 -0.0019641868 0.015808642
000090 c5 01 d6 3d ae 4c e4 bb 23 02 0f bd cf ca 0f bd
       0.10449556 -0.0069671487 -0.034914147 -0.035105523
0000a0 36 01 8b 3c 3a 7f 21 3d 82 d7 46 bd d4 61 f6 3c
       0.01696835 0.039427973 -0.048545368 0.030075945
0000b0 77 a1 80 bd ea 19 94 bc 37 36 fa 3c 45 c4 21 bb
       -0.06280797 -0.018078763 0.03054343 -0.0024683636
0000c0 2f f9 bc 3c b1 bc 27 3c ad fe 6a bd 81 9c b0 bd
       0.023068039 0.010237859 -0.057371784 -0.08623601
0000d0 fe 2a 25 bb 8b 37 13 3c d6 73 a8 3c c3 58 55 bd
       -0.0025202627 0.00898541 0.020563047 -0.052086603
0000e0 fc 3b 5a bd e5 78 bf bb 93 c3 19 3c 8c 2c 5e bd
       -0.05327986 -0.005843269 0.009385007 -0.054241702
0000f0 99 60 1a bb 41 a5 90 3d 68 7f cb bc 63 f1 d9 bc
       -0.0023556112 0.0706277 -0.024841025 -0.02660436
000100 00 71 d3 bd 2e 61 b7 bf 31 20 60 bf 69 d4 28 be
       -0.103242874 -1.4326532 -0.8754912 -0.16487278
000110 3a 0b 7c 3e f0 cf a3 be 20 78 54 3f 52 67 d0 bd
       0.24613658 -0.3199458 0.82995796 -0.10175957
000120 af 50 86 3e d4 b3 b9 be fd d8 d3 3d 06 4f a2 bd
       0.26233432 -0.3627001 0.103441216 -0.07925229
000130 da 5d 7d 3d 05 ff 24 3f ba 22 a6 be cf e5 05 3e
       0.061857082 0.6445163 -0.3244837 0.13075946
000140 3d c6 2a 3e 27 9d ea 3e 65 fb cc be 82 f8 6a be
       0.16677184 0.45823023 -0.4003555 -0.2294636
000150 37 4b 97 be f4 ef a3 bc d9 15 40 bf 41 1d bf 3e
       -0.29549572 -0.02001188 -0.75033337 0.37327006
000160 89 8a 53 3d 24 dc d1 3e e2 e2 e3 3d b6 6e d9 3e
       0.05164579 0.40988266 0.11127259 0.42467278
000170 81 7c 00 bd 4d e1 4a 3f d0 11 64 3e 7e db 6c 3e
       -0.031368736 0.7925003 0.2227242 0.23130605
000180 de 72 a5 3e ab f2 15 bd 97 74 8a 3d 55 63 bb 3e
       0.323142 -0.03660838 0.06760519 0.36599222
000190 6f f4 6b 3e 80 5b ab 3e 3e b7 c5 3e 21 be a2 3e
       0.23042463 0.33468246 0.38616365 0.31785682
0001a0 94 ca 2e b9 8e cd 1d 3f 2d 17 3a bf 28 21 ec bc
       -0.000166694 0.61641777 -0.72691613 -0.028824404
0001b0 32 5c 0c be 2e 1c e4 be d5 04 52 3f 6f f9 5c 3c
       -0.13707045 -0.4455275 0.82038623 0.013487204
0001c0 a3 d0 86 3c 60 c2 0f bf 76 a1 4b 3f e5 96 56 be
       0.016456908 -0.5615597 0.79543245 -0.20955999
0001d0 93 7b 39 3e 4c 41 39 bf 4d f2 31 3f 52 ab 93 bf
       0.18113546 -0.7236526 0.69510347 -1.1536658
0001e0 44 5a a1 3e ec 4c 31 3f 64 44 7e 3d b2 72 17 bf
       0.3151418 0.69258 0.06207694 -0.59159386
0001f0 9d 13 17 be 21 90 e0 3d a2 00 bd 3d d8 4b 34 be
       -0.14753576 0.109649904 0.09228636 -0.17607057
000200 17 71 68 ba c7 93 5f 3c 75 67 d9 bc 49 9c a0 bc
       -0.00088669494 0.013646073 -0.02653859 -0.019605773
000210 98 e0 01 b8 54 5e dc 3a f7 a9 03 bc be d4 47 3e
       -3.0965166e-05 0.001681278 -0.008036128 0.19514748
000220 3b cd e1 bc de ec 19 3c 47 03 f2 3d 22 9c 03 3d
       -0.027563682 0.009394852 0.11817031 0.03213132
000230 20 f6 4d bd 72 62 d1 bb af 2d ca 3b 43 76 99 b9
       -0.05028355 -0.0063899094 0.0061699967 -0.00029270546
000240 e1 b7 e1 3a a7 58 66 3c 00 e0 35 3c 46 0b 54 bc
       0.0017220938 0.014059222 0.011100769 -0.012942141
000250 21 e6 24 be 02 9f 8b bc 96 86 32 3c 50 a7 25 bc
       -0.16103412 -0.017043594 0.010896346 -0.010110691
000260 15 71 af 3d a4 a5 d1 bb 0d a3 58 b9 e5 21 6c ba
       0.085664906 -0.0063979197 -0.00020660106 -0.0009007736
000270 12 8d a8 b8 61 85 75 bc 06 c2 b1 be 7d f2 18 bb
       -8.037141e-05 -0.014985413 -0.3471834 -0.0023337894
000280 a0 55 a0 bb 14 23 d1 bd 85 16 0d ba 17 b0 56 bc
       -0.00489302 -0.10211769 -0.0005382079 -0.0131035065
000290 73 36 a5 3c e4 e6 13 bc b7 f9 c4 3c 5a 40 5c ba
       0.020167565 -0.009027217 0.024044855 -0.0008401923
0002a0 85 ea f7 3b 3c 42 39 3d 67 c0 7c 3c 05 4b c5 3d
       0.0075657987 0.04522918 0.015426732 0.096334495
0002b0 f8 a8 a6 bc 7c f5 90 37 fa fd 37 38 18 7a 8b bb
       -0.020344242 1.728045e-05 4.3867134e-05 -0.004256498
0002c0 33 70 eb 3c 27 83 5c 3c 17 26 3d bc e3 9d a2 3c
       0.028740024 0.0134590035 -0.011544726 0.019850677
0002d0 cc f8 79 bb a6 8f 11 bb 2a bd d4 3c 14 67 74 bd
       -0.003814268 -0.0022210865 0.025969107 -0.059668615
0002e0 3e 0d 3e bc b7 c1 25 3b 01 6b d5 bb f1 62 c8 3b
       -0.011599837 0.0025292465 -0.006513 0.0061153104
0002f0 95 2b 8c b9 f5 b6 08 3d 94 ae 6d bd 57 14 bc bd
       -0.00026735352 0.033377606 -0.05802782 -0.09183567
000300 82 2b 47 3e 25 c0 05 40 b7 4a 9c 3f 6c 52 7b bd
       0.1945019 2.0898526 1.2210301 -0.0613579
000310 24 4b b2 be 12 e2 f2 3e 41 16 98 bf 12 db 6c 3e
       -0.34822953 0.47438103 -1.1881791 0.23130444
000320 14 47 93 3e 62 d2 12 3f 4d bb dc 3c b1 1b f0 bd
       0.28765166 0.5735227 0.02694478 -0.11724032
000330 e0 68 f6 3d 67 07 61 bf 1e 54 fd 3e 56 6d 66 be
       0.12031722 -0.8790192 0.4947824 -0.22502646
000340 5d 40 87 be 95 ef 24 bf e6 13 2e 3f 9c 3d 80 bd
       -0.26416293 -0.64428073 0.6799911 -0.06261751
000350 ce d0 15 bb a3 74 18 bd e0 58 97 3f 48 09 23 bf
       -0.0022860053 -0.03722061 1.1823997 -0.6368604
000360 2e 71 c9 3d ac bc 1f bf 5f 65 2e be 47 9a 2b bf
       0.098360404 -0.62397265 -0.17030858 -0.67032284
000370 44 24 3f 3d 8f 19 9b bf 05 9a 70 3e 88 cb c1 be
       0.046665445 -1.2117175 0.23496254 -0.37850595
000380 3d 99 fe be fc 24 eb 3d 48 de 1d be dd 83 18 bf
       -0.49726287 0.114816636 -0.15416825 -0.5957621
000390 a6 a9 b4 3d c9 01 0c bf 7c 74 c9 be 9d 6d 11 bf
       0.0882142 -0.54690224 -0.39346683 -0.5680788
0003a0 2c a8 91 3d da 21 52 bf a6 53 89 3f b4 d3 56 bd
       0.07112154 -0.82082903 1.0728652 -0.05244799
0003b0 e1 b7 db bd 02 3e 32 3f 60 41 83 bf 34 f2 be bd
       -0.107284315 0.69625866 -1.0254326 -0.0932354
0003c0 98 9d 2e bc 2a 8b 65 3f d9 65 9f bf 4f 1b 64 be
       -0.01065769 0.8966547 -1.2452956 -0.22276042
0003d0 9b 02 9c be 29 0b 88 3f b9 09 7c bf e6 d8 cb 3f
       -0.30470738 1.0628406 -0.98452336 1.5925567
0003e0 db 40 27 bf 94 31 81 bf d3 de a5 bd 98 eb 5f 3f
       -0.65333337 -1.0093255 -0.08099141 0.8746886
0003f0 f4 0f 57 3e c4 cf 20 3e d0 9b 01 3c ba 53 f9 bd
       0.2100218 0.15704256 0.007910684 -0.12174173

fc2.bias f4 [4]
000000 31 d9 3f 3d e2 ca 2f 3c bf 5c 21 3d f1 af 5f 3d
       0.04683799 0.010729523 0.03939509 0.05461115
