DeepAcTS/networks/intermediary/OLD_Runs/intermediary_transnet_rX_2000.pth (torch, 3999 bytes, 4 tensors)

fc1.weight f4 [64, 5]
000000 30 55 35 3e fa a0 29 3e d7 d8 5b bf 2d 64 b8 bc
       0.17708278 0.16565314 -0.85877746 -0.022508705
000010 54 4e b2 be df 2f 13 40 8e 79 49 3f cc 70 c2 3f
       -0.34825385 2.2997968 0.787011 1.5190673
000020 e0 84 30 be 07 1d 0c bf f2 39 a8 3f d3 03 d5 be
       -0.17238188 -0.5473179 1.3142684 -0.4160448
000030 2b ed ea bf 40 17 20 3f b9 81 45 be 97 2c 1e 3e
       -1.8353628 0.62535477 -0.19287767 0.15446697
000040 f7 71 66 be db d0 23 be cf 16 23 be 92 d8 c6 3e
       -0.22504412 -0.15997641 -0.1592667 0.38837105
000050 2f 15 86 bd 05 d6 9a be 83 a1 a9 3f 33 67 1e 3f
       -0.06547009 -0.3024141 1.3252414 0.6187622
000060 cf 81 0b 3f a6 45 cd 3c 21 9c 66 3e 8b fb 4f bf
       0.5449495 0.025057625 0.22520496 -0.812432
000070 99 a2 d9 be 8d db 19 bf 57 46 ce 3f 23 c7 ee 3e
       -0.42506865 -0.6010063 1.6115216 0.46636304
000080 1b 9e 9f 3f 91 d1 29 be 25 bc d2 be 5b 0a 10 bf
       1.2470125 -0.1658385 -0.41159168 -0.562658
000090 92 05 8f 3e a5 cd 8e be 00 e0 8f bc 01 bb bd 3c
       0.27933937 -0.2789127 -0.017562866 0.02316046
0000a0 88 d4 b7 3e e7 f9 cb 3e 9d 33 b8 be 6e 93 8e 3e
       0.35904336 0.39839098 -0.35976878 0.27846855
0000b0 3d 54 49 3d 86 91 89 be 22 a2 2c bf 2e 91 12 40
       0.0491526 -0.26868838 -0.67434895 2.290111
0000c0 de b5 e5 3e b7 af a0 3d 06 25 66 be fa 6d db 3d
       0.44865316 0.07846015 -0.22475061 0.10714336
0000d0 36 1e 3c 3f e9 4e f8 3d 74 8e 4a 3e 5a 30 af 3e
       0.734836 0.12124426 0.19780904 0.34216577
0000e0 98 43 50 be da 20 d8 3e 28 53 21 bd 4b 47 4d 3e
       -0.20338285 0.42212564 -0.039385945 0.20046727
0000f0 2a bd 40 be 19 68 eb 3e 68 ee 6a bf 94 d9 aa 3e
       -0.1882216 0.45977858 -0.9177003 0.33369124
000100 72 bc 7b 3e 38 01 b5 3f 49 58 7d 3d fc 7d a3 bf
       0.24583605 1.4140997 0.061851773 -1.2772822
000110 a5 38 de be ea a6 e8 bd 00 9c 7f bf 70 be 21 bf
       -0.4340259 -0.11359961 -0.9984741 -0.6318121
000120 7d 2d 22 3f e0 bb f5 3e 23 5d 78 3d a4 0c a3 3f
       0.6335066 0.479949 0.060635697 1.2738233
000130 bd 0f 39 3e 7d 5e 62 bf 1a b0 c8 be 93 ee 26 3e
       0.1807241 -0.8842543 -0.39196855 0.16301946
000140 29 73 9d 3f a2 c8 35 3e ca 9f 30 3f d1 e7 6f be
       1.2300769 0.17752317 0.6899382 -0.23428275
000150 8e a4 c3 3d 0f a1 be bf 4d 92 03 3f 9e a8 a7 3f
       0.09552871 -1.4892901 0.5139511 1.3098333
000160 0f de 1b bf 19 b9 97 3e a0 c5 55 bd 0e 6e 34 bd
       -0.6088571 0.29633406 -0.052190423 -0.04405027
000170 99 e3 e7 3f b7 50 36 3f 95 ff 41 be d0 b9 10 be
       1.8116332 0.7121691 -0.18945153 -0.14133382
000180 99 9c b0 be 9a 3e 1b 3d 74 30 f0 be 11 29 e4 be
       -0.34494475 0.0379015 -0.46911967 -0.4456258
000190 79 23 8b 3e bf 6a 57 be 2e f4 02 bf ca cd 27 be
       0.271755 -0.21036814 -0.5115384 -0.16387096
0001a0 e0 06 16 3e 3a 8d d4 3d 81 c2 d3 bb 3c d4 84 3d
       0.1465106 0.10378499 -0.0064623957 0.06485793
0001b0 52 54 76 3d 0b 2f df be 2d b6 58 40 16 58 29 3f
       0.060139008 -0.43590578 3.3861191 0.66150033
0001c0 a0 f3 e8 bd 99 f8 2c bf 73 fa f0 3e c7 df 96 3d
       -0.11374593 -0.6756683 0.47066078 0.07366901
0001d0 04 d8 63 3d 3a 0a f2 bf 4a 94 27 bf a0 76 f4 3d
       0.05562593 -1.8909371 -0.65460646 0.119366884
0001e0 16 e4 00 3e 11 5f 18 3e 27 37 e7 3b 3f 93 50 3d
       0.12587008 0.14880015 0.007056135 0.050921675
0001f0 60 26 0a 3d 57 5c 5b 3f 89 01 23 3f 81 d0 84 bf
       0.033728004 0.85687774 0.6367422 -1.037613
000200 9b a8 01 bf 07 1f 81 bb bf aa 47 3f 5f 07 e1 be
       -0.50647897 -0.0039404663 0.7799491 -0.43950936
000210 bb ea 98 3e 3b 4a f1 3e cc f6 2b 3e 39 bd 63 3d
       0.29866585 0.47126946 0.16793364 0.05560038
000220 9d 6f 20 bf bd 43 b6 bf e9 a6 28 3f 5c f5 a5 bd
       -0.6267031 -1.4239422 0.65879685 -0.08103439
000230 11 45 b6 be 08 71 09 be dd 92 01 bf 14 c2 a1 3d
       -0.35599568 -0.13422024 -0.5061472 0.078983456
000240 e6 de 8b be 3b 03 0d 40 0c 3b 40 3e fb 87 00 c0
       -0.27318496 2.2033222 0.18772525 -2.0082996
000250 32 ae 34 bf f1 d2 9e bd 11 08 07 bf 2e 3f bb 3e
       -0.705783 -0.07755078 -0.52746683 0.3657164
000260 65 26 8f bf 37 8d 84 3e f0 1b 34 3d 0b 78 37 bf
       -1.1183592 0.25888988 0.043971956 -0.71667546
000270 bf 15 7d 3e 3a 46 7f bf 64 96 08 3d 44 6d a6 3e
       0.24715327 -0.9971653 0.03334655 0.32505238
000280 e8 ff 5f 3e 3f 25 09 be d5 d4 ab 3e 34 7b b1 bd
       0.21874964 -0.13393115 0.33560815 -0.08666077
000290 79 31 43 bd 26 fc 6b be 8d 0b 52 3d 06 93 5f bf
       -0.047654603 -0.23045406 0.051280547 -0.87333715
0002a0 1c 6e e5 bd 25 1f a5 bc 2c a7 00 bf 52 64 02 3e
       -0.11202642 -0.020156452 -0.50255084 0.12733582
0002b0 6e 0a 0c bf a5 78 36 3e e5 f8 7b 3e 45 36 16 3f
       -0.54703414 0.1781946 0.24606664 0.5867656
0002c0 78 c4 9f 3e 75 00 df bf 64 8d cd be 87 0e df bd
       0.3120458 -1.7422014 -0.40146935 -0.10891443
0002d0 5e c7 86 3e 3c 7a a6 3e c6 f4 c1 3c 68 38 f3 3e
       0.2632398 0.32515132 0.023676287 0.47503972
0002e0 d2 a6 a8 3e ad 45 3e 3f 4a be 46 3d 2f 75 0c c0
       0.32939774 0.74325067 0.048521318 -2.1946523
0002f0 81 97 68 be 7d 90 0b 3f 92 d5 51 bf c4 b4 8b 3e
       -0.22714044 0.54517347 -0.8196651 0.2728635
000300 a8 fa 91 3f 1e b4 c0 be 09 0c b0 3d d7 09 4b bf
       1.1404619 -0.37637419 0.085960455 -0.7931189
000310 2a 43 6d 3e 3c 78 b1 3f a9 f0 e4 be 59 2f bf 3d
       0.23170152 1.3864818 -0.4471486 0.09335203
000320 bc 69 2b bb 56 12 8f 3e 2f 5b 73 bd 67 b9 32 3e
       -0.0026155552 0.27943677 -0.05941313 0.17453538
000330 39 c6 86 3e 18 9f 91 3e 25 ee 50 3e d7 f6 0b 40
       0.26323107 0.2844169 0.20403345 2.186941
000340 2b c2 15 3f 4c 16 04 3e 8e 75 0a c0 9c ff a4 be
       0.584994 0.1289913 -2.163425 -0.32226264
000350 69 36 15 40 5c 0c 33 3f 49 34 25 3e c5 cc 9b be
       2.331446 0.69940734 0.16133226 -0.30429664
000360 86 ba 3d 3e 94 d5 91 be b9 51 08 3e f5 96 71 bd
       0.18528184 -0.2848326 0.13312425 -0.058981854
000370 0f 0a 51 be 6e c1 ca be 33 f0 89 3e a4 a8 b3 be
       -0.20413993 -0.396007 0.2694107 -0.350896
000380 4a 0d bb 3d b6 4b 26 be ec a0 06 bf 83 26 d9 bf
       0.09133394 -0.16239819 -0.525893 -1.6964878
000390 4d 97 33 3f 88 95 03 be b3 bd e4 3f d0 98 32 3f
       0.7015274 -0.1285001 1.7870392 0.69764423
0003a0 dc fa 91 3f 41 24 e7 bd 12 d7 d1 be 6f a1 52 3e
       1.1404681 -0.11286212 -0.40984398 0.20569395
0003b0 76 5e a6 be 16 47 d0 bd 8d 0b 01 be 67 44 77 3d
       -0.32493943 -0.101698086 -0.12602063 0.060367968
0003c0 17 d8 d5 3c 51 a9 e1 bb 99 c8 9f 3c 3b d3 1c 3d
       0.026104016 -0.006886639 0.019504832 0.038287383
0003d0 e9 73 9e 3e c5 db bb be df 2d 24 be bc 73 fe 3f
       0.30947807 -0.36691108 -0.16033123 1.9879069
0003e0 e1 50 8e 3d 03 4a e6 be d0 2b 2c c0 53 f6 2e bf
       0.0694902 -0.4497834 -2.690174 -0.6834461
0003f0 94 90 d8 3e 2b 2f 02 3f 66 31 b5 be ec 4c eb be
       0.42297804 0.5085322 -0.3538925 -0.45957124

fc1.bias f4 [64]
000000 2a 3e d4 3e 5f 32 d2 39 86 22 8d ba 8b a4 df 3d
       0.41453677 0.0004009185 -0.0010767735 0.10920056
000010 2c 44 6f 3d 31 30 33 3e 84 7a 37 3d 37 b9 fa 3e
       0.058414623 0.17498852 0.044794574 0.48969433
000020 c3 a0 80 be eb 9f d6 b8 71 23 80 3e dc 0a 75 3e
       -0.2512265 -0.00010234102 0.2502704 0.23929924
000030 cb b3 a7 3e fd 0c 44 3d ed 22 37 ba 73 ab 32 3d
       0.3275436 0.04786395 -0.00069861003 0.043620538
000040 ca f5 06 3d ea 63 af bd 78 22 4a 39 d0 ab 93 be
       0.032949246 -0.08563979 0.00019277062 -0.2884202
000050 fe 13 66 3e 86 9d 7f be 9b 94 63 39 f8 d4 58 3d
       0.22468564 -0.24962434 0.00021703767 0.052937478
000060 e8 cb a6 3e e5 58 92 bd dd 03 2f 3e c9 d9 20 bd
       0.32577443 -0.071458615 0.17091317 -0.039270196
000070 32 ee 4f 3e 92 2d 99 bd ae 7f 57 3e 24 28 91 be
       0.20305708 -0.07479395 0.210448 -0.28350937
000080 cb 8f b8 3d bf be e7 3e 7c f1 89 be 45 47 3e 3d
       0.09011801 0.45262715 -0.2694205 0.046454687
000090 81 5f 9d 3e 85 e1 51 3d 35 86 04 3d 74 7e 13 3d
       0.30736926 0.051240463 0.032354552 0.036009267
0000a0 fa c9 01 bf 24 97 42 bd 79 9e 3d 3a bd 18 a3 be
       -0.50698817 -0.04750742 0.0007233392 -0.3185481
0000b0 f1 4d 97 3e 1b c1 91 ba 79 48 3b bd f8 7e 43 3e
       0.29551652 -0.0011120172 -0.045723412 0.19091403
0000c0 82 84 da be 80 15 a9 39 3c f3 72 bd 8e b4 9c 3e
       -0.4267922 0.0003225021 -0.059313998 0.30606502
0000d0 2b 79 f4 bc cb d0 1d b9 55 b4 82 3d 9a 02 45 ba
       -0.029842934 -0.00015050468 0.06382052 -0.0007515341
0000e0 07 4a 4d 3d 8f 57 6e bd b2 f4 aa be 4e 33 b6 b8
       0.050119426 -0.05818897 -0.33389813 -8.6879925e-05
0000f0 00 9e 63 be d9 fe 87 be df fa b2 be 0e b9 c1 3e
       -0.22228241 -0.2656162 -0.34957024 0.37836498

fc2.weight f4 [4, 64]
000000 c4 f6 5a 3b d4 13 83 3c 93 b5 6e 3d 5a bd ee bd
       0.0033411244 0.016000666 0.05827863 -0.1165721
000010 16 4b 5f 3b 0d 98 9f 3b 3f 5d 3a bc 89 0e 1c be
       0.0034071854 0.004870421 -0.011374771 -0.1523992
000020 80 4f b2 3d ca d1 c1 bc 09 0c a3 bd 77 37 a7 3d
       0.0870657 -0.023659606 -0.0796128 0.08164876
000030 9a 3d 20 3c e4 ec 96 3d 62 7b 01 3c 19 c3 4d 3c
       0.009780312 0.07369402 0.007902952 0.012558722
000040 b8 aa 3f 3c 88 83 68 bc d3 c3 de 3c d8 cb d7 bd
       0.011698417 -0.014191516 0.027192986 -0.10536927
000050 e9 6b b3 3e f0 b4 23 3d f9 da 42 3d 00 87 0b bd
       0.35043266 0.039967477 0.04757211 -0.034064293
000060 9f f1 0f 3e bb 0a 6b bb f4 ac 42 bb b2 2d eb 3c
       0.14057015 -0.003586455 -0.002970514 0.028708313
000070 88 67 de 39 06 2c 1b 3d 06 b5 33 be 41 9a 4a 3b
       0.00042420276 0.03788378 -0.17549524 0.0030914696
000080 05 3d fd 3d e0 fc 53 bd a7 d9 13 bb 28 53 00 3d
       0.12365154 -0.051754832 -0.002256015 0.031329304
000090 70 09 cc 3d f7 11 fa bb 1e ec cc bc 0d 60 3a bd
       0.099627376 -0.007631536 -0.025014933 -0.045501757
0000a0 2a 06 69 bc 50 e1 fb 3c 17 71 07 bd d4 61 f6 3c
       -0.014222661 0.030747086 -0.033066835 0.030075945
0000b0 89 a3 b9 bd 63 c6 fe bc 04 a6 3b 3d 86 d0 18 bb
       -0.09064395 -0.031100458 0.04581262 -0.002331765
0000c0 e8 42 1e 3d 0f 59 16 3c db 7e 80 bd 7a 2e 83 bd
       0.038638026 0.009176507 -0.06274196 -0.06405349
0000d0 dd ce 0d bb ee 98 27 3c fd 18 92 3c 8b e3 31 bd
       -0.0021638193 0.010229332 0.017834181 -0.043429893
0000e0 09 93 86 bd 60 c4 e9 bb 1d f1 13 3d 9b ea 86 bd
       -0.065710135 -0.0071340054 0.036118615 -0.06587716
0000f0 21 d6 0b bb 35 87 9f 3d 68 7f cb bc 94 89 18 bd
       -0.0021337348 0.077894606 -0.024841025 -0.03724058
000100 07 0d ea bd 7d 36 9d bf 68 5c 30 bf f1 09 4a be
       -0.11428266 -1.2282254 -0.68891 -0.19730355
000110 15 f8 78 3e f6 7e aa be 01 dd 22 3f d4 bb d5 bd
       0.24313386 -0.33299989 0.63618475 -0.10436216
000120 c1 e0 84 3e c1 b0 98 be cb 52 1c 3e f1 fc fc bc
       0.25952724 -0.29822353 0.15265958 -0.03088233
000130 68 b6 5f 3d 27 59 03 3f d7 70 5e be e4 b7 3f 3e
       0.054617316 0.5130791 -0.21722732 0.18722492
000140 1f 61 62 3e 9c 4b a4 3e 3b 39 b0 be b7 1d 95 be
       0.22107361 0.32088935 -0.34418663 -0.29124233
000150 35 59 a1 be f4 ef a3 bc 5c 92 2e bf 44 e9 95 3e
       -0.31513372 -0.02001188 -0.68192077 0.2927953
000160 d0 38 39 3d 63 3c ba 3e a9 ee 9e 3d f7 ca b8 3e
       0.045220196 0.36374196 0.077603646 0.3609235
000170 68 47 ef bc bb c1 31 3f 7a d3 69 3e 3c e3 b9 3d
       -0.029208854 0.69436234 0.22834578 0.09076545
000180 b5 10 0a 3d 71 3f 21 bd 9e 3d be 3d 20 9f 8f 3e
       0.03370734 -0.039367143 0.09289096 0.2805109
000190 12 31 8b 3e 6a 39 8a 3e 72 19 b6 3e c9 c7 93 3e
       0.27185875 0.26996928 0.35566288 0.2886336
0001a0 1d 0c 1c be 9d 6d 03 3f 43 2d 29 bf 28 21 ec bc
       -0.15238996 0.5133913 -0.6608469 -0.028824404
0001b0 e2 de 1c be 77 62 c7 be b2 ab 4f 3f 67 15 e0 3c
       -0.15319398 -0.3894231 0.8112136 0.027353955
0001c0 a1 ad 4a 3d 05 ea cf be 7f 5e 2c 3f cd ec 42 be
       0.04948199 -0.4060823 0.6733169 -0.19035645
0001d0 3b 13 b4 3d 89 8f 2e bf 36 eb 0a 3f 53 37 73 bf
       0.087927304 -0.6818777 0.54265153 -0.95006293
0001e0 bc 43 46 3e 8e 88 25 3f b5 2d 1d 3e d1 0b fb be
       0.19361776 0.6466149 0.15349467 -0.49032453
0001f0 4c 9a ec bd 4b 51 95 3d a2 00 bd 3d a7 39 35 be
       -0.11552867 0.07290896 0.09228636 -0.17697774
000200 84 db eb 3a 7b b8 98 3c de 98 9b bc 8f 39 0a bd
       0.0017994498 0.018642655 -0.018993791 -0.0337463
000210 a0 bc 09 3b 47 29 8a bb af d4 40 bc 71 16 52 3e
       0.002101697 -0.0042163464 -0.011769458 0.20516373
000220 f0 02 40 bd d3 b8 4e 3c 6f 29 03 3e c0 6b f7 3c
       -0.0468778 0.012617308 0.12808774 0.030202746
000230 80 2e 6c bd 1c a3 19 b9 1f 9a 23 3b 74 b2 8d 3b
       -0.057661533 -0.0001465198 0.002496369 0.004324252
000240 b7 66 cb 3b 8f 0f dd 3b 1f d3 9b 38 d4 9d 83 bc
       0.006207313 0.0067462395 7.4303e-05 -0.01606647
000250 d6 eb 2b be 02 9f 8b bc ac 38 f5 3b f7 80 96 ba
       -0.16789183 -0.017043594 0.0074835625 -0.0011482526
000260 fa cc c8 3d f7 4b 05 bc ca a3 aa 3b ad c7 59 3a
       0.09804721 -0.008135787 0.0052075135 0.0008307647
000270 68 1c 87 39 01 15 69 bc e7 b2 bf be bc d0 0d bb
       0.0002577037 -0.014226199 -0.3744118 -0.0021639308
000280 fe fe d5 3c a9 e7 c2 bd 90 c3 e0 b9 65 51 a2 bc
       0.026122566 -0.09516842 -0.00042870315 -0.019814203
000290 53 89 61 3c f7 46 eb bb 2e 7d cf 3c d5 61 ba bb
       0.013765651 -0.0071800905 0.025328245 -0.005687932
0002a0 d6 7e 80 3d 69 c9 17 3d 67 f5 4b 3c 05 4b c5 3d
       0.06274192 0.037057314 0.012448645 0.096334495
0002b0 ff d8 09 bd dc 83 47 b8 72 b9 5d bc a1 e2 82 bb
       -0.03365421 -4.75681e-05 -0.013532983 -0.0039943014
0002c0 9b e0 90 3c 3b 86 2f 3c 68 c6 49 bc 33 18 27 3d
       0.017685225 0.010713155 -0.01231537 0.040794563
0002d0 ef 15 80 3a d4 8c 02 bc 2d ed bb 3c b3 31 51 bd
       0.0009772162 -0.007968146 0.022940243 -0.051072787
0002e0 ef e9 8a 3a 16 5c d6 3b 5d de 66 39 63 6e ce 3b
       0.0010598282 0.006541739 0.00022017346 0.00629978
0002f0 94 09 ac bb f6 37 29 3d 94 ae 6d bd 17 41 dd bd
       -0.0052501652 0.041313134 -0.05802782 -0.108034305
000300 c0 a7 2f 3e 13 02 e1 3f e5 dd 6d 3f 34 5f b7 bc
       0.17153835 1.7578758 0.9291671 -0.022384264
000310 81 51 a9 be c3 29 f8 3e 15 53 6c bf 9d 41 72 3e
       -0.33069995 0.48469362 -0.92314273 0.23657842
000320 cd b8 82 3e a4 42 00 3f d3 1b 9d bc 3b 0a 23 be
       0.25531617 0.50101686 -0.019178307 -0.15921871
000330 63 10 f6 3d bc 3a 28 bf e0 72 a9 3e 72 ac 8e be
       0.12014844 -0.6571462 0.33095455 -0.2786594
000340 8f d4 aa be ce b4 de be 3c 64 15 3f 69 20 2e bd
       -0.33365294 -0.43497318 0.5835607 -0.042511377
000350 38 e5 16 3d a3 74 18 bd 10 66 87 3f 68 1e 06 bf
       0.036839694 -0.03722061 1.0578022 -0.52390146
000360 3a 69 da 3d 57 2d 0b bf 26 70 26 be fe 25 15 bf
       0.106646016 -0.5436606 -0.16253719 -0.58261096
000370 fd e5 1d 3d 49 0c 89 bf f0 9a 71 3e a8 d1 0a be
       0.038549412 -1.0706874 0.2359426 -0.1355654
000380 13 91 29 3c 23 14 0a 3e 46 c7 31 be 1e 6f f8 be
       0.01034953 0.13484244 -0.17361173 -0.48522276
000390 b1 66 1e 3d 55 db ee be e6 0d aa be 7c 06 03 bf
       0.038672153 -0.46651712 -0.3321373 -0.5118177
0003a0 14 85 c7 3e 7f 2f 29 bf e2 b8 73 3f b4 d3 56 bd
       0.38968718 -0.660881 0.95203984 -0.05244799
0003b0 1e 73 c8 bd 15 ea 1a 3f 16 ac 6b bf 27 e8 d8 bd
       -0.09787582 0.6051343 -0.9205946 -0.105911545
0003c0 85 a4 30 bd 68 4a 2b 3f d5 af 85 bf 3b b3 54 be
       -0.043125648 0.6691041 -1.0444285 -0.20771496
0003d0 99 60 2d be d5 d6 72 3f 6c 56 47 bf d0 2c a7 3f
       -0.1693138 0.9485906 -0.77866244 1.3060551
0003e0 0f 5f 09 bf 03 a3 65 bf ed 00 e9 bd b9 a1 40 3f
       -0.5366067 -0.8970186 -0.1137713 0.7524677
0003f0 90 00 50 3e e3 a7 5e 3e d0 9b 01 3c 0b dc cf bd
       0.20312715 0.21743731 0.007910684 -0.10149392

fc2.bias f4 [4]
000000 f4 44 24 3d 10 17 eb 3c 88 6d 2c 3d 37 d8 43 3d
       0.04010482 0.02869752 0.042096645 0.04781362
