DeepAcTS/networks/intermediary/OLD_Runs/intermediary_transnet_rX_3000.pth (torch, 3999 bytes, 4 tensors)

fc1.weight f4 [64, 5]
00000000: af0e 433e 49d6 213e d6b0 7bbf b70a a2bc
00000010: d86e afbe 8b5e 2140 99dd 543f ee02 d23f
00000020: c521 65be 9c6d 15bf 14d6 d53f 9663 f1be
00000030: 47ce f3bf a7dc 293f 0f69 51be 5aa7 ff3d
00000040: 10fa 64be bf36 ccbd c5ea 21be fe21 b03e
00000050: 9c88 01be 99bf b1be bfe9 be3f 4919 193f
00000060: 05ec 033f 1b90 0f3d 2dfa 7b3e 9de7 5ebf
00000070: 26bd e7be 88df 16bf 4cd3 e43f 4ee5 073f
00000080: 2afc a83f b44f 45be ca01 e4be 1f39 0fbf
00000090: cb38 8d3e 4934 88be 01b0 323b f903 183d
000000a0: 6ad9 bc3e c4d5 e53e afca c7be 7efb 8e3e
000000b0: 8d3f 463d 06be acbe 6b32 34bf d31f 1e40
000000c0: 98d3 e23e 16ca 003e a6d0 54be 9991 d43d
000000d0: bc64 333f 58d9 d83d e608 283e c37b 9d3e
000000e0: 0b47 5cbe 8ccb d03e ecd6 94bd e2ff 153e
000000f0: d596 92be 2e61 ea3e f918 5fbf 4453 ab3e
00000100: 15e7 5b3e 399d cc3f e7ff c23d 62c4 bcbf
00000110: a12f f1be 4fee 01be 7fb3 97bf 1b5f 33bf
00000120: 2a9e 633f 802d 063f 137d cb3d 5da3 a53f
00000130: 789e 363e ca0e 5bbf 2746 b4be 4009 183e
00000140: 1074 953f 5105 153e e715 433f 01ea 83be
00000150: a22e b73d ad94 ddbf fae6 043f 2879 d93f
00000160: ff74 26bf 408d 903e 3f23 18be 6683 1fbd
00000170: 17f2 0240 df8e 373f 3378 39be 7431 38be
00000180: b23a c1be 1697 6d3c cf73 e9be 1129 e4be
00000190: e182 833e 38ad 52be 84e5 fcbe ccec 22be
000001a0: e8ee 0a3e 3a8d d43d 81c2 d3bb 3cd4 843d
000001b0: 5254 763d 0b2f dfbe 27cd 5f40 7c3c 353f
000001c0: 0c36 8bbe 8d5b 3dbf edfc f63e ace8 0f3e
000001d0: ade8 343d c931 09c0 f79e 31bf 9361 033e
000001e0: 6fcd 8c3d cfd4 1c3e 1d76 bf3d 18c6 843d
000001f0: 3c4c aa3c 1533 813f 5f0f 333f c709 93bf
00000200: 1031 fbbe 214c 21bd 36bc 503f 68ae cabe
00000210: ac04 e63e e32d fe3e 9e50 7f3e 7caa 853c
00000220: a1d8 1fbf 7e77 d8bf e85c 303f 1982 bfbd
00000230: 5e45 e7bd 88f7 10be 67fe fdbe ad3c 843d
00000240: 8639 79be 3c4e 1c40 788a 1a3e 52c0 06c0
00000250: c03c 31bf d7be bbbd d571 03bf 4363 bc3e
00000260: 80f7 87bf b2ac 893e ca78 3e3d cdb3 0cbf
00000270: 6316 843e 9f02 84bf c65e 343d ae42 c03e
00000280: c9bb f53d 2aa1 bfbd eeeb 0d3f 6e53 4fbd
00000290: fbfc 9dbd a8b2 58be b6fb 5e3d c096 5ebf
000002a0: 48c5 b2bd 159c 58bc 9471 2ebf c92d c93d
000002b0: 64a3 cdbe cd69 443e 713a 743e 432f 183f
000002c0: 0793 cc3e 95d8 f1bf 8294 d8be 087f 18be
000002d0: c165 583e fde7 af3e 47cc 343c 191b de3e
000002e0: b36c 9c3e 60aa 313f eff5 c63d e84f 18c0
000002f0: 5e49 70be 1fd9 173f 6728 7fbf a9e2 8a3e
00000300: 56f8 903f 8153 c9be 3fc3 b43d 3226 7dbf
00000310: 9057 7b3e 827e af3f c824 ebbe 89ce c43d
00000320: 2f49 c93d a7bf 8f3e 36c9 56bd a971 533e
00000330: ac3d 953e ffaf a53e d4d7 173e ad06 1740
00000340: 9b9d 263f f8d8 e03d 82d9 17c0 d857 97be
00000350: 9716 2140 4bc2 333f 5f77 283e c5cc 9bbe
00000360: 86ba 3d3e 94d5 91be b951 083e f596 71bd
00000370: a944 8cbd e57b bcbe 7562 a73e 772b 8fbe
00000380: deb6 b93d c65f 55be 07f6 07bf b043 f6bf
00000390: 4be3 383f 8818 08be 2149 f33f cd8d 2d3f
000003a0: 4a7c 9c3f 5197 1ebe 7559 d7be 2301 b33e
000003b0: 34a0 a5be d96f ccbd 0dd6 ddbd 9126 cc3d
000003c0: 17d8 d53c 51a9 e1bb 99c8 9f3c 3bd3 1c3d
000003d0: e973 9e3e 9522 c9be bd6b 22be 888c 0740
000003e0: 8365 d23d 3fa8 f7be 728b 37c0 2777 2ebf
000003f0: 385a db3e 9686 193f 6dcf bfbe 8143 02bf
0.1904857 0.158044 -0.98316705 -0.0197805 -0.34264255 2.5213954 0.8315063 1.6407144
-0.22376163 -0.58370376 1.6705956 -0.4714629 -1.9047326 0.66352314 -0.20450233 0.12483092
-0.22361016 -0.099713795 -0.15812214 0.34400934 -0.12649769 -0.3471649 1.4915084 0.5980421
0.5153201 0.03504954 0.24607153 -0.87072164 -0.45261496 -0.5893483 1.7876983 0.53084266
1.3201954 -0.19268686 -0.44532615 -0.55946535 0.27582392 -0.2660239 0.002726555 0.037113164
0.36884624 0.44889653 -0.39021823 0.27926248 0.04840045 -0.33738726 -0.7038943 2.4706924
0.44302058 0.1257709 -0.20782718 0.10379333 0.70075583 0.1058833 0.16409644 0.30758485
-0.21511476 0.40780294 -0.072675556 0.14648393 -0.286307 0.45777267 -0.8714748 0.33461964
0.2147487 1.598548 0.09521466 -1.4747431 -0.4710665 -0.12688564 -1.1851653 -0.70066994
0.88913214 0.5241318 0.099359654 1.294048 0.17833889 -0.8556944 -0.35209772 0.14847279
1.1676044 0.1455281 0.76205295 -0.25764468 0.089444414 -1.7310997 0.5191494 1.6990099
-0.6502227 0.28232765 -0.14857195 -0.03894367 2.046026 0.7170238 -0.18112259 -0.17987615
-0.37740093 0.014501354 -0.45596167 -0.4456258 0.2568579 -0.2057389 -0.49393857 -0.15910643
0.13567698 0.10378499 -0.0064623957 0.06485793 0.060139008 -0.43590578 3.4968965 0.70795417
-0.27189672 -0.7396782 0.48239842 0.14053601 0.04416721 -2.1436636 -0.69383186 0.1283019
0.06875121 0.15315555 0.093487 0.06483096 0.020788305 1.0093714 0.6994533 -1.1487359
-0.4906087 -0.039379243 0.8153719 -0.39586186 0.4492544 0.49644384 0.24933097 0.016316645
-0.62439924 -1.6911466 0.68891764 -0.09350986 -0.112925276 -0.14156926 -0.49608156 0.064568855
-0.2433835 2.442275 0.15091884 -2.1054883 -0.6923332 -0.09167259 -0.5134557 0.3679448
-1.0622406 0.2688957 0.046501912 -0.54961854 0.2579833 -1.03133 0.044035695 0.37550873
0.11998708 -0.093569115 0.55438125 -0.050616674 -0.07714268 -0.21161902 0.05443927 -0.86948776
-0.08729035 -0.013220807 -0.68142056 0.09823186 -0.4016372 0.19180985 0.23850419 0.59447116
0.39955923 -1.889422 -0.42300802 -0.14892209 0.21132566 0.3435668 0.011035032 0.4338005
0.3055168 0.69400597 0.09714877 -2.379877 -0.23465487 0.59315675 -0.99671024 0.27126053
1.1325786 -0.3932152 0.08826303 -0.98886406 0.24545121 1.3710482 -0.459265 0.09609706
0.09828412 0.28075907 -0.052437983 0.20648827 0.29148614 0.32360837 0.14828426 2.3597825
0.65084237 0.109788835 -2.3726506 -0.29559207 2.5170038 0.7021834 0.16451786 -0.30429664
0.18528184 -0.2848326 0.13312425 -0.058981854 -0.068490334 -0.36813274 0.32692304 -0.2796285
0.09068082 -0.20837316 -0.5310978 -1.9239407 0.7222182 -0.13290608 1.9006692 0.67794496
1.222543 -0.1548741 -0.42060438 0.34961805 -0.32348788 -0.09982271 -0.108318426 0.099682935
0.026104016 -0.006886639 0.019504832 0.038287383 0.30947807 -0.39284196 -0.15861411 2.1179523
0.10273268 -0.4837055 -2.867886 -0.6815056 0.4284227 0.59970987 -0.3746294 -0.5088425

fc1.bias f4 [64]
00000000: 68e6 ce3e 39a4 43ba 3898 3839 ba2f db3d
00000010: 3d76 6a3d 8644 283e 4daf 183d a349 f53e
00000020: 9d9e 63be 7020 75b8 c394 603e 8eaa 593e
00000030: 326d 943e 6ef6 323d 9e32 27ba 68d3 1e3d
00000040: 9d5d e23c 9d8b 89bd a38a 5ab9 6411 96be
00000050: 9e0d 673e 869d 7fbe 3419 89ba 3e01 403d
00000060: 1fee 8d3e 1208 7ebd eab4 033e 9032 19bd
00000070: 4e54 3e3e d3b3 7bbd d582 503e 81c4 a8be
00000080: ab06 4d3c db67 d93e c572 90be c524 383d
00000090: 23d7 943e c6c9 353d 86f1 ec3c e104 013d
000000a0: a7b0 02bf 5589 35bd 95d1 02ba bd18 a3be
000000b0: f072 753e fab5 c3b9 0791 1cbd c220 203e
000000c0: 8284 dabe 5f9e dcba b6fd 47bd 77f3 8f3e
000000d0: cc37 cfbc ea3f 8cba ec64 783d 4e9c 263a
000000e0: c1f0 2f3d 7ce0 51bd 5fb2 b0be 7443 4838
000000f0: 2abc 49be 001c 87be dffa b2be 21f5 ad3e
0.4041016 -0.0007463131 0.00017604313 0.107024625 0.057241667 0.1643239 0.037276555 0.47907743
-0.22228475 -5.844276e-05 0.21931748 0.21256468 0.2898956 0.043692045 -0.0006378087 0.03877583
0.027632529 -0.06716082 -0.00020841746 -0.29310143 0.22563788 -0.24962434 -0.0010459782 0.046876185
0.27720734 -0.062019415 0.12861982 -0.037401736 0.18586847 -0.06145079 0.20362408 -0.3296242
0.012513797 0.42462048 -0.28212562 0.04495694 0.29070386 0.04438188 0.028923761 0.031498794
-0.510508 -0.044320423 -0.00049903366 -0.3185481 0.23969626 -0.0003732888 -0.038224246 0.15637496
-0.4267922 -0.0016831866 -0.048825942 0.28115436 -0.02529516 -0.00107002 0.06064312 0.00063556887
0.04295421 -0.051239476 -0.34511086 4.7746536e-05 -0.19700685 -0.2638855 -0.34957024 0.3397608

fc2.weight f4 [4, 64]
00000000: 37f6 513b 254f 983c 16ce 6e3d ee16 e0bd
00000010: 1f53 723b f030 883b 82cc 21bc 2de1 1ebe
00000020: 30f6 c93d 81e7 94bc cb7c 95bd f4e8 b03d
00000030: 98e3 b53b 6cd7 a53d d930 323c 13f1 e23b
00000040: 7197 b83b a023 98bc 43dd df3c 0222 ccbd
00000050: 1998 ab3e f0b4 233d 28d1 4a3d e617 01bd
00000060: 9f20 0e3e b1cb 01bc dcec c8ba 0117 ad3c
00000070: 5bae b13b 02e9 2c3d 8f0b 3bbe 77f0 60bb
00000080: 2e38 02b8 8415 5ebd fa93 6cbb 8bce 943c
00000090: 4f29 d03d 478a 08bc da1d e9bc 39e3 12bd
000000a0: 9090 2e3c 95d9 163d 43bb 26bd d461 f63c
000000b0: 3d97 95bd c5db c8bc 8b4f 133d 061f 3fbb
000000c0: e842 1e3d e4e6 3e3c 48b3 7dbd 38e3 97bd
000000d0: f0d6 af3a 3c4c 143c d339 a33c 80c1 44bd
000000e0: 092f 60bd fb89 cdbb 4213 dc3c 2800 78bd
000000f0: 21f1 84bb 2207 763d 687f cbbc afa2 edbc
00000100: c13e dcbd eeed acbf e891 50bf 28a9 3ebe
00000110: a00c 7a3e 6348 aabe 8dc8 3d3f 795b cdbd
00000120: ce56 873e 818b aebe 899e 053e 555c 67bd
00000130: 5c57 6e3d 49ce 163f 20be 8ebe 4ee5 233e
00000140: a78a 483e 598d d33e cec9 c0be b601 82be
00000150: de4c 9ebe f4ef a3bc 496d 39bf 53b6 b03e
00000160: d9e6 4c3d f962 ca3e 392b e13d d327 cf3e
00000170: b595 29bd bdec 413f 635a 663e 2597 203e
00000180: 2b57 4b3d 10b7 1abd fbcd 9e3d 8086 aa3e
00000190: ccc4 803e e487 a33e ecfe be3e 0bdf 9c3e
000001a0: 6474 88bd 55a2 133f 5ae6 32bf 2821 ecbc
000001b0: bda3 12be 8589 d9be 2d14 533f f375 a33c
000001c0: a1ad 4a3d ab35 e8be 5b64 3e3f 14e4 4fbe
000001d0: a855 1c3e 7ee9 34bf da25 233f e021 8abf
000001e0: 709b 873e 7c8e 2e3f 69f1 c73d ae3a 0ebf
000001f0: e504 06be 6442 9e3d a200 bd3d f9d1 35be
00000200: b6f1 d9b9 1243 7d3c 73ad b1bc 6968 bbbc
00000210: 3fc5 ac3a 6c88 7739 3cab 23bc 0026 4c3e
00000220: fdbe 14bd 709a 3c3c a3d4 013e c065 0d3d
00000230: 8f06 60bd b7ec 8fbb 294c a63b 2e78 bc3a
00000240: 39ce db3a 0de2 223c 5054 d63b f79d 77bc
00000250: 9a75 26be 029f 8bbc aa43 343c 0818 ccbb
00000260: c16d bc3d 63d0 0bbc dd8c 3f3a fd64 6fba
00000270: b389 553a 95d2 6fbc 57ef b8be eada 90ba
00000280: e51a 31ba 4ab5 cbbd 0c94 5c3a 147d 81bc
00000290: 830e 973c 5896 08bc 899a bc3c f512 7ebb
000002a0: 00f6 633c 5f52 243d f76f 753c 054b c53d
000002b0: 7fea c6bc 5bd9 fe39 2985 a8bb 25d3 28bb
000002c0: 9be0 903c a29d 223c 475b 5dbc 1808 ff3c
000002d0: e1a8 12bb 1f22 74bb df1c c93c e401 66bd
000002e0: 9607 05bc 56c4 593b 45db 373b 60ef 9b3b
000002f0: 0eaf b5ba a212 f13c 94ae 6dbd 3be7 cabd
00000300: 7a7f 463e 3e46 fa3f 9b35 8f3f 3cdf 1fbd
00000310: dec5 acbe 67bd fb3e 11e0 89bf 0965 6b3e
00000320: f071 8e3e bc01 0c3f 9b21 e83a 9a36 0ebe
00000330: 8863 f73d ad40 48bf 5b9f d83e 1644 84be
00000340: 5f8e 9bbe 915d 12bf 4a4b 233f 1742 42bd
00000350: b92c 9b3c a374 18bd 7aa4 913f 51c2 18bf
00000360: f80b cd3d ae86 19bf 0479 32be a995 24bf
00000370: 121e 923d 316d 94bf 3b75 6f3e 813e 81be
00000380: 6129 b3bd 563b fa3d 60b1 1ebe 20a4 0dbf
00000390: 92b2 803d 368b 07bf 631c bcbe bb62 0bbf
000003a0: 0280 433e 82b6 42bf 13b2 833f b4d3 56bd
000003b0: 60ef d8bd d2af 293f 24b4 7dbf 6c12 d6bd
000003c0: 85a4 30bd 9879 3d3f 26cd 94bf ceab 5dbe
000003d0: ee83 8dbe 9b4c 823f 37ba 67bf 1c6b be3f
000003e0: a700 19bf 71ce 79bf 397d 4abd eb27 533f
000003f0: 4501 403e e315 253e d09b 013c 5f49 ecbd
0.0032037625 0.018592427 0.058302008 -0.109418735 0.0036975814 0.0041562244 -0.009875419 -0.15515585
0.0986141 -0.018176796 -0.07299193 0.08638182 0.005550813 0.08097729 0.010875904 0.006925711
0.0056332876 -0.018571675 0.027327185 -0.09967424 0.3351448 0.039967477 0.049515873 -0.031516932
0.13879631 -0.007922099 -0.0015329379 0.021129133 0.005422396 0.0422144 -0.18266128 -0.0034323016
-3.1046737e-05 -0.054219738 -0.0036098943 0.018164894 0.10164129 -0.008333749 -0.028456617 -0.035861228
0.010654584 0.036828596 -0.04070593 0.030075945 -0.07304237 -0.024518857 0.03596453 -0.0029162779
0.038638026 0.011651728 -0.061938554 -0.074163854 0.0013415497 0.009051379 0.019925034 -0.0480361
-0.054732356 -0.006272552 0.026864652 -0.060547024 -0.004057065 0.060065396 -0.024841025 -0.029008238
-0.10754157 -1.351011 -0.81472635 -0.18619215 0.24418879 -0.33258352 0.7413414 -0.10027213
0.26433414 -0.34090808 0.13048758 -0.05648454 0.05818878 0.58908516 -0.2787943 0.16005442
0.19584142 0.41318777 -0.37653965 -0.2539193 -0.3091802 -0.02001188 -0.7243238 0.34514102
0.05002484 0.39528635 0.10994572 0.4046007 -0.041402537 0.7575186 0.22495417 0.15682657
0.049643677 -0.03777224 0.077541314 0.3330574 0.25150144 0.31939614 0.37303865 0.30638918
-0.06662825 0.57669574 -0.6988274 -0.028824404 -0.14320274 -0.42487732 0.8245266 0.019953704
0.04948199 -0.45353445 0.7437188 -0.20301849 0.1526705 -0.7066878 0.6372963 -1.0791588
0.26485777 0.68186164 0.09762842 -0.5555829 -0.13087805 0.07727507 0.09228636 -0.1775588
-0.00041569554 0.015457885 -0.021689152 -0.022876935 0.0013181343 0.00023606577 -0.009989556 0.19936371
-0.036314953 0.01151143 0.1267877 0.034520864 -0.054693755 -0.0043922323 0.005074997 0.0014379078
0.0016769833 0.00994159 0.0065408126 -0.015113345 -0.16255799 -0.017043594 0.0110024605 -0.0062284507
0.092006214 -0.00853357 0.0007307062 -0.0009132175 0.0008145824 -0.014637609 -0.36120102 -0.001105157
-0.0006756022 -0.099466875 0.00084143947 -0.015806712 0.018439537 -0.008336626 0.023022907 -0.0038768623
0.013913631 0.040117618 0.014980308 0.096334495 -0.024281738 0.00048608598 -0.005142827 -0.0025760618
0.017685225 0.009925278 -0.013510532 0.03113179 -0.0022378492 -0.0037251783 0.0245499 -0.056154147
-0.008119484 0.0033228598 0.0028054279 0.0047587603 -0.0013861374 0.02942783 -0.05802782 -0.09907385
0.19384566 1.9552686 1.1188234 -0.039031252 -0.3374471 0.4916794 -1.0771505 0.2298776
0.27821302 0.54690146 0.001771021 -0.13888016 0.12079531 -0.7822369 0.4230908 -0.25833195
-0.30382058 -0.5717402 0.63786757 -0.04742631 0.018942224 -0.03722061 1.1378319 -0.59671503
0.100120485 -0.5997113 -0.17428976 -0.64290863 0.07134642 -1.1595823 0.23384564 -0.25243
-0.08748127 0.12218349 -0.1549735 -0.5532856 0.062840596 -0.52946794 -0.36740407 -0.54447526
0.190918 -0.76059735 1.0288719 -0.05244799 -0.10592532 0.66283906 -0.99103 -0.104527324
-0.043125648 0.7401366 -1.1625106 -0.2164757 -0.27639717 1.0179628 -0.90518516 1.4876437
-0.5976662 -0.9758063 -0.049435828 0.82482785 0.18750484 0.1612163 0.007910684 -0.11537432

fc2.bias f4 [4]
00000000: 3d8e 373d 3e9e ab3c 1639 283d 92d1 443d
0.044813383 0.02094948 0.041070066 0.048051424
