DeepAcTS/networks/intermediary/OLD_Runs/intermediary_valnet_rX_3000.pth (torch, 3231 bytes, 4 tensors)

fc1.weight f4 [64, 4]
000000 13 cb ba be 86 ee 91 3e 1f e6 3c 3e b0 a8 ac 3d
       -0.36483058 0.2850229 0.18447159 0.08430612
000010 4a 5b 58 be f1 5a ca 3e 95 a6 fc 3e cd 2b 43 3e
       -0.21128574 0.39522508 0.49345842 0.19059677
000020 20 69 b8 bc 20 8a a4 3d 4c d7 5f 3e 00 20 a5 38
       -0.022511065 0.08034158 0.21859473 7.8737736e-05
000030 a3 37 9d be 94 a6 f0 3d ee a3 24 3e cd 78 d8 bd
       -0.3070651 0.11750522 0.16078159 -0.10569916
000040 5d 0c 27 bd 71 f0 32 3e 20 09 2e 3f 09 7d 16 be
       -0.040783275 0.17474534 0.67982674 -0.14696135
000050 14 36 20 bf c7 29 b4 bd 5a 55 0d 3f f5 cb ae be
       -0.62582517 -0.08797031 0.5520836 -0.34139982
000060 45 91 32 3e 84 59 0b bf 1d 6c 2e 3e 5a 09 3f 3e
       0.17438228 -0.54433465 0.1703343 0.18655911
000070 56 25 14 c0 ee bb f8 be 67 46 8b 40 09 43 0f 40
       -2.3147788 -0.4858088 4.352344 2.2384665
000080 fc fd 2c bf 10 1b 84 3e 9f 5e 8f 3e 82 f7 1e 3f
       -0.6757505 0.25801897 0.28001878 0.62096417
000090 f2 58 cc be 76 9b 8e be b4 14 87 3c b9 c5 99 3e
       -0.3991161 -0.27852982 0.016489364 0.30033663
0000a0 6c de 17 3d 07 22 49 3e 7e 7f 8c 3d 45 73 fb 3e
       0.037077352 0.19641887 0.06860255 0.4911138
0000b0 fd 5b 66 3d 1f d2 ca be 8d 6e 22 3f a1 5e 97 be
       0.05624007 -0.39613435 0.6344994 -0.29564384
0000c0 21 fb fe be 23 70 05 3f f6 1d 6c 3f 31 2c 66 3d
       -0.4980097 0.5212423 0.92233217 0.056194488
0000d0 46 98 17 bf 1a 56 81 3e 43 db 15 3f d3 e7 07 3f
       -0.59216726 0.25261003 0.5853769 0.5308811
0000e0 04 bd c5 be 0c 9a e4 3e 5f 28 18 3f bd bf e5 3d
       -0.3862077 0.44648778 0.594366 0.11218212
0000f0 90 af fb bf 58 6c b6 be 76 15 81 40 3e eb 10 40
       -1.9662952 -0.35629535 4.0338697 2.264358
000100 be fc 2c c0 d3 49 14 be 91 26 7e 40 49 3c 15 40
       -2.7029262 -0.14481287 3.971104 2.3318045
000110 89 cb 48 3e 2a 50 84 3e 62 f0 e8 3d 31 12 a7 3e
       0.19608893 0.2584241 0.113739744 0.32631066
000120 43 48 06 c0 c8 a2 3f bf 8f 1a 81 40 fe 08 e4 3f
       -2.0981605 -0.7485776 4.034492 1.7815244
000130 a4 f5 58 3e 5b 8c de be f4 9e bf be a9 87 33 3e
       0.21187454 -0.43466458 -0.3742596 0.17532219
000140 d0 29 3b bf de 0d 19 3e 5c 70 53 3f 1e 31 87 bd
       -0.73110676 0.14946696 0.8259332 -0.06601165
000150 e3 93 39 c0 fa a8 29 bf 7e 36 74 40 eb 96 06 40
       -2.8996513 -0.6627346 3.815826 2.1029613
000160 1a bf 82 bd a9 46 b5 bb 64 17 95 3e 66 8d a6 3e
       -0.06384106 -0.005532105 0.29119408 0.32529753
000170 89 16 06 bf 9e 97 f5 bd a5 64 83 3f 06 3d 07 be
       -0.52378136 -0.11991809 1.0265089 -0.13206872
000180 8c 26 69 bc 50 d8 60 bd ff 10 07 3f 0d 05 65 bd
       -0.014230382 -0.05489379 0.5276031 -0.05591302
000190 c4 ee 68 3e 1a d9 38 3e a9 91 e9 3e ba 91 0f bd
       0.22747332 0.18051568 0.45618942 -0.035051085
0001a0 15 8f 13 be ab 32 2b be 06 0c 9f 3c 10 61 c4 3e
       -0.1441005 -0.16718547 0.019414913 0.38355303
0001b0 38 5a 1a bf a9 32 7a 3d 6b 13 67 3d e1 1c 68 3e
       -0.6029391 0.06108347 0.056415003 0.22667266
0001c0 29 ef 3a 3e e1 0b 9d be 62 6f 18 3f 99 a1 d4 3a
       0.18255295 -0.30673125 0.59544957 0.0016222476
0001d0 ff 98 03 be 57 7d a3 3d b2 7f f4 3e c3 a9 e1 3d
       -0.12851332 0.07982891 0.47753674 0.110187076
0001e0 87 a9 63 3d 19 f2 7a bd b7 62 75 3f 95 bc 56 be
       0.055581596 -0.06126604 0.9585375 -0.20970376
0001f0 30 63 0e 3d 35 96 dc be ef cd 05 3e 97 68 ad be
       0.03476256 -0.4308335 0.13066839 -0.33868858
000200 40 6e cc 3d 92 6f a5 be db bf 0a bf 52 f8 97 3e
       0.09981966 -0.32311684 -0.54199 0.2968164
000210 45 4a 09 3e cf fb 00 bf f4 6e 56 3e bf b9 66 be
       0.13407238 -0.5038423 0.20940763 -0.22531794
000220 c2 a9 5e 3e c5 3c 9c be 7f a7 6d 3c 66 01 2d bd
       0.21744445 -0.30515113 0.014505266 -0.04223766
000230 41 9e 1f bf d2 39 2f bd 84 e6 0d 3e 53 71 18 bd
       -0.6235085 -0.04277975 0.13857466 -0.03721745
000240 6e e6 06 3e e9 5a 00 3e b6 06 a2 3e a9 95 11 3f
       0.1317384 0.1253468 0.31645745 0.5686899
000250 19 c8 42 3f b0 a4 72 bf bc 53 ba bf 7d 39 3a 3e
       0.76086575 -0.94782543 -1.4556804 0.18185993
000260 64 78 ef 3e 40 8a 91 3e 43 f3 23 be 8f f7 26 3f
       0.46771538 0.2842579 -0.16010766 0.65221494
000270 56 c6 73 3e 18 20 02 3f 04 0c 7e 3e 21 c1 83 3d
       0.23806128 0.5083022 0.24809271 0.06433321
000280 2d 60 6f bd 4f 49 2d be 6c 9c e9 3d 82 44 ea 3e
       -0.05844133 -0.16922496 0.11406788 0.45755392
000290 1c 90 ac be a3 74 7c be 73 f6 09 3f 76 60 5e 3e
       -0.33703697 -0.24653868 0.53891677 0.21716484
0002a0 de 97 0b bf 65 79 e0 3a 2e 19 76 3f 3e e8 65 be
       -0.54528606 0.0017126022 0.9613217 -0.22451875
0002b0 28 0c 2f bf 6d ed 81 be c4 4d 05 3f d5 8d 42 be
       -0.68377924 -0.25376454 0.52071786 -0.18999417
0002c0 a0 16 9b 3e f3 34 d5 be 25 31 19 bb 8d eb 72 3e
       0.302907 -0.4164196 -0.002337524 0.23722668
0002d0 77 de 77 3e e4 b7 6d 3e 31 30 b5 bd 88 8d fe 3e
       0.24205957 0.2321468 -0.088470824 0.49717355
0002e0 ed 09 82 be 60 aa 2e 3f 45 01 ba 3f 88 b8 81 bd
       -0.25398198 0.6822872 1.4531637 -0.06334025
0002f0 93 5a a9 3e 61 c1 f0 3c e0 2f 91 3d 66 86 d6 3e
       0.33076915 0.029389085 0.070892096 0.41899413
000300 b7 f3 24 3d b0 5e ea bc 3e 7a c3 3d 9b 7f 22 3d
       0.040271487 -0.028609604 0.095448 0.039672475
000310 21 62 26 3e 83 07 9f be 84 e0 ec be 27 d9 ea 3e
       0.1624837 -0.31060418 -0.46265042 0.458688
000320 30 3d 34 3d 74 69 43 be 0c ce 38 3e c8 a9 d2 bd
       0.044003665 -0.19083196 0.1804735 -0.102862895
000330 c6 49 9b bd dc de 6d be 09 94 56 be f0 fb ee bd
       -0.075824305 -0.23229545 -0.20954908 -0.11669147
000340 a0 10 35 bf 67 71 ac 3e c9 41 37 3f 40 e6 1a be
       -0.7072849 0.3368027 0.71584755 -0.15126896
000350 86 09 15 bf 55 93 b2 be 24 46 0b 3f 01 ce 78 3d
       -0.58217657 -0.3487803 0.544039 0.060743336
000360 e2 2b 51 3d d9 3b e1 3d 2a 55 3f 3f 7b 68 d2 3e
       0.05106724 0.10997743 0.74739325 0.41095337
000370 0b 4a 54 3e 55 9a 3b bf e4 51 d1 be af c7 31 bd
       0.2073137 -0.73282367 -0.4088279 -0.043403324
000380 3c 2b 66 bf 9b a3 b9 be ad ba 32 3f 5b 83 84 be
       -0.8990972 -0.36257634 0.69816095 -0.25881466
000390 13 7e 16 40 d9 11 6e 3f 11 f8 6f c0 ee 8d e7 bf
       2.351445 0.92995983 -3.7495158 -1.8090189
0003a0 cf 2d 08 40 ff ea 5e bd b0 79 31 c0 92 a9 e7 bf
       2.127796 -0.05442333 -2.7730522 -1.8098624
0003b0 12 d7 3f 3e 28 28 8d 3e 12 a8 05 3f 7a 44 c8 bd
       0.18734387 0.275697 0.5220958 -0.09778686
0003c0 02 86 8b 3f 58 a9 67 bf 9c 9c c4 bf 67 4e 07 3e
       1.0900271 -0.90492773 -1.5360293 0.13213502
0003d0 28 3d ee be 75 be 92 bc e5 65 67 be 8e 1d b9 3e
       -0.46531034 -0.017913083 -0.22597463 0.3615536
0003e0 0b ce 04 3e 07 44 0a be 1e ce e4 3c 5c 7b 22 3e
       0.12969224 -0.13502513 0.027930316 0.1586737
0003f0 cf 00 79 bf 3f da 64 bf fb 05 7a 3f 0d 98 7d 3e
       -0.9726686 -0.8939552 0.97665375 0.24765034

fc1.bias f4 [64]
000000 6d 2f c1 3f 12 f0 87 3f b4 8e a8 be 80 0f c0 3f
       1.5092598 1.0620139 -0.32921374 1.500473
000010 df fc 9d 3f 07 7b b7 3f 24 f9 b4 3f 68 5e ca 3e
       1.2342795 1.433442 1.4138532 0.3952515
000020 d2 66 b6 3f ca e5 b0 3f 3c 25 80 3f 0a 02 a5 3f
       1.4250128 1.3820126 1.0011363 1.2891247
000030 93 78 94 3f a3 f8 9b 3f 83 c2 a7 3f 49 ab 4f 3f
       1.1599296 1.2185253 1.3106235 0.81120735
000040 07 10 30 bf 08 85 97 3f 26 35 61 bf 35 70 79 3f
       -0.68774456 1.1837473 -0.87971723 0.9743684
000050 a2 71 6f 3f 23 aa 05 bf a2 85 82 3f 1e b8 55 3f
       0.93532765 -0.52212733 1.0197031 0.83484066
000060 04 c9 67 3f 82 57 8c 3f 91 e8 a3 3f 82 66 a4 3f
       0.905411 1.0964205 1.2805349 1.2843783
000070 cf 2a 49 3f 1e b9 99 be 61 16 83 3f b4 4f a0 3f
       0.78580946 -0.30024046 1.0241205 1.2524323
000080 20 90 9a 3f 2b d9 c6 3f 8d 64 c5 3f 21 36 99 3f
       1.2075233 1.5535024 1.5421311 1.1969644
000090 a5 92 a8 3f 74 23 54 3e 6d a5 9c 3f e7 2e a5 be
       1.3169752 0.2071665 1.2237984 -0.32262346
0000a0 73 42 be 3f d3 39 b9 3f b9 13 6f 3f 97 3b ae 3f
       1.4864029 1.4470772 0.9338947 1.3611935
0000b0 bb ff a8 3f 7e ed c2 3f 2b 39 6f 3c 70 cd 8e 3f
       1.3203043 1.5228727 0.014601032 1.1156445
0000c0 1e f0 c2 3f 7c da ce 3f ca 97 e8 be 94 27 c9 3f
       1.5229528 1.6160426 -0.45428306 1.5715203
0000d0 2f a9 94 3f 16 a8 b8 3f c4 e8 8b 3f 05 51 70 3f
       1.1614131 1.4426296 1.093041 0.93873626
0000e0 45 a0 80 3f de c5 04 bf 1f 8f a6 3e a2 d2 bd 3f
       1.004891 -0.5186442 0.32531068 1.4829905
0000f0 4d 12 0e ba 8c 86 7f 3f 12 c9 9f 3f 5d 39 08 bf
       -0.0005419597 0.9981468 1.2483237 -0.5321253

fc2.weight f4 [2, 64]
000000 c2 c2 58 bf 8e 89 2c bf 00 3f 76 3d 71 fd 62 bf
       -0.84672177 -0.6739739 0.060118675 -0.8866797
000010 e7 eb 31 bf df 3b 56 bf 70 c0 4e bf 05 56 04 40
       -0.69500583 -0.83685106 -0.80762386 2.0677502
000020 32 8c 6a bf a0 74 3d bf 01 60 1b bf 1f 2f 75 bf
       -0.9162017 -0.7400608 -0.60693365 -0.95775026
000030 ee eb 5b bf 85 78 72 bf 89 33 58 bf 06 6e 0e 40
       -0.85906875 -0.9471515 -0.84453636 2.2254653
000040 61 31 f1 3f b1 06 4f bf e2 55 cf 3f ed 33 e4 be
       1.8843194 -0.80869585 1.6198084 -0.44570866
000050 fa 60 f7 be 9c 75 d4 3f de 6b 1d bf 23 14 8e be
       -0.48316175 1.6598392 -0.6149272 -0.27749738
000060 84 0a 0a bf 30 d4 46 bf 6e 10 23 bf 6f 3c 6f bf
       -0.53922296 -0.7766752 -0.63696945 -0.9345159
000070 17 dd 8e be 30 56 4f 3d a8 1e 19 bf 30 cd 5b bf
       -0.27903053 0.050619304 -0.598124 -0.85859966
000080 12 d0 29 bf 88 8e 68 bf 66 fd 65 bf cf b4 61 bf
       -0.66333115 -0.90842485 -0.8983978 -0.88166517
000090 19 6d 48 bf fa 2e aa be aa bc 75 bf 8f 4b a9 bb
       -0.7829147 -0.33238965 -0.95991004 -0.005166478
0000a0 bb 2c 36 bf 7f de 54 bf 54 24 e8 be 41 52 42 bf
       -0.71162003 -0.83152 -0.45340216 -0.7590676
0000b0 b2 a2 2f bf 08 d6 62 bf 49 77 1e bf 57 20 72 bf
       -0.6860763 -0.88607836 -0.61900765 -0.94580597
0000c0 fc 36 61 bf 1f 00 49 bf b2 85 a1 3d 9e e8 43 bf
       -0.87974524 -0.7851581 0.078868285 -0.7652682
0000d0 20 1d 1d bf 73 14 6c bf cf 39 82 bf eb a3 61 bf
       -0.61372566 -0.92218703 -1.0173892 -0.88140744
0000e0 9e c3 11 bf c8 f2 b3 3f ea f5 44 3f 22 31 30 bf
       -0.56939113 1.4058466 0.76937735 -0.6882497
0000f0 61 36 c8 bf cf e8 12 bf 4c 88 73 bf 59 89 89 be
       -1.5641595 -0.5738649 -0.9512985 -0.268626
000100 0d d9 4b bf 08 dc 31 bf 18 41 17 bd bf 8a 2d bf
       -0.7962807 -0.69476366 -0.036927313 -0.67789835
000110 da 4b 01 bf 9e 82 1b bf 17 ca 73 bf d3 d0 a9 3f
       -0.50506365 -0.6074618 -0.9523024 1.3266853
000120 cc d9 77 bf 03 f5 3e bf 73 f6 36 bf 10 64 51 bf
       -0.96816707 -0.7459261 -0.714698 -0.8179331
000130 18 75 22 bf 18 49 89 bf ae a7 30 bf 67 a8 98 3f
       -0.6345992 -1.0725431 -0.6900586 1.1926392
000140 b3 68 01 40 85 e9 6a bf 20 17 fc 3f 3c f0 2f bf
       2.0220153 -0.9176257 1.9694557 -0.68725944
000150 60 d4 eb be 19 83 d2 3f 23 80 1c bf b6 07 b4 be
       -0.46060467 1.6446258 -0.6113302 -0.35162133
000160 12 c7 00 bf 1c 6b 06 bf 01 eb 5d bf 69 8c 4d bf
       -0.5030376 -0.52507186 -0.8668671 -0.80292374
000170 37 0a e9 be c8 7d ec bd ae 6c ee be fd df 19 bf
       -0.45515606 -0.11547428 -0.4656729 -0.60107404
000180 70 93 3e bf 98 be 3f bf 20 6c 39 bf dc dc 47 bf
       -0.7444372 -0.749002 -0.7243061 -0.7807138
000190 04 90 8c bf 5c 98 55 bf b9 26 7a bf 44 85 47 bf
       -1.098145 -0.83435607 -0.97715336 -0.7793772
0001a0 62 cc 71 bf 14 db 52 bf 4b a9 b2 be fe 88 51 bf
       -0.9445249 -0.82365537 -0.34894785 -0.8184966
0001b0 11 0c 3d bf 79 03 73 bf 49 6b bd bf 3a 9c 6f bf
       -0.73846537 -0.94927174 -1.4798366 -0.9359776
0001c0 e5 ed 28 bf b1 d7 60 bf 62 c2 bb 3d f3 da 47 bf
       -0.65988 -0.8782912 0.09167935 -0.78068465
0001d0 bc a2 c4 be d8 ec 72 bf b4 29 8f bf 77 9e 53 bf
       -0.38405406 -0.94892645 -1.1184602 -0.82663673
0001e0 66 f6 1f bf b7 d5 f9 3f 8e 94 b9 3f 28 39 07 bf
       -0.6248535 1.9518346 1.449846 -0.5282159
0001f0 f4 10 a1 bf 77 14 43 bf eb 46 58 bf 14 d3 6e 3f
       -1.2583299 -0.762031 -0.8448321 0.9329083

fc2.bias f4 [2]
000000 84 16 30 bf 9e b6 30 bf
       -0.68784356 -0.6902865
