DeepAcTS/networks/intermediary/OLD_Runs/intermediary_polnet_rX_2000.pth (torch, 3231 bytes, 4 tensors)

fc1.weight f4 [64, 4]
0.25333568 -0.032565445 0.039725862 -0.21065275 -0.31579185 0.10231008 -0.38759804 0.10813413
0.32637355 -0.27983373 -0.30804703 0.34335604 -0.13095507 -0.2205958 0.47868875 0.061408583
0.20281923 0.2458634 -0.045022774 -0.21376327 0.08142384 0.012772848 -0.30444968 0.4243785
0.43653232 -0.3606411 -0.04926849 0.4594206 -0.05147616 0.14865112 0.37300873 0.5016968
0.15116213 0.31397825 -0.09398309 -0.4219428 0.06754009 0.25365213 0.24681433 -0.40151095
-0.117182255 -0.39105597 0.34173325 -0.056437675 -0.44989946 0.48942423 0.5537375 -0.049988147
-0.033982918 -0.28694412 -0.13227314 0.38916346 -0.20865062 -0.02008773 0.02012471 -0.3137317
0.6686668 0.47134495 -1.0142881 -0.521758 -0.12411559 0.22722429 0.009663795 -0.35461536
-0.039537262 -0.4916932 0.020617602 0.4532458 -0.08180374 -0.078413524 0.11166348 0.42430753
0.44922107 0.16277209 -0.92200834 -0.57107157 -0.605026 -0.24177083 1.3309453 0.84704804
-0.6241895 -0.3591148 1.4704423 0.7528733 0.26731226 0.09316913 -0.20035869 0.48243338
-0.17374691 -0.26381263 -0.68520695 0.26021412 0.30948544 -0.055642076 -0.30487093 0.11615643
-0.5296384 -0.60355836 0.24801834 -0.0614283 -0.11816308 0.14837688 -0.1465132 0.14918798
-0.103645906 0.009171622 0.5967958 -0.27626857 -0.31231323 0.287348 0.25057334 0.14860049
-0.36821625 0.265599 0.08232412 -0.6186442 0.07405307 -0.10759659 0.0015938212 -0.37188503
0.09209088 0.5780592 0.039894115 -0.5707155 -0.21760479 0.17938258 0.122212894 0.6643305
0.16050829 0.0409953 -0.3445427 0.19397663 -0.1182287 0.06564633 0.1332817 0.42594108
-0.48802647 0.2622331 -0.017303504 0.4383211 0.19568966 0.61289245 1.180402 -0.045055214
0.17638293 -0.12907583 -0.08047875 -0.5291843 -0.24225509 -0.11668603 0.24665487 0.15687878
0.1548822 -0.26174343 0.62869316 -0.40395132 0.121378444 -0.20000829 -0.050776467 0.29567873
-0.3769005 0.19899671 -0.08898522 0.08933886 -0.15174992 -0.10461301 -0.15175854 0.035575103
0.077482894 -0.481723 0.23807658 0.3082066 0.1328488 0.049038325 0.08042147 0.17787495
0.051001444 -0.3291671 -0.48825663 -0.016942084 0.46681008 0.34714088 0.12972331 0.05957404
-0.1059839 0.21231869 -0.35000968 -0.40758625 -0.30268076 0.27723405 0.07805784 -0.46647364
0.1422158 -0.24106017 -0.74018675 0.14121503 0.12538111 0.13560584 -0.29891607 0.17545724
-0.00075351715 -0.19408245 0.015401925 0.28077358 0.26642153 -0.23525503 -0.37965542 0.009166836
-0.36990055 0.14930978 0.16033699 -0.29839563 0.34855434 -0.23258474 -0.026290536 -0.429068
-0.23029475 0.14969017 0.033704095 0.5968416 -0.044540547 0.16635704 -0.015417685 -0.12163818
-0.097981066 -0.23808497 0.11586823 0.32258433 -0.09719311 0.29860574 0.17411804 -0.20679305
0.07826441 -0.017324569 0.16386479 -0.24385525 0.4975582 -0.19062364 -0.21742517 0.3802858
-0.55564594 -0.06835929 0.73541206 0.52515256 -0.28190133 -0.29953605 0.8513508 0.2612216
0.4652997 -0.38052976 -0.02276222 0.86307395 -0.16950563 -0.58047235 -0.24495469 0.6787537
00000000: 37b5 813e 5863 05bd 96b7 223d 5bb5 57be
00000010: 78af a1be f287 d13d 4073 c6be 6d75 dd3d
00000020: 6f1a a73e 5e46 8fbe 57b8 9dbe 5dcc af3e
00000030: 1619 06be dee3 61be b116 f53e 9187 7b3d
00000040: d8af 4f3e 9dc3 7b3e cd69 38bd c2e4 5abe
00000050: 8bc1 a63d 3545 513c d4e0 9bbe 2448 d93e
00000060: 2a81 df3e f3a5 b8be c2cd 49bd 2d39 eb3e
00000070: aad8 52bd 0038 183e 00fb be3e 346f 003f
00000080: 3fca 1a3e c2c1 a03e 357a c0bd e308 d8be
00000090: 7552 8a3d b1de 813e e5bc 7c3e d892 cdbe
000000a0: 40fd efbd 7d38 c8be a9f7 ae3e 312b 67bd
000000b0: 3959 e6be d095 fa3e bec1 0d3f 5fc0 4cbd
000000c0: ac31 0bbd 57ea 92be 9c72 07be 6f40 c73e
000000d0: 82a8 55be 068f a4bc 93dc a43c 71a1 a0be
000000e0: bf2d 2b3f 2054 f13e 31d4 81bf ef91 05bf
000000f0: 5030 febd 7cad 683e e554 1e3c 2590 b5be
00000100: d3f1 21bd 36bf fbbe 3fe6 a83c d50f e83e
00000110: b888 a7bd 4597 a0bd d3af e43d d63e d93e
00000120: 4e00 e63e baad 263e bd08 6cbf bf31 12bf
00000130: fce2 1abf c692 77be 6a5c aa3f 24d8 583f
00000140: e2ca 1fbf e5dd b7be 7437 bc3f 4ebc 403f
00000150: 27dd 883e 75cf be3d d42a 4dbe 8201 f73e
00000160: b6ea 31be 7312 87be b969 2fbf c93a 853e
00000170: e074 9e3e f2e8 63bd 0b18 9cbe 6ce3 ed3d
00000180: 6296 07bf cd82 1abf 85f8 7d3e 3e9c 7bbd
00000190: 7cff f1bd 1cf0 173e 8e07 16be bcc4 183e
000001a0: 4e44 d4bd 9244 163c 9cc7 183f 1373 8dbe
000001b0: 85e7 9fbe 471f 933e 264b 803e ba2a 183e
000001c0: d786 bcbe 98fc 873e 8c99 a83d 775f 1ebf
000001d0: 23a9 973d 9a5b dcbd c4e7 d03a b767 bebe
000001e0: 259a bc3d b0fb 133f 0368 233d 691a 12bf
000001f0: cad3 5ebe 11b0 373e c14a fa3d 9011 2a3f
00000200: 495c 243e b0ea 273d e767 b0be cfa1 463e
00000210: e321 f2bd 9571 863d ff7a 083e f314 da3e
00000220: 9bde f9be 6b43 863e 14c0 8dbc a06b e03e
00000230: df62 483e 85e6 1c3f 6a17 973f d18b 38bd
00000240: ba9d 343e 742c 04be 0bd2 a4bd 9f78 07bf
00000250: b811 78be 16f9 eebd 1893 7c3e d5a4 203e
00000260: 7099 1e3e 3c03 86be 09f2 203f b5d2 cebe
00000270: 4395 f83d f9ce 4cbe fcfa 4fbd 3463 973e
00000280: 1af9 c0be cbc5 4b3e e23d b6bd 4bf7 b63d
00000290: 5564 1bbe 593f d6bd 9766 1bbe 33b7 113d
000002a0: 5aaf 9e3d 66a4 f6be 59ca 733e 41cd 9d3e
000002b0: 8409 083e 69dc 483d 03b4 a43d da24 363e
000002c0: e4e6 503d 9788 a8be c6fc f9be 20ca 8abc
000002d0: bb01 ef3e 73bc b13e 30d6 043e e903 743d
000002e0: 160e d9bd 126a 593e 7834 b3be 25af d0be
000002f0: f9f8 9abe 9ff1 8d3e cadc 9f3d a2d5 eebe
00000300: 05a1 113e 7ad8 76be e17c 3dbf ac9a 103e
00000310: e863 003e 42dc 0a3e 870b 99be 10ab 333e
00000320: ae87 45ba 8dbd 46be 5b58 7c3c 8ec1 8f3e
00000330: 6768 883e b2e6 70be 3262 c2be 7f30 163c
00000340: 9b63 bdbe aae4 183e 612f 243e 50c7 98be
00000350: b775 b23e b22a 6ebe 405f d7bc cdae dbbe
00000360: 63d2 6bbe 6148 193e 4e0d 0a3d 9cca 183f
00000370: 2670 36bd 8059 2a3e 759a 7cbc 701d f9bd
00000380: 4caa c8bd 8ccc 73be 534c ed3d c629 a53e
00000390: 2e0d c7bd dae2 983e 004c 323e 8fc1 53be
000003a0: 1749 a03d 41ec 8dbc 2ccc 273e 31b5 79be
000003b0: f3bf fe3e d832 43be b4a4 5ebe d2b4 c23e
000003c0: d03e 0ebf f5ff 8bbd f743 3c3f 6670 063f
000003d0: 5f55 90be ca5c 99be 20f2 593f d6be 853e
000003e0: c33b ee3e ccd4 c2be d677 babc 6af2 5c3f
000003f0: e292 2dbe d699 14bf 67d5 7abe cdc2 2d3f

fc1.bias f4 [64]
0.047369495 -0.34098458 -0.6419812 0.035281673 0.22860192 -0.37854844 -0.18998799 -0.4814252
0.37272245 0.45478916 -0.10257634 -0.12218808 -0.4703752 0.24229094 -0.13614874 0.63262695
0.08581704 -0.4845698 -0.02302076 0.20174445 0.026895747 -0.33842066 -0.27011743 0.12822841
-0.19716948 0.050079808 0.30606967 -0.30470666 -0.18140943 0.31452513 -0.10270638 0.33879426
0.22501305 0.06897316 -0.3665184 -0.17013492 -0.26353613 0.03526634 -0.24125238 -0.50209063
-0.21143915 -0.6081431 0.06635595 -0.45140916 -0.47466835 -0.42899457 0.56941366 0.17144397
0.09572334 0.16595273 0.04593832 -0.009550785 -0.04491563 0.35472423 0.29992694 0.15471457
-0.2889236 -0.94486946 0.20901993 0.0591346 -0.1143666 -0.14994387 0.2600921 0.11447509
00000000: 8406 423d 8895 aebe e158 24bf 8483 103d
00000010: 9f16 6a3e 1ad1 c1be 368c 42be 5d7d f6be
00000020: 7ad5 be3e 20da e83e 8b13 d2bd be3d fabd
00000030: 05d5 f0be 1e1b 783e 936a 0bbe d7f3 213f
00000040: d8c0 af3d 8819 f8be 0896 bcbc 1996 4e3e
00000050: 7854 dc3c 7945 adbe d54c 8abe 4f4e 033e
00000060: cce6 49be 7c20 4d3d 2ab5 9c3e 8302 9cbe
00000070: 65c3 39be 7009 a13e b957 d2bd 7176 ad3e
00000080: d269 663e cd41 8d3d 4da8 bbbe d937 2ebe
00000090: 35ee 86be 7073 103d dd0a 77be 0389 00bf
000000a0: 8183 58be 44af 1bbf a1e5 873d 1a1f e7be
000000b0: bb07 f3be 2da5 dbbe 18c5 113f 028f 2f3e
000000c0: 990a c43d 83ef 293e d229 3c3d e57a 1cbc
000000d0: 74f9 37bd 6a9e b53e 0690 993e 7f6d 1e3e
000000e0: cbed 93be f7e2 71bf 5209 563e 1f37 723d
000000f0: 0939 eabd e38a 19be cb2a 853e ea71 ea3d

fc2.weight f4 [2, 64]
0.04795582 0.06802393 -0.09527315 0.02904017 0.09636494 -0.0055358196 -0.13201581 -0.062758274
0.13538082 0.071268916 -0.029824596 -0.3534338 -0.102078475 0.2055895 0.5217433 0.16831324
-0.17995828 -0.20944905 -0.27114394 -0.52585024 -0.3289336 -0.070346504 -0.03582768 -0.028018849
0.35115176 0.026517889 0.12802775 0.0035557405 0.2079336 0.045222566 0.20345029 -0.2495965
-0.11977301 -0.033195756 -0.024518918 -0.25012788 0.2596578 -0.062060688 -0.06096946 -0.043518916
-0.1090222 0.0041533853 0.020327123 -0.03708893 0.0457022 -0.16768807 0.14595291 0.08947607
-0.104195915 0.06895098 -0.058480974 0.09983144 0.1422868 0.18751775 -0.18310657 -0.06104053
-0.16903323 -0.5939617 0.07127923 -0.15108365 0.36070573 0.12959346 -0.07787173 -0.20656504
-0.0062216753 -0.07384721 0.07997371 -0.014502013 0.02076694 0.12787299 0.07697552 0.12792757
-0.20671526 -0.12503108 -0.10682014 0.12259389 0.08201677 -0.05856544 -0.448304 0.028541664
0.018578228 0.20885974 0.07668242 0.4930323 0.34821597 0.11647919 0.00199695 -0.028045386
-0.43224913 0.03620659 -0.08208756 -0.05340528 -0.14979447 -0.19389959 -0.33207148 0.09211605
0.027510066 0.08552891 0.1538593 0.35368016 -0.36399785 -0.08094384 -0.08083798 0.034041062
-0.09349445 -0.11615923 0.16207427 -0.032924574 -0.020705745 0.29651764 -0.14572372 -0.19082461
0.16697764 0.0762034 0.118738994 -0.102925815 -0.20592366 -0.09447278 -0.010098162 0.015576171
0.2724936 0.59528595 -0.20610385 0.08273931 -0.42341673 -0.20287937 0.18530926 -0.0072746505
00000000: 526d 443d 2150 8b3d 921e c3bd a7e5 ed3c
00000010: fb5a c53d d265 b5bb 272f 07be 6987 80bd
00000020: 45a1 0a3e 70f5 913d b652 f4bc 46f5 b4be
00000030: 850e d1bd 0e86 523e f890 053f 4e5a 2c3e
00000040: fc46 38be d079 56be 61d3 8abe 1f9e 06bf
00000050: fc69 a8be d411 90bd 0cc0 12bd c987 e5bc
00000060: 2aca b33e 0b3c d93c b519 033e 6d07 693b
00000070: 8cec 543e 4c3b 393d 4655 503e 3a96 7fbe
00000080: 8d4b f5bd 46f8 07bd e6db c8bc c310 80be
00000090: def1 843e 5933 7ebd 1dbb 79bd e440 32bd
000000a0: 0847 dfbd 1f19 883b 1185 a63c 90ea 17bd
000000b0: 3b32 3b3d 6cb6 2bbe ae74 153e 3b3f b73d
000000c0: ab64 d5bd 2c36 8d3d bf89 6fbd 6d74 cc3d
000000d0: a2b3 113e a704 403e 4a80 3bbe a305 7abd
000000e0: 0c17 2dbe e00d 18bf d8fa 913d acb5 1abe
000000f0: 6cae b83e 26b4 043e 377b 9fbd c985 53be
00000100: 32df cbbb 353d 97bd 42c9 a33d da99 6dbc
00000110: 6e1f aa3c 23f1 023e 57a5 9d3d 72ff 023e
00000120: 2aad 53be 2608 00be 84c4 dabd 8112 fb3d
00000130: 69f8 a73d 51e2 6fbd 1a88 e5be 35d0 e93c
00000140: 5e31 983c 54df 553e ac0b 9d3d bb6e fc3e
00000150: 5d49 b23e a48c ee3d 43df 023b 70bf e5bc
00000160: c24f ddbe 5c4d 143d 861d a8bd 7fbf 5abd
00000170: b963 19be 9d8d 46be 4605 aabe 57a7 bc3d
00000180: ca5c e13c c829 af3d 4b8d 1d3e 9115 b53e
00000190: ed5d babe e2c5 a5bd 628e a5bd a46e 0b3d
000001a0: 057a bfbd e4e4 edbd ccf6 253e ebdb 06bd
000001b0: 189f a9bc 29d1 973e 9938 15be 8767 43be
000001c0: 30fc 2a3e 8710 9c3d 6e2d f33d c5ca d2bd
000001d0: a7dd 52be f27a c1bd c372 25bc 3233 7f3c
000001e0: 4884 8b3e a964 183f e30c 53be 3a73 a93d
000001f0: 14ca d8be 9cbf 4fbe b6c1 3d3e 3160 eebb

fc2.bias f4 [2]
0.0017676454 0.02445613
00000000: 56b0 e73a 3958 c83c
