DeepAcTS/networks/intermediary/OLD_Runs/intermediary_valnet_rX_500.pth (torch, 3231 bytes, 4 tensors)

fc1.weight f4 [64, 4]
-0.90099406 -0.356939 0.8851498 0.9005429 -0.32547057 -0.54431117 -0.049922016 -0.32527354
-0.14253446 -0.3390112 -0.10220418 -0.19760682 0.6376626 0.30859563 0.01812539 0.05817879
0.4972981 0.34468395 -0.6180233 0.2705075 0.11521931 0.39629218 0.19770876 0.48308417
0.13119727 0.2712607 0.23907907 0.38822916 -0.049962986 0.08314817 -0.14772479 -0.1505624
0.4812752 0.58183527 -1.0111874 -0.80897987 0.598799 0.44717845 0.1996847 0.119467005
0.13307667 0.6988761 -0.59632707 -0.66041845 -0.32882145 -0.18683468 0.51152545 0.980661
0.17408928 -0.09364932 -0.29678866 -0.23677813 0.39986587 -0.2615753 -0.7708182 0.025443798
-0.1937086 0.2792657 0.13164371 0.16489011 0.36107048 0.15884086 -0.2856947 0.07323334
0.6572027 -0.29536045 -0.56322414 0.08902786 -0.24190633 -0.26831827 -0.46972424 0.2308708
-0.038218014 -0.25377643 -0.062469892 -0.38907117 0.43031746 0.35749698 -0.88567513 -0.55275375
-0.004327621 0.19661053 -0.06000119 -0.011230551 -0.08309698 -0.17331845 -0.3169106 -0.42116472
-0.2611808 0.12872286 0.34072956 -0.3426925 0.49157578 -0.59014726 0.24745466 0.31640023
-0.19792381 0.40748888 -0.042970065 0.056309473 -0.31748217 -0.5492461 -0.35579708 -0.11371685
-0.11776964 0.20791434 0.07377725 0.35215378 0.13613613 -0.050354704 -0.42792103 -0.29870164
0.7868041 -0.06831224 -0.10820573 0.31322554 0.25239572 -0.334961 -0.46870127 0.28351384
-0.5010601 0.42981014 0.2971985 -0.01755024 0.13486782 -0.18161349 -0.1592525 -0.36225918
0.3062989 0.2800543 -0.17225817 0.18191043 0.63134557 0.25681558 0.06485611 0.04421157
-0.2799742 -0.096956834 0.22293669 -0.20980304 -0.11116409 0.20765775 0.118643105 0.09548879
0.39594162 -0.2188285 0.049062837 0.062258225 0.59183604 -0.18538068 -0.5892555 0.20174651
-0.16121951 -0.24784878 0.20803997 -0.35510045 -0.054661505 0.52953154 -0.09689437 0.26787776
-0.13471977 0.71823543 0.1823961 -0.74805564 0.41221112 0.24517272 0.20596966 0.20121534
0.4046496 -0.13625516 -0.16818191 0.05468053 -0.3333144 0.16173384 0.25110617 -0.20679897
0.33596903 -0.055926066 -0.54378664 0.37095064 0.4461565 0.13677984 0.02116049 0.30693865
0.62310034 -0.106662884 -0.39771748 0.20677981 0.45342523 0.17302352 0.063460745 0.44261092
-0.22015452 0.3315379 -0.24044695 -0.1339607 0.42936814 -0.5454466 -0.8169507 -0.029507034
-0.062475737 0.2565328 -0.058871154 0.24422005 0.47385952 -0.4008967 -0.3569148 0.010170117
0.18705468 0.14267063 0.39126655 -0.14053458 0.073886596 0.032295622 0.04768493 0.21604788
-0.3566005 0.4995391 0.4962564 0.11334766 -0.5458473 -0.071814775 0.4776038 -0.38273183
-0.51647997 -0.006953503 -0.2029758 -0.01984354 -0.37372136 -0.54644656 0.6668808 0.92946124
-0.13425015 -0.12263212 -0.68861276 -0.21684149 -1.0052177 -0.5314381 0.56305254 0.8554316
-0.085892335 0.25956315 -0.5145412 -0.12007751 0.40565413 -0.5904471 -0.53841496 -0.1952546
0.5087748 -0.027171668 -0.5048658 -0.19308242 -0.3357243 0.48553237 0.24681677 0.21415207
00000000: 8ca7 66bf b5c0 b6be 2d99 623f fb89 663f
00000010: 14a4 a6be fa57 0bbf 077b 4cbd 418a a6be
00000020: 8ef4 11be e092 adbe 6d50 d1bd 7159 4abe
00000030: db3d 233f 3f00 9e3e b37b 943c e24c 6e3d
00000040: db9d fe3e 6a7a b03e c636 1ebf f67f 8a3e
00000050: 1af8 eb3d cfe6 ca3e 2a74 4a3e cf56 f73e
00000060: 9458 063e afe2 8a3e 25d1 743e f9c5 c63e
00000070: fda5 4cbd 9649 aa3d 2b45 17be 082d 1abe
00000080: b469 f63e 28f3 143f 976e 81bf 4e19 4fbf
00000090: e44a 193f 93f4 e43e 257a 4c3e 1eab f43d
000000a0: 4045 083e 8be9 323f e4a8 18bf 2f11 29bf
000000b0: 495b a8be 9751 3fbe 55f3 023f 990c 7b3f
000000c0: 7644 323e 37cb bfbd aff4 97be f775 72be
000000d0: 38bb cc3e 33ed 85be 5754 45bf 836f d03c
000000e0: 8c5b 46be eafb 8e3e 9ccd 063e f4d8 283e
000000f0: 3bde b83e 2ea7 223e 9346 92be 5dfb 953d
00000100: 703e 283f 7c39 97be 752f 10bf 3d54 b63d
00000110: 4bb6 77be 0361 89be b27f f0be 6569 6c3e
00000120: 7e8a 1cbd fcee 81be 6ee0 7fbd 5634 c7be
00000130: 9252 dc3e d809 b73e 9bbb 62bf 4581 0dbf
00000140: b7ce 8dbb 4554 493e cfc3 75bd 5800 38bc
00000150: c02e aabd 647a 31be 1b42 a2be e7a2 d7be
00000160: 7db9 85be edcf 033e 1b74 ae3e 6475 afbe
00000170: d2af fb3e e413 17bf c164 7d3e 36ff a13e
00000180: 8aac 4abe 62a2 d03e 6101 30bd c3a4 663d
00000190: 068d a2be 649b 0cbf 092b b6be 61e4 e8bd
000001a0: 3631 f1bd 7fe7 543e 8718 973d 804d b43e
000001b0: 4567 0b3e bc40 4ebd 7718 dbbe 6cef 98be
000001c0: fe6b 493f 4ae7 8bbd f79a ddbd 195f a03e
000001d0: 033a 813e 0280 abbe 9df9 efbe ba28 913e
000001e0: 7a45 00bf 1310 dc3e 672a 983e 85c5 8fbc
000001f0: ca1a 0a3e e3f8 39be 1613 23be 097a b9be
00000200: 36d3 9c3e 4763 8f3e 7264 30be ba46 3a3e
00000210: dd9f 213f 557d 833e 48d3 843d 3117 353d
00000220: c758 8fbe 4e91 c6bd 8449 643e 9cd6 56be
00000230: 00aa e3bd 3ca4 543e 28fb f23d a08f c33d
00000240: dcb8 ca3e 9414 60be 1df6 483d 7b02 7f3d
00000250: 9182 173f 6fd4 3dbe 73d9 16bf a396 4e3e
00000260: ba16 25be 12cc 7dbe 6e08 553e bacf b5be
00000270: bee4 5fbd 618f 073f 8e70 c6bd 4627 893e
00000280: fbf3 09be 47de 373f 0bc6 3a3e 9380 3fbf
00000290: 560d d33e 8f0e 7b3e b6e9 523e 650b 4e3e
000002a0: 3b2e cf3e 7986 0bbe e137 2cbe b1f8 5f3d
000002b0: 2fa8 aabe 8e9d 253e fd90 803e 1cc3 53be
000002c0: 2204 ac3e bb12 65bd 9a35 0bbf 3eed bd3e
000002d0: a06e e43e 0410 0c3e c458 ad3c 1027 9d3e
000002e0: 8183 1f3f 1272 dabd a0a1 cbbe 16be 533e
000002f0: 5a27 e83e 142d 313e b5f7 813d e69d e23e
00000300: 3070 61be 56bf a93e ba37 76be fe2c 09be
00000310: 24d6 db3e 63a2 0bbf ae23 51bf bcb8 f1bc
00000320: 8fe6 7fbd 4458 833e e122 71bd d214 7a3e
00000330: b79d f23e 5542 cdbe 89bd b6be 90a0 263c
00000340: 438b 3f3e 4018 123e 1754 c83e 4ce8 0fbe
00000350: db51 973d 6a48 043d 4651 433d a83b 5d3e
00000360: 5794 b6be 97c3 ff3e 5215 fe3e d122 e83d
00000370: a6bc 0bbf a013 93bd 7c88 f43e 6df5 c3be
00000380: 0838 04bf 36da e3bb e3d8 4fbe eb8e a2bc
00000390: 6858 bfbe ece3 0bbf b3b8 2a3f 2cf1 6d3f
000003a0: df78 09be 8d26 fbbd ed48 30bf b20b 5ebe
000003b0: f9aa 80bf 540c 08bf 3624 103f 91fd 5a3f
000003c0: 52e8 afbd 76e5 843e f9b8 03bf 33eb f5bd
000003d0: e6b1 cf3e 8b27 17bf 90d5 09bf d2f0 47be
000003e0: 113f 023f 1e97 debc e33e 01bf 66b7 45be
000003f0: 0ee4 abbe b397 f83e 89bd 7c3e ae4a 5b3e

fc1.bias f4 [64]
-0.25469398 1.1193242 1.0931542 0.8773761 0.94078326 0.86437404 0.6851916 0.6977355
-0.29481995 0.8876062 0.055938516 -0.22675027 0.88110226 0.8983123 -0.43561292 -0.3684882
0.59379286 1.2287126 0.77405643 -0.12013326 0.5648203 0.97577345 0.38082936 0.017249057
0.6706292 0.78227746 0.64256275 0.95446944 0.8896549 1.133566 0.5227568 0.9462941
1.0631584 1.059135 1.0699203 -0.48823142 0.56436735 0.76470864 0.51904345 -0.25672185
-0.03433683 -0.16854693 1.0569643 0.6290477 0.43494743 0.6329485 0.7436818 1.0444707
0.88496006 0.6905894 1.0457827 0.90655047 0.54770464 0.659243 0.6565509 0.51574504
-0.11821044 -0.31689963 0.7769061 -0.29123467 0.9968915 0.6100443 1.06375 -0.45750394
00000000: 4067 82be 0446 8f3f 7aec 8b3f b89b 603f
00000010: 2cd7 703f 9e47 5d3f b768 2f3f cb9e 323f
00000020: a4f2 96be 293a 633f c91f 653d 3931 68be
00000030: eb8f 613f cbf7 653f a808 dfbe 7caa bcbe
00000040: cf02 183f 7446 9d3f 9028 463f 6d08 f6bd
00000050: 1098 103f 4acc 793f 11fc c23e e54d 8d3c
00000060: 5bae 2b3f 5643 483f fe7e 243f 1c58 743f
00000070: 6cc0 633f b118 913f 64d3 053f 5540 723f
00000080: 9315 883f bc91 873f 26f3 883f 78f9 f9be
00000090: 617a 103f f2c3 433f 08e0 043f 0c71 83be
000000a0: c7a4 0cbd 9197 2cbe 9b4a 873f 4509 213f
000000b0: 6eb1 de3e ea08 223f ee61 3e3f 37b1 853f
000000c0: be8c 623f 78ca 303f 35dc 853f b113 683f
000000d0: 5f36 0c3f 26c4 283f b813 283f de07 043f
000000e0: 5118 f2bd ab40 a2be 51e3 463f b61c 95be
000000f0: 4834 7f3f dd2b 1c3f f628 883f f53d eabe

fc2.weight f4 [2, 64]
0.6800989 -0.6064404 -0.6667455 -0.6306255 -0.55679744 -0.45565754 -0.34916624 -0.5440586
0.35925275 -0.50234556 0.15150718 0.72778195 -0.5220536 -0.59921956 -0.00081829727 -0.09979024
-0.2676763 -0.48028773 -0.6132638 0.55262303 -0.3787784 -0.39524713 0.023093874 0.09809127
-0.5788206 -0.4083044 -0.23568724 -0.64329994 -0.42115408 -0.33735344 -0.087782785 -0.6168736
-0.581493 -0.5254121 -0.6559081 0.005424455 -0.30963078 -0.42195618 -0.2428862 -0.00055571797
0.20729046 -0.09139837 -0.5008936 -0.26506087 0.033480264 -0.37707174 -0.4740258 -0.47761965
-0.35768792 -0.29387325 -0.47003236 -0.4831775 -0.20442852 -0.21878797 -0.5216739 -0.01592275
-0.24605936 0.59317225 -0.64789534 0.62878245 -0.7157515 -0.50223786 -0.6806464 -0.13616139
0.6518329 -0.5751335 -0.62626976 -0.5518922 -0.46715242 -0.48825362 -0.5073376 -0.4367445
0.4733139 -0.5658532 0.1018766 0.57909775 -0.35614 -0.5544361 -0.08329971 0.08691579
-0.379118 -0.5116058 -0.47901177 0.49095985 -0.22017191 -0.45599577 -0.12388297 0.031370163
-0.41644663 -0.6309068 -0.5843922 -0.36094934 -0.3044632 -0.3507296 -0.25406212 -0.5287397
-0.48547515 -0.43832305 -0.46489605 -0.094144106 -0.50509197 -0.47924224 -0.3925503 -0.10783712
0.06488547 0.1085953 -0.6377385 -0.162343 -0.14805064 -0.60243315 -0.61903846 -0.45220587
-0.2566845 -0.55226135 -0.458213 -0.7260062 -0.27227497 -0.32851437 -0.62139505 -0.2101479
0.14585976 0.54313433 -0.6595983 0.55057955 -0.3936774 -0.66041744 -0.394996 -0.014528073
00000000: f61a 2e3f ae3f 1bbf d5af 2abf ac70 21bf
00000010: 478a 0ebf f24b e9be ebc5 b2be 6d47 0bbf
00000020: faef b73e b899 00bf b324 1b3e eb4f 3a3f
00000030: 4ea5 05bf 7466 19bf 0083 56ba d35e ccbd
00000040: de0c 89be 46e8 f5be dbfe 1cbf b478 0d3f
00000050: 3eef c1be d55d cabe 5d2f bd3c 13e4 c83d
00000060: 962d 14bf 460d d1be ff57 71be 4eaf 24bf
00000070: 82a1 d7be 97b9 acbe 76c7 b3bd 6eeb 1dbf
00000080: badc 14bf 6881 06bf 98e9 27bf a0bf b13b
00000090: ed87 9ebe a40a d8be 29b7 78be 9aad 11ba
000000a0: f343 543e 122f bbbd 903a 00bf 0fb6 87be
000000b0: 9a22 093d 8c0f c1be 82b3 f2be 908a f4be
000000c0: df22 b7be 8e76 96be 15a8 f0be 0b63 f7be
000000d0: b655 51be f409 60be 6c8c 05bf 6d70 82bc
000000e0: fcf6 7bbe 23da 173f 78dc 25bf e3f7 203f
000000f0: 7e3b 37bf a992 00bf d83e 2ebf e46d 0bbe
00000100: 85de 263f f33b 13bf 3753 20bf cf48 0dbf
00000110: 9a2e efbe 61fc f9be e1e0 01bf fa9c dfbe
00000120: 3356 f23e c1db 10bf aea4 d03d c03f 143f
00000130: fb57 b6be 86ef 0dbf 0a99 aabd e800 b23d
00000140: c11b c2be 99f8 02bf 0841 f5be 175f fb3e
00000150: bf74 61be 4778 e9be 5bb6 fdbd 007e 003d
00000160: 7e38 d5be 1c83 21bf ba9a 15bf 5ace b8be
00000170: 9ae2 9bbe d592 b3be 6e14 82be 7c5b 07bf
00000180: 3390 f8be e16b e0be db06 eebe a0ce c0bd
00000190: b54d 01bf 3d5f f5be 5afc c8be b5d9 dcbd
000001a0: ace2 843d 3667 de3d d542 23bf 3e3d 26be
000001b0: 969a 17be 0f39 1abf 4e79 1ebf 8787 e7be
000001c0: 276c 83be 0061 0dbf e59a eabe 8bdb 39bf
000001d0: a067 8bbe 0933 a8be bf13 1fbf 0331 57be
000001e0: 435c 153e da0a 0b3f 6fdb 28bf c8f2 0c3f
000001f0: 1690 c9be 1e11 29bf ea3c cabe 2807 6ebc

fc2.bias f4 [2]
-0.46394113 -0.5282047
00000000: b189 edbe 6c38 07bf
