DeepAcTS/networks/intermediary/OLD_Runs/intermediary_transnet_rX_end.pth (torch, 22543 bytes, 8 tensors)

fc1.weight f4 [64, 5]
0.18568319 0.3791636 -0.057546154 -0.19758499 -0.29441056 -0.15090688 -0.2123802 0.0739906
-0.10928615 0.55506814 0.03531216 -0.40484715 0.33343777 -0.5256653 0.5139642 -0.35998026
0.16546765 0.284751 -0.18435444 -0.22342676 -0.22846232 -0.30932873 -0.30874684 0.15779673
0.25244728 0.15872708 0.17720188 -0.35069534 0.06038321 0.16617328 0.38254938 0.46655336
-0.07817876 0.28129488 -0.37484393 0.39465562 -0.1335802 0.08094359 -0.03176327 -0.4394563
-0.39264724 0.29025385 -0.20082109 -0.04642554 -0.077179804 -0.16065441 0.010292002 -0.025799105
-0.20159467 -0.32985523 0.39530945 0.19834723 -0.22098978 -0.39900714 -0.25971183 -0.22753309
-0.4281515 0.18197545 0.29831952 0.28718936 -0.287022 0.20733564 -0.33169147 0.40147415
-0.26754314 -0.0762019 0.15644069 -0.22472523 -0.17110603 0.0070679467 -0.089092106 0.20451903
-0.38200215 -0.12036584 -0.24995978 -0.01115374 -0.20122465 0.043228157 -0.45198643 0.4932963
-0.44547677 0.23556687 -0.0034335444 0.12308591 0.053488284 0.2959532 0.35359576 0.4111284
-0.18394597 -0.03614693 -0.32922804 -0.017419565 -0.07570946 -0.44842175 -0.3029279 -0.17448191
-0.1603103 -0.17139284 0.04382892 -0.33380345 -0.43497097 0.16762263 0.01735626 0.2735783
0.2346828 0.4001909 -0.4461697 -0.06102354 0.26444626 0.5392219 0.41992515 0.31222615
-0.30812976 0.252087 0.3368026 -0.39607817 0.02222825 -0.4761407 -0.5058355 -0.108755656
-0.3555009 0.4522067 0.21097912 -0.35035706 0.06790773 0.009029421 -0.46932635 0.33875537
0.22976425 -0.19596392 -0.09132179 0.34632903 0.017030265 -0.3253885 0.44393203 -0.1104875
0.04846606 0.3851809 0.2840294 0.10619892 0.32179824 -0.13367143 -0.2642562 0.30754364
-0.056521367 -0.4870105 -0.09903456 -0.09169971 0.105786406 -0.09842167 -0.3493137 0.05456959
0.29511586 0.4402089 0.08256896 -0.35442588 0.30070296 -0.28375024 0.28386855 0.4667386
0.47641772 -0.03670605 -0.06338735 -0.43386954 0.37072682 -0.2781507 -0.08733947 -0.37095743
-0.17976902 0.43352202 0.39667875 -0.46739265 -0.38543895 -0.5120045 0.3459111 -0.19153315
-0.03247631 -0.25435805 -0.44737375 0.45020235 -0.32690704 -0.09985317 0.16484658 0.17057878
-0.06360999 -0.11003382 0.09761827 -0.43431252 0.09151185 -0.22639456 0.47533306 0.091882244
-0.19638255 -0.08869228 0.57764995 0.23076904 -0.57557255 0.23415507 0.16475911 0.6370999
-0.098667376 0.108186126 0.28745472 0.03862928 -0.11631359 -0.1859268 0.004168946 0.3580833
-0.08648623 0.1280963 0.31576923 0.33497438 -0.12193059 0.11368044 -0.13445997 0.17994104
-0.2070824 -0.4534101 0.28467658 -0.057963908 -0.11932503 -0.16490424 -0.07739188 0.28789893
-0.25287348 0.15155606 -0.068026185 -0.3378961 0.37216118 0.54897964 0.3821638 -0.16168335
0.28161344 -0.030200802 0.2660047 -0.50574976 -0.34660673 0.28039446 -0.2842488 0.40407
-0.13260698 -0.38745078 0.05885628 0.25492772 -0.05219681 -0.3585076 -0.46474475 0.02070925
0.21339343 -0.038175963 0.45612988 0.23473139 -0.15675046 0.24353193 -0.2296796 -0.27197742
00000000: bc23 3e3e bb21 c23e 84b5 6bbd b853 4abe
00000010: fbbc 96be 5587 1abe 327a 59be 6288 973d
00000020: 6bd1 dfbd f218 0e3f 7ca3 103d 2048 cfbe
00000030: 5bb8 aa3e 0092 06bf 2893 033f 554f b8be
00000040: 5a70 293e e2ca 913e 69c7 3cbe fcc9 64be
00000050: 07f2 69be 5660 9ebe 1114 9ebe 7795 213e
00000060: c540 813e 5a89 223e 6974 353e 578e b3be
00000070: 6354 773d 5429 2a3e 83dd c33e 15e0 ee3e
00000080: 301c a0bd e205 903e 8beb bfbe 4d10 ca3e
00000090: 3fc9 08be c1c5 a53d 341a 02bd 6b00 e1be
000000a0: 0f09 c9be 279c 943e 0ba4 4dbe b528 3ebd
000000b0: 7210 9ebd 9782 24be c99f 283c a558 d3bc
000000c0: d56e 4ebe c9e2 a8be 0066 ca3e 891b 4b3e
000000d0: 254b 62be aa4a ccbe f3f8 84be 6ffe 68be
000000e0: ac36 dbbe c657 3a3e 56bd 983e 7c0a 933e
000000f0: 8cf4 92be cb4f 543e 77d3 a9be 058e cd3e
00000100: 6afb 88be be0f 9cbd fd31 203e 5f1e 66be
00000110: 6b36 2fbe 3c9a e73b ec75 b6bd 706d 513e
00000120: c995 c3be 5e82 f6bd 75f5 7fbe 2dbe 36bc
00000130: d60d 4ebe 0210 313d c46a e7be 5591 fc3e
00000140: 8815 e4be 7138 713e 5105 61bb 7714 fc3d
00000150: 8816 5b3d 2e87 973e 810a b53e 6c7f d23e
00000160: 555c 3cbe ce0e 14bd 9490 a8be 7ab3 8ebc
00000170: 900d 9bbd 8997 e5be 5e19 9bbe 63ab 32be
00000180: 6228 24be 9b81 2fbe f485 333d 49e8 aabe
00000190: 84b4 debe 44a5 2b3e b72e 8e3c 7412 8c3e
000001a0: b050 703e d2e5 cc3e 5b70 e4be d2f3 79bd
000001b0: 8065 873e 720a 0a3f 6e00 d73e 1bdc 9f3e
000001c0: 2fc3 9dbe 8c11 813e 6471 ac3e c2ca cabe
000001d0: 0518 b63c b7c8 f3be 6f7e 01bf 49bb debd
000001e0: 3704 b6be a387 e73e e90a 583e 0062 b3be
000001f0: 3513 8b3d 23f0 133c 8b4b f0be 5871 ad3e
00000200: 5247 6b3e c4aa 48be eb06 bbbd 0a52 b13e
00000210: 0e83 8b3c 5299 a6be 0f4b e33e 4547 e2bd
00000220: 5984 463d 6e36 c53e 4d6c 913e d27e d93d
00000230: bdc2 a43e 2ae1 08be 974c 87be 5c76 9d3e
00000240: f382 67bd 7159 f9be a2d2 cabd 0fcd bbbd
00000250: 8ba6 d83d 4d91 c9bd 3fd9 b2be 5d84 5f3d
00000260: 6d19 973e 1063 e13e ea19 a93d 4f77 b5be
00000270: bdf5 993e b647 91be 3857 913e 5df8 ee3e
00000280: 06ed f33e 1559 16bd 3ad1 81bd 2624 debe
00000290: e8cf bd3e c569 8ebe 09df b2bd 22ee bdbe
000002a0: 5f15 38be 99f6 dd3e 7a19 cb3e 174e efbe
000002b0: 4158 c5be ba12 03bf 421b b13e 4421 44be
000002c0: e105 05bd 383b 82be 2c0e e5be ec80 e63e
000002d0: 5c60 a7be d27f ccbd 8bcd 283e 34ac 2e3e
000002e0: f445 82bd 6959 e1bd 16ec c73d 365e debe
000002f0: 916a bb3d fad3 67be db5e f33e c22c bc3d
00000300: 8218 49be 4ca4 b5bd dee0 133f b84e 6c3e
00000310: b958 13bf 59c6 6f3e 9db6 283e fb18 233f
00000320: 1f12 cabd b090 dd3d 442d 933e bc39 1e3d
00000330: d235 eebd 9863 3ebe a79b 883b b256 b73e
00000340: b11f b1bd ad2b 033e 81ac a13e c381 ab3e
00000350: bfb6 f9bd 4ad1 e83d e0af 09be 7742 383e
00000360: 690d 54be 5e25 e8be 21c1 913e 906b 6dbd
00000370: ae60 f4bd a8dc 28be a27f 9ebd 7d67 933e
00000380: a278 81be 8331 1b3e 5051 8bbd b800 adbe
00000390: e98b be3e ee89 0c3f f9aa c33e 5290 25be
000003a0: a32f 903e ac67 f7bc c531 883e d178 01bf
000003b0: 7076 b1be dd8f 8f3e 0f89 91be 43e2 ce3e
000003c0: 20ca 07be f35f c6be 4813 713d e385 823e
000003d0: 52cc 55bd 4f8e b7be 06f3 edbe 72a6 a93c
000003e0: cf83 5a3e 665e 1cbd db89 e93e 6d5d 703e
000003f0: 3183 20be 6f60 793e 2131 6bbe a040 8bbe

fc1.bias f4 [64]
-0.040506285 0.1619997 -0.01961015 -0.16821454 -0.21782859 -0.44071218 0.20841703 0.028849531
-0.3025388 0.52927613 -0.2508457 0.46388078 0.44049916 -0.2204511 0.35557774 0.08404359
0.34737527 0.40254703 -0.19445173 -0.010414407 -0.33497468 0.3853038 0.54863894 -0.25341818
-0.12218832 0.24243034 0.42787388 -0.33147943 0.3267505 0.089768514 -0.28904638 0.6129251
0.19820338 0.0024079457 0.45935905 0.5000443 0.44431472 -0.008490937 0.55681294 -0.16815688
-0.019696329 0.36289015 0.38506556 0.49684992 0.47647908 0.32207307 0.45430952 -0.34340778
-0.05814781 -0.14337035 0.16487604 0.22844163 -0.21560213 -0.25628722 0.32195562 -0.04006454
0.49777943 0.37279847 -0.053338796 0.3627087 -0.20769885 0.23432806 0.5120912 0.43202344
00000000: ebe9 25bd 40e3 253e 77a5 a0bc 6f40 2cbe
00000010: 750e 5fbe 07a5 e1be 466b 553e da55 ec3c
00000020: 5ee6 9abe a47e 073f d96e 80be c881 ed3e
00000030: 1b89 e13e efbd 61be 490e b63e 0c1f ac3d
00000040: 2cdb b13e a51a ce3e 5b1e 47be 30a1 2abc
00000050: cd81 abbe 8a46 c53e 9a73 0c3f 07c0 81be
00000060: df3d fabd a93f 783e 4912 db3e acb7 a9be
00000070: d74b a73e 8ed8 b73d e3fd 93be a9e8 1c3f
00000080: d4f5 4a3e a0ce 1d3b 1c31 eb3e e702 003f
00000090: 387d e33e 921d 0bbc 4b8b 0e3f 5131 2cbe
000000a0: 325a a1bc bdcc b93e 5027 c53e 1d63 fe3e
000000b0: 11f5 f33e c3e6 a43e 429b e83e 25d3 afbe
000000c0: 662c 6ebd adcf 12be 44d5 283e 9aec 693e
000000d0: cec6 5cbe 1438 83be 5ed7 a43e b71a 24bd
000000e0: f2dc fe3e 71df be3e c879 5abd f4b4 b93e
000000f0: 02af 54be b2f3 6f3e 6918 033f 2d32 dd3e

fc2.weight f4 [64, 64]
0.032672897 0.02295537 0.17016219 -0.012441099 0.142967 0.012498245 -0.018479345 -0.048342135
0.03552611 0.053089462 -0.08292765 0.21351553 0.1986795 -0.06189157 0.047164384 0.099451
-0.013855929 -0.027146716 0.08665251 0.13259126 -0.12107845 0.1660398 0.08340032 0.2002475
-0.018430907 -0.021504773 0.1735503 0.07915823 -0.020960765 0.09341934 -0.08061509 0.15049605
0.16485591 0.09968121 0.17129746 0.08042379 0.021648528 0.119671434 -0.007268911 0.3607968
-0.040367927 0.17632596 0.16115896 0.14179313 0.21282193 -0.011051627 -0.0023597036 -0.03315641
0.27557763 0.09970338 -0.06319694 -0.084606096 0.1193262 0.3091513 -0.0061726472 0.007196984
0.14083037 0.021517582 0.14036071 0.045257404 0.0138037335 0.19592689 0.116074346 0.012387074
-0.0037749559 -0.051771794 -0.024629591 0.024762258 -0.03261473 -0.03284113 0.07856208 -0.035773307
0.071404144 0.05472855 0.07672414 0.011984445 -0.08055477 -0.023800611 -0.11013594 0.035474345
-0.1262351 0.07007025 -0.073909074 0.06399509 0.041031882 -0.11410165 -0.016883329 0.03596525
0.03539738 0.08976896 0.07833764 0.11491571 -0.13550586 0.078904435 0.029709518 -0.12354195
-0.02491267 0.012049936 -0.010881626 -0.056277543 0.053851634 -0.12226203 -0.042926997 0.08634171
0.1233961 0.019437643 0.00122495 -0.06498319 -0.077028856 -0.020866545 -0.042609736 -0.06904147
-0.018359112 -0.014589604 -0.09650925 0.09024933 -0.13195509 0.032405473 -0.046016693 0.07492362
-0.10776247 -0.07708825 -0.08058353 0.06983732 0.0678581 0.021393701 0.036048573 0.09514635
0.11669111 -0.030404767 0.010818901 -0.010621369 0.08809377 -0.10473779 0.018585205 0.05115898
-0.0022286773 0.0055040726 0.039253756 -0.07795197 0.071064696 -0.021144435 -0.022341732 -0.0047022244
0.038335044 -0.05000034 -0.01986283 -0.068386585 0.012726799 -0.06901607 -0.016927812 0.040335298
0.017427891 -0.12317988 -0.09612924 -0.12311812 0.10335229 -0.09947628 0.06595276 -0.07876727
0.06448215 -0.053043094 0.012795332 0.10214618 -0.118478015 -0.096480176 -0.03255891 0.11391504
-0.047727436 -0.12749942 0.038481697 -0.117345065 -0.005395516 0.07941413 0.041014094 -0.0013671815
0.07641505 -0.0016119642 -0.052381158 -0.024586648 -0.06923335 0.024289906 0.040824357 0.071799755
-0.00013399236 0.04352923 0.08647096 -0.052704107 -0.080993116 -0.12948883 0.004992516 -0.066215
-0.06262573 0.23272432 0.012648924 0.043284416 0.11144191 -0.056492314 0.14576153 -0.035360478
-0.018838853 0.013174776 0.090353586 0.03301626 -0.0038699992 -0.041281685 0.16266252 0.037783433
0.13542071 0.047845796 0.119879 0.14494058 0.0072449 0.15478294 0.16394234 0.31002754
-0.0752818 0.13481688 0.11110003 0.08281118 0.23611403 0.049815424 -0.0077495277 0.20491673
0.17523377 0.092196085 0.113797136 0.22841254 0.03852861 -0.0005658708 0.23200718 0.17256497
-0.06643767 0.13210341 -0.034343798 0.0738808 0.14393663 0.13404387 0.0040381895 0.17108367
0.12829268 0.1734259 0.0938486 0.009070091 0.070696205 0.15813614 0.030399332 0.15046449
0.21283902 0.061861694 0.040962014 0.20689356 -0.0238828 0.19235517 0.20758449 0.20485729
00000000: 04d4 053d e60c bc3c ff3e 2e3e c0d5 4bbc
00000010: f165 123e 70c5 4c3c ff61 97bc 6702 46bd
00000020: d483 113d 5674 593d f9d5 a9bd d1a3 5a3e
00000030: a472 4b3e 0482 7dbd 712f 413d f7ac cb3d
00000040: fa03 63bc ca62 debc df76 b13d 01c6 073e
00000050: faf7 f7bd 5606 2a3e c9cd aa3d ae0d 4d3e
00000060: 6afc 96bc c72a b0bc 2bb7 313e b61d a23d
00000070: e9b5 abbc a452 bf3d 8619 a5bd a31b 1a3e
00000080: fdcf 283e aa25 cc3d 9a68 2f3e 3ab5 a43d
00000090: 4158 b13c 4c16 f53d 0c30 eebb 5cba b83e
000000a0: d758 25bd cb8e 343e db06 253e 3832 113e
000000b0: feed 593e e211 35bc 42a5 1abb 04cf 07bd
000000c0: 8318 8d3e 4931 cc3d 666d 81bd f645 adbd
000000d0: 4b61 f43d 1449 9e3e eb43 cabb add4 eb3b
000000e0: d635 103e a445 b03c b8ba 0f3e d45f 393d
000000f0: 0e29 623c 0fa1 483e 63b8 ed3d 27f3 4a3c
00000100: 4065 77bb a90e 54bd ffc3 c9bc 38da ca3c
00000110: 0697 05bd 6c84 06bd 28e5 a03d 0887 12bd
00000120: 563c 923d 0b2b 603d 8c21 9d3d 685a 443c
00000130: e6f9 a4bd 80f9 c2bc f48e e1bd 8c4d 113d
00000140: c643 01be fe80 8f3d a45d 97bd dc0f 833d
00000150: 0c11 283d 20ae e9bd e84e 8abc 4c50 133d
00000160: d8fc 103d cad8 b73d 7c6f a03d ee58 eb3d
00000170: 0cc2 0abe a698 a13d 6061 f33c 9003 fdbd
00000180: a815 ccbc 186d 453c d948 32bc 4883 66bd
00000190: 8893 5c3d 8464 fabd 38d4 2fbd ecd3 b03d
000001a0: 18b7 fc3d b13b 9f3c 808e a03a e815 85bd
000001b0: 4ec1 9dbd 51f0 aabc 8c87 2ebd 9d65 8dbd
000001c0: d965 96bc 3c09 6fbc a4a6 c5bd a4d4 b83d
000001d0: 3c1f 07be 9abb 043d 007c 3cbd 8e71 993d
000001e0: 92b2 dcbd 72e0 9dbd fa08 a5bd de06 8f3d
000001f0: 30f9 8a3d d841 af3c aba7 133d 17dc c23d
00000200: c0fb ee3d 6b13 f9bc c241 313c 4005 2ebc
00000210: 826a b43d c480 d6bd 0040 983c 148c 513d
00000220: 000f 12bb 825b b43b 8cc8 203d 48a5 9fbd
00000230: 5e8a 913d 1837 adbc 0206 b7bc 1e15 9abb
00000240: 3505 1d3d 28cd 4cbd 60b7 a2bc 440e 8cbd
00000250: 1084 503c 4c58 8dbd 32ac 8abc a036 253d
00000260: f0c4 8e3c bc45 fcbd 68df c4bd 5a25 fcbd
00000270: 5eaa d33d 38ba cbbd 3e12 873d bc50 a1bd
00000280: 380f 843d b743 59bd 83a3 513c 0432 d13d
00000290: 9aa4 f2bd 6697 c5bd 7e5c 05bd 4a4c e93d
000002a0: d87d 43bd 358f 02be fc9e 1d3d 9c52 f0bd
000002b0: decc b0bb e0a3 a23d 65fe 273d 0033 b3ba
000002c0: 7e7f 9c3d 8b48 d3ba a08d 56bd f069 c9bc
000002d0: 37ca 8dbd a0fb c63c 7137 273d c00b 933d
000002e0: 4d80 0cb9 b54b 323d b017 b13d 43e0 57bd
000002f0: b8df a5bd b898 04be 4298 a33b bb9b 87bd
00000300: eb41 80bd 494f 6e3e 6f3d 4f3c 004b 313d
00000310: a83b e43d 7c64 67bd 8342 153e 26d6 10bd
00000320: f053 9abc 04db 573c 4d0b b93d 0f3c 073d
00000330: d09f 7dbb fc16 29bd 0191 263e cdc2 1a3d
00000340: baab 0a3e f4f9 433d 1f83 f53d 4e6b 143e
00000350: a066 ed3b 6b7f 1e3e 80e0 273e eebb 9e3e
00000360: 582d 9abd 700d 0a3e 6a88 e33d e898 a93d
00000370: e0c7 713e 420b 4c3d c0ef fdbb b1d5 513e
00000380: 7b70 333e 4dd1 bc3d 790e e93d fae4 693e
00000390: 2dd0 1d3d f256 14ba 4a93 6d3e dfb4 303e
000003a0: 7910 88bd 1e46 073e 15ac 0cbd d14e 973d
000003b0: 2064 133e cc42 093e ca52 843b 8f30 2f3e
000003c0: 285f 033e 8f96 313e b233 c03d b89a 143c
000003d0: 2cc9 903d 71ee 213e 0508 f93c 5d13 1a3e
000003e0: 79f2 593e b062 7d3d c9c7 273d e8db 533e
000003f0: dda5 c3bc c1f8 443e 0791 543e 1cc6 513e

fc2.bias f4 [64]
0.1931555 -0.020199388 -0.11574753 0.10343741 -0.015382283 -0.12463499 0.031345636 0.1251783
-0.092924416 -0.058843657 0.12935054 -0.14366606 0.1740773 0.20239878 0.124831915 0.07802022
-0.029885218 0.09757841 -0.06918407 0.042943086 0.032486387 0.09898877 0.18033795 0.020363929
0.13586853 0.10350929 -0.03120631 0.15804718 0.19384016 0.2793272 0.038600817 0.10673498
0.11027725 0.04347613 -0.036802493 0.15237597 0.268773 0.115644455 0.19757324 0.07222673
-0.032572147 0.21550241 0.008140116 0.18538733 -0.08676533 -0.10758434 -0.06839663 0.20301193
-0.016736878 0.016664881 0.21117069 0.049167503 0.12890369 -0.059285663 -0.078684315 0.09825801
-0.019224057 0.0254296 0.07111275 0.19385199 0.09557675 -0.0866628 0.109209135 0.08937205
00000000: 8eca 453e 3079 a5bc 0a0d edbd fed6 d33d
00000010: f905 7cbc a140 ffbd 4864 003d be2e 003e
00000020: 284f bebd 0c06 71bd 7874 043e 321d 13be
00000030: 5241 323e a041 4f3e e0a7 ff3d 11c9 9f3d
00000040: d8d1 f4bc 30d7 c73d 61b0 8dbd 17e5 2f3d
00000050: 7210 053d a0ba ca3d 83aa 383e 41d2 a63c
00000060: 1f21 0b3e aefc d33d 60a4 ffbc 1fd7 213e
00000070: 097e 463e fa03 8f3e e41b 1e3d df97 da3d
00000080: 0ad9 e13d 0714 323d 36be 16bd 7208 1c3e
00000090: 9d9c 893e 00d7 ec3d a450 4a3e 9ceb 933d
000000a0: 5f6a 05bd aaac 5c3e 1f5e 053c 2dd6 3d3e
000000b0: 05b2 b1bd 2e55 dcbd 8813 8cbd 5ce2 4f3e
000000c0: c71b 89bc ca84 883c 213d 583e dd63 493d
000000d0: 54ff 033e 86d5 72bd 3e25 a1bd 7f3b c93d
000000e0: c57b 9dbc bd51 d03c 90a3 913d 2381 463e
000000f0: bebd c33d 447c b1bd 0aa9 df3d b108 b73d

mean_fc.weight f4 [4, 64]
0.15076752 0.089120805 0.022778304 0.23840101 0.22988726 -0.023238728 -0.031266347 0.16821255
-0.00294012 0.07474035 0.0828932 -0.035215378 0.057229336 0.24435829 0.07723757 -0.006515882
0.043799724 0.15013258 -0.028375413 -0.011950903 0.08232576 0.25255096 0.31733564 -0.017624289
0.1829927 0.11369678 0.08695418 0.31757215 0.3066415 0.2722246 0.13368319 0.09860233
0.046939917 0.1066919 -0.10996746 -0.014185866 0.31163752 -0.09767625 0.07037501 -0.04179507
0.014215621 0.25521216 -0.08068432 0.19480155 0.045044255 0.088511035 0.12144109 0.17391635
-0.015960734 -0.07131196 0.16894004 0.23255321 0.25212243 0.0008393556 -0.07867706 0.14750195
-0.020792333 0.13149206 0.22440289 0.08326063 0.0069995862 -0.08506735 0.12328184 0.053568542
0.12241283 -0.06979801 -0.049154434 0.33180633 0.1969982 0.12273771 0.10167334 0.32854402
-0.08419734 -0.09980671 0.22814822 -0.088477805 0.09689624 0.16289753 0.04994768 0.0039023948
-0.02690928 0.04340915 0.058549173 -0.008788336 -0.10482222 0.34372568 0.23026463 -0.024571555
0.19718969 0.21060155 0.11662191 0.28110862 0.32791635 0.33086926 0.17864189 -0.013798346
0.19777167 0.099711895 -0.07629922 0.15194699 0.37637463 0.045015663 0.14738789 -0.036985625
-0.022939462 0.18515238 0.08847778 0.06332208 0.085214205 0.04354283 -0.058740556 0.2743409
0.16871835 0.10446729 0.20115362 0.1297265 0.25050202 0.00951561 -0.058291942 0.123029225
0.141832 0.08995488 0.2845672 0.15241823 0.053360566 0.10463633 0.09410535 0.36353868
-0.02724521 -0.10722192 -0.08944979 0.22052956 -0.011679719 0.07844172 0.039525006 0.2208328
-0.017324273 -0.11301583 0.13318059 -0.12888178 0.12786655 0.014259986 0.1468849 0.092588864
0.019839121 -0.007671122 -0.08521289 0.007943488 0.068313554 0.08270963 0.20355627 0.04019302
0.023124356 0.11056609 0.017926991 0.2158269 0.053657997 0.0399594 0.033431258 -0.06517995
0.01850974 0.20094967 0.03232152 0.15771352 0.11029569 -0.09262943 0.20927778 0.03070633
-0.027018774 0.07310273 -0.027243895 0.059919678 -0.08754739 -0.019979795 -0.032411274 0.21684794
0.08534092 -0.03586521 0.07345846 -0.0064210007 0.095089965 0.0010457039 0.087823674 0.17976883
0.16152172 0.14399323 0.09195661 0.090554856 -0.025607016 -0.01487498 0.06192008 0.047919873
-0.107596785 0.010857187 -0.032009486 -0.10223771 -0.18985075 0.035869066 0.072914116 -0.13902754
-0.06993992 0.09592785 -0.097899154 -0.01611457 -0.11680324 -0.024344375 -0.16005449 -0.016834637
-0.046588846 -0.10517303 0.0023862536 0.03823152 0.040487908 -0.29613534 -0.24242873 0.0702007
-0.14937358 -0.13918723 0.014679939 -0.24182044 -0.277267 -0.1525045 -0.16721937 0.09314566
-0.15661058 -0.12011573 0.11746883 -0.11493283 -0.24010202 0.00079524517 -0.20990743 0.081427805
0.039603543 -0.044201367 -0.0370679 -0.16249654 0.096333385 -0.009268353 -0.07363751 -0.1433648
-0.20407134 0.050713435 -0.25731125 -0.040223002 -0.0031689184 -0.115604855 -0.028258383 -0.06591213
-0.04770689 -0.10680611 -0.23499817 -0.14178911 -0.045455847 -0.04546322 -0.12342301 -0.120780505
00000000: cd62 1a3e f884 b63d 9199 ba3c 651f 743e
00000010: 9167 6b3e 255f bebc 2411 00bd e93f 2c3e
00000020: 07af 40bb 7811 993d e9c3 a93d 003e 10bd
00000030: 4f69 6a3d 0f39 7a3e bb2e 9e3d 2e83 d5bb
00000040: 5767 333d 5bbc 193e 8e73 e8bc b8cd 43bc
00000050: 689a a83d 5c4e 813e d179 a23e d060 90bc
00000060: 7062 3b3e dbd9 e83d 0815 b23d d198 a23e
00000070: 1d00 9d3e 0661 8b3e 3fe4 083e 05f0 c93d
00000080: 1244 403d 4881 da3d 9f36 e1bd d66b 68bc
00000090: f48e 9f3e 7c0a c8bd c620 903d 4f31 2bbd
000000a0: a3e8 683c 2bab 823e d23d a5bd 0f7a 473e
000000b0: 5380 383d 4645 b53d 1bb6 f83d 2117 323e
000000c0: 16c0 82bc 010c 92bd 9efe 2c3e 6e22 6e3e
000000d0: 3116 813e 3308 5c3a 7021 a1bd c00a 173e
000000e0: af54 aabc dba5 063e dfc9 653e 8d84 aa3d
000000f0: c95c e53b ca37 aebd 307b fc3d b06a 5b3d
00000100: 94b3 fa3d 42f2 8ebd 2956 49bd 85e2 a93e
00000110: e5b9 493e e95d fb3d 1d3a d03d ec36 a83e
00000120: a86f acbd 7667 ccbd b09f 693e da33 b5bd
00000130: 8971 c63d 9cce 263e f095 4c3d 52bf 7f3b
00000140: da70 dcbc cbcd 313d 42d1 6f3d f4fc 0fbc
00000150: 08ad d6bd d0fc af3e 7eca 6b3e 494a c9bc
00000160: 18ec 493e efa7 573e 78d7 ee3d 78ed 8f3e
00000170: a7e4 a73e b267 a93e e6ed 363e 7512 62bc
00000180: a884 4a3e c035 cc3d c442 9cbd fe97 1b3e
00000190: 2db4 c03e 5862 383d daec 163e 3d7e 17bd
000001a0: 8aeb bbbc 9698 3d3e d733 b53d 02af 813d
000001b0: c984 ae3d f759 323d f099 70bd 6976 8c3e
000001c0: 81c4 2c3e f2f2 d53d 37fb 4d3e 06d7 043e
000001d0: cd41 803e 5ce7 1b3c 88c3 6ebd bff6 fb3d
000001e0: 683c 113e 443a b83d cbb2 913e 8613 1c3e
000001f0: 9c90 5a3d 924b d63d 4eba c03d be21 ba3e
00000200: 5931 dfbc 2a97 dbbd 7431 b7bd 80d2 613e
00000210: 4b5c 3fbc 0da6 a03d f9e4 213d fe21 623e
00000220: a2eb 8dbc d874 e7bd 7e60 083e 96f9 03be
00000230: 73ef 023e b7a2 693c ff68 163e 3b9f bd3d
00000240: a785 a23c 095e fbbb 1884 aebd 6725 023c
00000250: fae7 8b3d ab63 a93d 0e71 503e 70a1 243d
00000260: 4a6f bd3c 7970 e23d a0db 923c ba01 5d3e
00000270: 7dc8 5b3d 78ac 233d 37ef 083d 117d 85bd
00000280: bda1 973c c0c5 4d3e 9263 043d a77f 213e
00000290: b5e2 e13d 80b4 bdbd ea4c 563e d78b fb3c
000002a0: 7a56 ddbc e2b6 953d 972e dfbc 566e 753d
000002b0: 0c4c b3bd abac a3bc afc1 04bd 630d 5e3e
000002c0: 38c7 ae3d 66e7 12bd 6471 963d 4267 d2bb
000002d0: 87be c23d 0010 893a e6dc b33d 5215 383e
000002e0: f365 253e f672 133e bf53 bc3d d374 b93d
000002f0: cec5 d1bc 30b6 73bc e99f 7d3d a147 443d
00000300: b45b dcbd 58e2 313c 611c 03bd 0162 d1bd
00000310: 3c68 42be 71eb 123d ff53 953d 3c5d 0ebe
00000320: a93c 8fbd d275 c43d 5a7f c8bd b402 84bc
00000330: 8936 efbd db6d c7bc 53e5 23be cbe8 89bc
00000340: f2d3 3ebd f564 d7bd b162 1c3b a898 1c3d
00000350: a6d6 253d 0d9f 97be 3d3f 78be 62c5 8f3d
00000360: 63f5 18be 1987 0ebe 2084 703c c79f 77be
00000370: f1f5 8dbe 242a 1cbe 8e3b 2bbe 27c3 be3d
00000380: 865e 20be 3cff f5bd 7f93 f03d e761 ebbd
00000390: 4edd 75be 0078 503a f9f1 56be 9fc3 a63d
000003a0: 5337 223d 7e0c 35bd 83d4 17bd 7e65 26be
000003b0: 704a c53d 4ada 17bc 43cf 96bd 39ce 12be
000003c0: 14f8 50be e4b8 4f3d 4dbe 83be e0c0 24bd
000003d0: a1ad 4fbb 3dc2 ecbd 207e e7bc f0fc 86bd
000003e0: 4d68 43bd 29bd dabd 5ca3 70be 2a31 11be
000003f0: e92f 3abd a437 3abd 34c5 fcbd c55b f7bd

mean_fc.bias f4 [4]
0.25311673 0.244771 0.21002735 -0.14382793
00000000: 8498 813e 40a5 7a3e 6911 573e a147 13be

stdev.weight f4 [4, 64]
-0.1575639 -0.04886417 0.019972498 -0.045878366 0.06721331 0.08929667 -0.09460378 -0.11408056
0.04523567 -0.11299184 -0.0843667 -0.036169685 0.119636945 0.08643494 -0.12289501 -0.036204793
-0.011153234 0.059091866 0.09073834 0.023618752 -0.043671068 0.11418762 0.050864715 -0.035888042
-0.00074237265 -0.009884445 -0.05997169 -0.16609839 0.017347462 0.043392546 -0.006741912 -0.032344088
-0.017863702 0.05975614 0.006012812 0.09219705 0.0552594 0.06326762 0.07083552 -0.061726745
-0.06264404 -0.1378311 -0.055164028 -0.07115671 -0.0058915312 0.07032208 -0.0120247705 -0.21303095
0.040471997 0.09257491 -0.021809243 0.027761549 0.0823295 0.06255323 -0.07246259 0.100356266
0.06463602 -0.048565544 -0.15885264 -0.116677456 -0.022588488 -0.07949303 -0.12246209 0.04748081
0.07987361 -0.13761559 -0.07165877 0.031111095 0.018161796 0.07466642 0.106243275 0.12865832
0.117213935 0.03010492 0.2825415 0.07005552 0.077145465 0.045890696 0.1346591 -0.097848125
-0.069396004 0.18742886 -0.045128744 -0.07567403 -0.044424556 0.32450175 0.21342511 -0.07691351
0.2356985 0.24710426 0.10759391 0.13991816 0.18588719 0.14408642 0.14751193 -0.038592756
0.13784702 0.11286609 0.0039776703 0.15171966 0.32794732 0.057930753 0.0964162 -0.07677195
-0.11666009 0.1960017 -0.04817907 0.014647504 0.028400857 0.113617145 0.0058866274 0.20781104
0.12500536 -0.09579599 0.12847988 0.220855 0.16644321 -0.063909166 -0.06912832 0.0970364
0.13136445 0.012456081 0.016400112 0.10527643 -0.102499686 -0.09046227 -0.013757581 0.17152804
-0.07858699 -0.0300294 -0.00089500734 0.086929016 0.091611974 0.04313669 -0.0077158404 -0.01595392
0.002423472 -0.0027090013 0.1268282 0.09375662 0.08446816 0.15959288 0.044497125 0.090607375
0.099942416 -0.058727875 -0.063667156 0.052802097 -0.06905694 -0.023224074 0.11090866 0.061723784
0.012676215 -0.0559129 0.042164296 -0.031420566 -0.025625056 0.009724348 0.0643309 -0.10387328
-0.041616812 0.07075998 0.00527801 -0.08159251 0.004916666 0.07053484 0.02791001 -0.036738988
-0.055705342 0.1082107 0.073877715 0.0047874916 0.072206 -0.075921014 -0.045200743 0.11494521
0.06295967 -0.018683657 0.12567313 0.13813445 0.009850069 0.091753155 0.1087856 0.08601493
-0.07990844 0.052483078 0.05081421 -0.0009575299 -0.088260405 0.11148368 -0.03209583 -0.012814116
0.08476092 -0.08677365 -0.040072393 0.23008828 0.13094018 -0.051504556 0.010160464 0.12193743
-0.05679508 0.02140005 0.10791599 -0.10238601 -0.010262138 0.175276 0.12201518 -0.033999052
-0.011734304 -0.014008489 -0.009562806 -0.043905478 -0.055603407 0.052690607 0.09388972 -0.10130291
0.080789156 0.06744562 -0.009709328 0.29601464 0.26146722 0.123851344 0.1176698 0.020181756
0.054431155 0.17275187 0.022996914 0.12524402 0.23885067 -0.06947763 0.16567108 -0.0034522978
0.028917953 0.20763281 -0.11464892 0.08997319 -4.191405e-05 -0.10836107 -0.07328064 0.1695249
0.103582375 0.033026483 0.09112856 0.10007425 0.19367807 0.03572511 -0.097984746 -0.018161831
0.20314729 0.013556912 0.21876748 0.01562365 -0.03539795 0.04331577 -0.009460263 0.23452915
00000000: 6e58 21be cc25 48bd 5d9d a33c f4ea 3bbd
00000010: 22a7 893d 2ce1 b63d a0bf c1bd 12a3 e9bd
00000020: 0a49 393d 4468 e7bd 73c8 acbd aa26 14bd
00000030: 3704 f53d cd04 b13d 61b0 fbbd 7a4b 14bd
00000040: 0ebc 36bc 500a 723d 06d5 b93d 1d7c c13c
00000050: 6fe0 32bd 33db e93d 8557 503d 57ff 12bd
00000060: c99b 42ba 5ef2 21bc e0a4 75bd b215 2abe
00000070: 441c 8e3c 62bc 313d 42eb dcbb 3c7b 04bd
00000080: e656 92bc dbc2 743d 1f07 c53b cfd1 bc3d
00000090: ae57 623d 7492 813d 3712 913d 2fd5 7cbd
000000a0: 854b 80bd 9923 0dbe adf3 61bd 9cba 91bd
000000b0: bf0d c1bb 0605 903d 8b03 45bc c924 5abe
000000c0: f7c5 253d ea97 bd3d 4ca9 b2bc 306c e33c
000000d0: 5e9c a83d e81b 803d 4467 94bd 9687 cd3d
000000e0: e45f 843d aaec 46bd 44aa 22be 97f4 eebd
000000f0: 7e0b b9bc 3ecd a2bd 67cd fabd 3d7b 423d
00000100: c694 a33d 1aeb 0cbe d5c1 92bd b2dc fe3c
00000110: 0cc8 943c b5ea 983d 1396 d93d 02bf 033e
00000120: dc0d f03d 989e f63c 48a9 903e 4579 8f3d
00000130: 71fe 9d3d e2f7 3b3d 13e4 093e 9964 c8bd
00000140: 7e1f 8ebd 5aed 3f3e ebd8 38bd fcfa 9abd
00000150: 86f6 35bd 1825 a63e 1d8c 5a3e d584 9dbd
00000160: f35a 713e e608 7d3e 325a dc3d b546 0f3e
00000170: 3659 3e3e 648b 133e 5e0d 173e 7013 1ebd
00000180: c527 0d3e 5626 e73d 1e57 823b 665c 1b3e
00000190: b6e8 a73e cc48 6d3d db75 c53d 9d3a 9dbd
000001a0: 7ceb eebd abb4 483e 6b57 45bd 16fc 6f3c
000001b0: eaa8 e83c 1bb0 e83d 9ce4 c03b 6bcc 543e
000001c0: 6801 003e b030 c4bd 3b90 033e d027 623e
000001d0: 1770 2a3e cfe2 82bd 2693 8dbd 05bb c63d
000001e0: 6784 063e 9714 4c3c 8759 863c 2b9b d73d
000001f0: 5beb d1bd 4844 b9bd 7a67 61bc 0ca5 2f3e
00000200: 37f2 a0bd 3700 f6bc ed9e 6aba d707 b23d
00000210: 0f9f bb3d 19b0 303d 29d5 fcbb ccb1 82bc
00000220: 1dd3 1e3b 8089 31bb 40df 013e 7903 c03d
00000230: a5fd ac3d 516c 233e 9e42 363d 5c90 b93d
00000240: 9cae cc3d a48c 70bd ed63 82bd 0347 583d
00000250: ba6d 8dbd 6a40 bebc 1424 e33d 14d2 7c3d
00000260: e6af 4f3c ed04 65bd 78b4 2c3d dab2 00bd
00000270: a3eb d1bc df52 1f3c ebbf 833d 84bb d4bd
00000280: 6476 2abd 9cea 903d 28f3 ac3b f919 a7bd
00000290: fc1b a13b 9274 903d 89a3 e43c 9f7b 16bd
000002a0: 492b 64bd 929d dd3d 334d 973d 64e0 9c3b
000002b0: bde0 933d 7a7c 9bbd 6a24 39bd 6568 eb3d
000002c0: 00f1 803d 780e 99bc 75b0 003e 1e73 0d3e
000002d0: 2f62 213c 14e9 bb3d fcca de3d 9828 b03d
000002e0: 09a7 a3bd 7ff8 563d 9022 503d be02 7bba
000002f0: dfc1 b4bd 8e51 e43d eb76 03bd 4cf2 51bc
00000300: 2297 ad3d 62b6 b1bd f322 24bd 439c 6b3e
00000310: 2f15 063e 71f6 52bd 1378 263c 55ba f93d
00000320: f5a1 68bd 284f af3c 0f03 dd3d c2af d1bd
00000330: 8722 28bc 8d7b 333e 18e3 f93d 9742 0bbd
00000340: 3d41 40bc dd83 65bc 51ad 1cbc 3bd6 33bd
00000350: 66c0 63bd 1bd2 573d 4149 c03d e677 cfbd
00000360: c974 a53d ee20 8a3d e013 1fbc 3b8f 973e
00000370: 08df 853e c6a5 fd3d ddfc f03d 3654 a53c
00000380: 34f3 5e3d dee5 303e 0664 bc3c f83f 003e
00000390: 4595 743e 4a4a 8ebd aea5 293e f23f 62bb
000003a0: 58e5 ec3c b29d 543e 0ecd eabd dd43 b83d
000003b0: decc 2fb8 69ec ddbd 2914 96bd ef97 2d3e
000003c0: ff22 d43d c746 073d 9ca1 ba3d baf3 cc3d
000003d0: 8b53 463e 7e54 123d 3aac c8bd 1fc8 94bc
000003e0: d805 503e cf1d 5e3c 9504 603e 56fa 7f3c
000003f0: 71fd 10bd e06b 313d 38ff 1abc 6928 703e

stdev.bias f4 [4]
-0.0030555874 0.24633498 0.101682775 0.20283331
00000000: 4040 48bb 3d3f 7c3e 0f3f d03d 89b3 4f3e
