DeepAcTS/networks/intermediary/100_ep_MAVG_22_Dark_room_agent/intermediary_obsnet_rX_end.pth (torch, 22989 bytes, 8 tensors)

fc1.weight f4 [64, 4]
00000000: b8c2 1dbf 1455 3abf 348c 5f3f 8a1e 94bf
00000010: 8530 8cbf 9255 51bf 991e 4c3f b611 93bf
00000020: d58f 88bf 622c 86be 6bce 5c3f f438 8dbf
00000030: 2cea adbc 769d b4be ada8 1f3f 2fc3 003f
00000040: 2289 df3e 8439 873e 417d f03c 897d a13e
00000050: 048b 4cbe 646d 02bf 4020 be3e 540b 833e
00000060: fa1a 12bf 9c2f febe 6bef 3f3f a93b 80bf
00000070: 127b a6be 0fb5 10bf 9563 323f 757c 7bbe
00000080: a9d5 f33d cc49 03bf b814 82be 376c e3be
00000090: 8304 acbf 9aca cebe 23f2 8b3f b71d acbf
000000a0: adab b7bf 0361 8abf a976 a93f 0859 bfbf
000000b0: c406 71bf 26c2 a6be ed86 3f3f 7d76 4abe
000000c0: 031b babf 6d2d 2dbf 24fb 9b3f ec24 a8bf
000000d0: e4b5 72bf 3ee8 a5bf bf8e ce3e 50a5 5bbf
000000e0: 445e 6dbf 2223 40bf afba 473f d777 63bf
000000f0: bdc2 babf 9324 76be eb7d 053f 87be a8bf
00000100: 5429 38bf abb1 7bbe de42 d03e 9c56 9dbe
00000110: 5b03 9dbf 5c48 81bf 14e6 673f 9110 96bf
00000120: 0e6d 4ebf 81b3 9cbf e036 213f 007e 7abf
00000130: 773a 81be 0ff1 fbbe cd6a 173f f833 8f3e
00000140: 57ee 7cbf b314 13bf 916e ee3e a912 b2be
00000150: 1fef cabe fcf0 b7be 78cb a4be 117f 183e
00000160: a7b8 b8bf 3ca4 3fbf e92d 283f 17dc b2bf
00000170: 395b 41bf a7e0 6abf b988 153f 6a9b 74bf
00000180: 746e c6be 459f eebe b573 e13e cf73 113c
00000190: 7734 b3be 03cf 4abf 9729 533e f8ef 80bf
000001a0: d164 d5bd fb19 32be 5848 1e3f 4362 adbe
000001b0: 4839 71be 74e3 d43e 8883 853d 365c 043f
000001c0: cb2c f43d c6b1 803e dbc7 043e 6f5b d63e
000001d0: bab5 5bbe bec1 803e db2d 593d 3c1e 773e
000001e0: b5c8 8fbf f56a 87bf 3801 913f 292b 84bf
000001f0: 1643 3a3e 245e 08bf a842 0d3f d14d 703e
00000200: 34b9 0fbf ec71 2cbf 5e03 4c3f e975 aabf
00000210: 58a3 a5be 163d a1be 362b 033f 6203 f53e
00000220: 31dd 6cbf 8c42 6abf 581c 173f 1ef3 81bf
00000230: 3ff3 2dbd eb42 613e 0a8b 86be 28db 813e
00000240: fd9e 9bbf 2cb9 7abf 4ed4 1f3f be15 b1bf
00000250: cfba 7fbf 6fbd 47bf 308f b23f 03b4 b8bf
00000260: ae2b e7be b979 89bf e398 9c3f c299 a5bf
00000270: 8bea 2abf c1e1 a93d 299a d33e 5e96 403e
00000280: f546 43bf 9e51 d8be 26f5 db3e 340b b0be
00000290: 183a 97be f8ae 593e 8e57 413f 9da5 ac3e
000002a0: b530 48bf 54ac a8bf 626a 843f 73b5 b1bf
000002b0: 8ed5 033f 82d7 64be 4da2 c7be 4d5b 0f3e
000002c0: 84fb 1dbe 1c60 54bf 652f 4c3e a062 d9be
000002d0: 48bb 03bf 1064 6ebf 4cc9 653f 18f7 52bf
000002e0: d5d6 b5bf 1fbf a9bf 0378 da3e 8839 3bbf
000002f0: cdcd a2be 37ee 53bf 068e d03e af0f 613e
00000300: 0103 06bf 716e e1be 21a9 513f 939a bdbd
00000310: 5e1c acbf ceb2 21bf 7e70 133f 8584 97bf
00000320: 062f 2bbf 8a78 b1be 13e6 293f 58d3 90be
00000330: d829 a9bf 812e 6abf b377 e73e 5c95 9fbf
00000340: f408 a0bf 74a3 a9be 57d1 a73f 3faa 88bf
00000350: 42e9 35bf 2d92 263d 44d5 67be a243 0fbd
00000360: d40f 61bf 9cdf ecbe 2d97 793f d7ae 59bf
00000370: 59ed b1bf 423b 71bf d5b9 6a3f abaf 9abf
00000380: b6f4 26bf db70 9bbd c755 f33c cdc4 133e
00000390: 5e6c 13bf 2abf 7dbe dbe6 863e 94d5 a6bf
000003a0: cdc1 9ebf f7e0 7cbe 7aaf d63e b4b2 53bf
000003b0: 0caf adbf 34b3 8abf ad59 483f 4086 abbf
000003c0: 4028 70bf 1810 babe faa9 233f 7bab 4dbf
000003d0: 7278 30bf 45f9 14bd 00fc 1a3e 8483 a6bf
000003e0: 9913 933e 23a3 b4be 84c7 e13d 45a9 ecbd
000003f0: 6f90 a6bf 47b5 e6be 3f3c 9a3f 87d7 51bf
-0.6162524 -0.7278607 0.8732331 -1.157182 -1.0952307 -0.81771195 0.7973419 -1.148978
-1.0668894 -0.26205736 0.8625247 -1.1033006 -0.021229826 -0.35276383 0.62366754 0.50297827
0.43659312 0.26411068 0.0293566 0.31541088 -0.19974905 -0.50948167 0.3713398 0.2559458
-0.5707241 -0.49645698 0.749747 -1.0018207 -0.3251577 -0.56526273 0.696832 -0.24559195
0.11905987 -0.5128448 -0.25406432 -0.444185 -1.3438877 -0.40388948 1.0933269 -1.3446568
-1.4349266 -1.0810856 1.3239337 -1.4949045 -0.9415095 -0.32569999 0.74815255 -0.19771762
-1.4539493 -0.6764744 1.2186017 -1.3136268 -0.94808793 -1.29615 0.40343282 -0.8579912
-0.9272196 -0.7505361 0.7801923 -0.88854736 -1.459068 -0.2403739 0.5214526 -1.3183144
-0.7193806 -0.24579494 0.40676016 -0.3073014 -1.2266649 -1.0100207 0.90585446 -1.1723806
-0.80635154 -1.224228 0.6297436 -0.9784851 -0.25239918 -0.4920735 0.5914734 0.27969337
-0.9880118 -0.5745346 0.4656873 -0.34779862 -0.3963556 -0.35926044 -0.32186484 0.14892222
-1.4431351 -0.74859977 0.65695053 -1.3973416 -0.7552982 -0.9174904 0.5841175 -0.95549643
-0.38756144 -0.46605888 0.4403359 0.008877709 -0.35000965 -0.79222125 0.20621334 -1.0073233
-0.1041962 -0.17392723 0.6182914 -0.3386403 -0.23557007 0.41579783 0.06519228 0.517032
0.11922606 0.2513563 0.12966864 0.41866633 -0.21456042 0.25147814 0.053022247 0.24132627
-1.1233126 -1.0579516 1.1328497 -1.0325671 0.18189654 -0.5326865 0.55179834 0.23467185
-0.5614197 -0.6736133 0.7969264 -1.3317233 -0.32351184 -0.31491917 0.5123781 0.47854143
-0.9252501 -0.9150779 0.59027624 -1.0152318 -0.042468306 0.21998183 -0.26277953 0.25362515
-1.2157894 -0.979388 0.62433326 -1.383476 -0.9989442 -0.7802343 1.3949947 -1.4429935
-0.45150512 -1.0740272 1.2234157 -1.2937548 -0.66764134 0.08295012 0.41328552 0.1880736
-0.76280147 -0.4224977 0.4296047 -0.34383547 -0.2953651 0.21258152 0.7552422 0.33720103
-0.7819932 -1.317759 1.0344965 -1.3883499 0.51497734 -0.22347835 -0.38991013 0.13999672
-0.15427977 -0.8295915 0.19939955 -0.42458057 -0.51457644 -0.93121433 0.8976028 -0.82408285
-1.4206187 -1.326145 0.42669687 -0.7313466 -0.3179764 -0.8278536 0.40733355 0.21978639
-0.52348334 -0.44029573 0.81898695 -0.09257998 -1.3446157 -0.6316346 0.57593524 -1.1837317
-0.6686863 -0.34662277 0.6636669 -0.28286242 -1.3215895 -0.9147721 0.4520851 -1.2467456
-1.2502732 -0.33132517 1.311076 -1.0676955 -0.7105905 0.040666748 -0.22639948 -0.03497661
-0.87914777 -0.4626435 0.974963 -0.8503241 -1.3900558 -0.94231045 0.9168981 -1.208486
-0.6521715 -0.07589885 0.029703988 0.14430542 -0.5758723 -0.24779955 0.26348004 -1.3033929
-1.2402893 -0.24695192 0.41930753 -0.82694554 -1.3569045 -1.0835938 0.78261834 -1.3400345
-0.93811417 -0.36340404 0.6393124 -0.80339783 -0.68933785 -0.036370534 0.15135193 -1.3008885
0.2872589 -0.35280713 0.11024383 -0.11555723 -1.3012828 -0.4506018 1.2049636 -0.81969494

fc1.bias f4 [64]
00000000: aa5c e13f 1335 ea3f 7a27 fa3f 8df7 abbd
00000010: 1f46 62be 9281 a0bd 6d46 cd3f 30df 803e
00000020: b3b8 743f 3400 1440 88a6 0940 2b46 d73e
00000030: 8637 0140 3f4a 973f f6bb 9e3f 681e 3340
00000040: 15f0 d73e e067 dc3f 4a1a a73f 40a1 dd3d
00000050: 1366 793e b18e 5ebe 8734 2740 1ebc b73f
00000060: cd63 183e d3da ec3f 870d 053f 0b17 c13d
00000070: 2418 043f 3d0d de3e 4f9a 963f 93c0 bcbe
00000080: 34e0 0f40 35cf 93bd 57af cc3f 66d1 183e
00000090: bbc6 1c40 1cd3 0340 da43 cd3f 1860 f9be
000000a0: 0ae1 cf3e 778c 45be 9815 f33f 67cd b9bd
000000b0: 901c e03e 67cd 563f c779 6d3f 6d9a 22be
000000c0: 50f2 0f3f d709 0e40 908b 063f ee05 1440
000000d0: bf0b c23f 0253 f03e a2e9 913f 0ff4 ed3f
000000e0: c6cf bc3e 8557 3440 b2f5 d73f 1569 0c40
000000f0: 4eee ac3f 34b9 4140 7978 cd3d df86 763f
1.7606404 1.8297447 1.9543297 -0.08396826 -0.22097062 -0.078372136 1.6037117 0.2517028
0.9559433 2.3125124 2.1507893 0.4204572 2.019014 1.1819533 1.2401111 2.7987309
0.42175356 1.72192 1.3054898 0.108217716 0.24355344 -0.2173412 2.612581 1.4354284
0.14881821 1.850428 0.51973766 0.09428223 0.51599336 0.43369475 1.1765841 -0.36865672
2.2480593 -0.07217256 1.599101 0.14923629 2.4496295 2.05976 1.6036332 -0.48706126
0.4060138 -0.19291864 1.8990965 -0.090723805 0.4377179 0.8390717 0.9276394 -0.15879221
0.56229115 2.2193506 0.52556705 2.312862 1.5159835 0.4693833 1.1399424 1.8590106
0.3687727 2.8178418 1.6871855 2.1939137 1.3510225 3.026929 0.10032744 0.96299547

fc2.weight f4 [64, 64]
00000000: 34b4 863f 2bbf 713f c548 843f 7faa 403e
00000010: 6e81 1b3e 283b 2f3e 5f48 8a3f eaa9 5f3e
00000020: 40d1 3b3f 3414 843f d2da 723f c06f a53e
00000030: 6caf 833f c9d2 863f 2c29 873f f995 8f3f
00000040: 608c b73e 4118 8d3f f3a2 803f 894f da3d
00000050: 73c5 7c3f ebe4 b43f b018 933f 4bde 883f
00000060: fa4a 6e3e 276d 923f ea07 9a3e 13d0 8d3d
00000070: bc34 f53c ea90 0f3e ac1c 8d3f a164 ae3d
00000080: f310 933f 6e3e 273e 4928 753f 8866 f03b
00000090: 54a3 7f3f e447 963f 70a4 913f 4f2c 6e3e
000000a0: 058d bd3e d849 8e3e dc37 923f 846d 863d
000000b0: 0c61 953f 5f73 833f 7db3 863f 8fd8 0d3e
000000c0: 2efc 4c3e cd7a 853f 8720 a63e 38e7 803f
000000d0: 6177 6a3f 638d ae3e d366 843f 0e7b 883f
000000e0: c414 573e a8e3 833f f07f 9b3f 39da 833f
000000f0: 011f 943f 0a86 a23f c85f bc3d 8904 8b3f
00000100: 1532 853f 80cd a53f e3cc b03f fb62 e73c
00000110: eeb7 3c3e 25ce 803e 7c2a 843f edc1 693e
00000120: 1f5d 9dbe 0ddc b03f e0d6 ac3f fcea 2b3e
00000130: 73d9 a43f fc4d 733f 65f2 893f bc14 ab3f
00000140: 92ed b23d 6c25 ac3f bf20 963f 6fd1 b83e
00000150: caf2 103f 4ad4 e43d a758 993f 02e5 913f
00000160: 2c0d 21bd e754 923f 0d1c 403e ae09 033e
00000170: 8c11 98bd ae2e ff3d fe00 9b3f b9aa 263e
00000180: 91ff 843f 6b73 713e d741 a03f 5820 9a3d
00000190: 481e 9e3f c256 ab3f d1d1 8c3f 97e9 963e
000001a0: 76e4 833e f824 9c3e 85c2 973f dedd b6bd
000001b0: 05e0 593f 6528 893f 0460 aa3f 5796 4c3e
000001c0: 5799 dabc 57c2 ae3f 905f c23d 8456 9c3f
000001d0: 3e8c 8a3f cf08 d0bd 08de 933f 47cc a83f
000001e0: 1e95 26bd 5f89 663f b44a 523f db84 953f
000001f0: 7946 813f c86a 8b3f bdb7 3e3d e186 a43f
00000200: 14be b43e 42a5 c53e 1098 193f 1e27 14bc
00000210: 0548 b63d 79fb 5540 74a5 12be b38c 71bf
00000220: 31c3 fec1 dfb5 213f deb7 a83e f551 6a3f
00000230: f46c 083f 15ad 833f cb11 f73e 540a 623f
00000240: 97bd bdbe e008 0b3f 918e 633f 3ef6 723d
00000250: 6987 1e3d 533e 643e 2764 313f ddb8 0a3f
00000260: 157a 0840 4786 483f 9c36 933f b6b4 97bd
00000270: f1ee 033c c235 bebd 8231 163f 8bf2 563e
00000280: ad96 873e 99e6 10bd ddef 083f 2985 1e3e
00000290: bdbb 0d3f 32eb c03e a7e5 203f c0ef c73e
000002a0: 57f1 10bf 7da9 9fbc 47f6 8f3e 08cf 353e
000002b0: 180f 6e3f 6486 083f 560d d93e 109b e03f
000002c0: d82d ad3f b8e9 093f b8ce 743f c273 2f3f
000002d0: ccfe 263f c0f5 5d3e a758 3b3f 6ee0 ba3e
000002e0: 4bbc f53d 0939 573f 4a58 7a3f 23b9 093f
000002f0: e9a9 293f 4cee 673f 38be 26bd 5657 4f3f
00000300: 8903 973f 2533 8c3f 59b7 913f 7c85 ce3d
00000310: 40a7 2abe 7f59 8c3d 4367 993f 1368 b83d
00000320: 2d3b 3b40 5dae 913f a4d1 9c3f 762a 463d
00000330: ea38 913f 2036 873f 0b9e 883f f149 933f
00000340: bf1d 123e 9be4 8b3f e0a8 843f b9ec 303e
00000350: 7aa2 103f c187 653d e887 953f 6d74 813f
00000360: 9785 5b3e e069 803f 3936 f43d 4d00 913c
00000370: be6f 1bbd 8013 9a3d e86e 943f 25fb 2c3e
00000380: 4445 9a3f 4a0a 313e 2745 983f 1238 1dbe
00000390: 6fed 973f 1df4 8c3f c3d6 843f 22e0 143e
000003a0: 8f74 693e 1d7d bd3d adfd 823f d286 fa3c
000003b0: 20c8 8a3f 7da4 9a3f 3cec 833f 1caf 28bc
000003c0: 5ad2 853e db23 933f 9f3f 663e c08e 823f
000003d0: effa 813f 4b3d d7bd 2ad8 833f 2878 8a3f
000003e0: d5fd 373e 33fb 593f ea1c 483f 1833 8b3f
000003f0: 7974 843f 7a9a 843f 2b57 1dbe ecf7 813f
1.0523744 0.94432324 1.0334707 0.18815039 0.15186092 0.1711241 1.0803336 0.21842161
0.73366165 1.0318666 0.94865143 0.3231182 1.028791 1.0533077 1.055944 1.1217643
0.35849285 1.1023027 1.0049728 0.106597014 0.98738784 1.413236 1.1491909 1.0692838
0.23270789 1.1439561 0.30084163 0.06924453 0.029932372 0.14020124 1.1024375 0.08515287
1.1489547 0.16332409 0.95764595 0.0073364414 0.99858594 1.1740689 1.1378307 0.2325909
0.37021652 0.27790713 1.1423297 0.06563857 1.1670241 1.0269583 1.0523525 0.13852142
0.20018074 1.0428101 0.3244669 1.0070562 0.9158841 0.34092245 1.034388 1.0662553
0.21004015 1.030385 1.2148418 1.0300971 1.1571962 1.2697155 0.09197956 1.0860759
1.0405909 1.2953339 1.3812526 0.02824544 0.18429539 0.25157276 1.0325465 0.22827883
-0.30735108 1.3817154 1.3503075 0.16788858 1.287886 0.9504087 1.0777098 1.3365703
0.08736719 1.344892 1.1728743 0.36097285 0.56620467 0.111733034 1.198018 1.1398013
-0.039319202 1.143216 0.187607 0.12796661 -0.07425222 0.12460075 1.2109678 0.16276063
1.0390493 0.23579185 1.2520093 0.075257 1.2352991 1.3385851 1.1001531 0.2947509
0.2576024 0.30496955 1.1856238 -0.089290366 0.8510745 1.0715452 1.3310552 0.19979225
-0.026684446 1.3653058 0.09490883 1.2213902 1.0824049 -0.1015793 1.1552134 1.318734
-0.040669553 0.9005336 0.8214524 1.1681169 1.0099632 1.0891962 0.046561945 1.2853662
0.35301268 0.38602644 0.59997654 -0.009042529 0.089004554 3.3434737 -0.14320928 -0.94355315
-31.845308 0.6316814 0.3295278 0.91531307 0.5329125 1.0287195 0.48255762 0.8829701
-0.37058708 0.5431042 0.88889414 0.059316866 0.038703356 0.222894 0.69293445 0.5418833
2.1324513 0.7832989 1.150104 -0.07407515 0.008052574 -0.09287597 0.5866929 0.2099096
0.26482144 -0.035376165 0.53491 0.15480484 0.5536459 0.3767944 0.6285042 0.39050102
-0.56618255 -0.019489998 0.28117582 0.17754757 0.9299178 0.53330064 0.42392987 1.7547321
1.3529615 0.5387225 0.9562793 0.6853601 0.6523254 0.21675777 0.7318215 0.3649935
0.11998805 0.84071404 0.9779097 0.5379812 0.6627489 0.9059799 -0.04070875 0.8099264
1.1797954 1.0953108 1.1384078 0.10084054 -0.16665363 0.068530075 1.1984638 0.090042256
2.9254868 1.1381336 1.2251477 0.048380338 1.1345494 1.0563393 1.0673231 1.150694
0.1426916 1.092914 1.0364037 0.17277803 0.5649792 0.05603767 1.16821 1.0113655
0.21437679 1.003231 0.11924405 0.017700339 -0.037948363 0.075232506 1.1596346 0.16892679
1.2052388 0.17289081 1.1896104 -0.1535342 1.1869334 1.1011997 1.037804 0.14538625
0.2279837 0.09252379 1.0233666 0.030581865 1.0842323 1.2081448 1.0306468 -0.010295656
0.26137048 1.1495317 0.22485207 1.0199814 1.0154704 -0.105097376 1.0300343 1.0817919
0.17967923 0.85148925 0.7816912 1.0874968 1.0348045 1.0359643 -0.15365283 1.0153785

fc2.bias f4 [64]
00000000: 1bf7 403e c575 903c 0e72 b93d ba7f 213b
00000010: 3cbe fc3c 6034 053e 2ce7 a33d 2921 1a3d
00000020: 6c07 793d 4667 833d 13fc 8a3d 66d1 a23d
00000030: d77c 6c3d d7e4 b83d a536 cdbe 8f66 523d
00000040: 8641 46bd 60f8 55bd 8704 41be b073 603e
00000050: 24e9 aabc 3b02 87bd eccc 3a3e d9db be3c
00000060: d98e bcbc fa23 063e f66c 5c3d a947 d93d
00000070: acc2 89bd c850 4fbd 3482 243e e65a c33a
00000080: 4a41 8c3d 991b ca3d 61d0 a4bd 5596 f9bd
00000090: 96bd d73d d512 a63d 643c 383e d26e a9bd
000000a0: e659 96bd 5185 873c 959a 0a3e a0d1 dcbb
000000b0: b95b d03d e866 22bd a800 e83d 68e1 34be
000000c0: c418 1a3d 7678 31be f54a 2e3d d253 9d3d
000000d0: 830a bf3b 94aa 81be c045 113e 72f6 b13d
000000e0: 3c10 0bbd b8c1 28bd 992d a6be a512 a4bc
000000f0: 197d 14be 5405 a5bd 8ac9 6d3d db69 8e3c
0.18844263 0.017634282 0.09054957 0.0024642781 0.03085243 0.1300826 0.08003077 0.03762928
0.060798094 0.06416182 0.067863606 0.07950096 0.057736244 0.09028023 -0.40080753 0.05136734
-0.04840233 -0.052238822 -0.18849383 0.21919131 -0.020863123 -0.06592222 0.18242234 0.02329819
-0.023017334 0.13099661 0.05381485 0.10609371 -0.06726584 -0.05061415 0.16065294 0.0014904409
0.068483904 0.09868545 -0.080475576 -0.12186877 0.105342075 0.08109061 0.17991787 -0.082730904
-0.073413655 0.016543062 0.13535531 -0.0067388564 0.10173745 -0.03964892 0.1132825 -0.1766411
0.037621275 -0.17331108 0.042551953 0.07682003 0.0058301105 -0.25325453 0.14186764 0.08689584
-0.03395103 -0.04120037 -0.32456663 -0.020028422 -0.14500846 -0.08057657 0.05805353 0.01738446

mean_fc.weight f4 [4, 64]
00000000: 078e cdc0 da00 cdc0 a161 d6c1 074a ccc0
00000010: 87d2 a2c0 5de0 c9c0 bdfe c6c0 6957 cec0
00000020: f046 c7c0 58e2 04c1 4c0d f8c0 9d78 cdc0
00000030: ded2 cbc0 9169 cac0 71b5 09c1 04bd cbc0
00000040: 95ec 28c2 1516 cdc0 2cca 563d 4808 cdc0
00000050: 62ca c9c0 3505 cbc0 a667 cbbe d5b4 ccc0
00000060: 2740 bac0 705a cbc0 ce18 cac0 fc21 cec0
00000070: 1023 ccc0 8997 41bd e8e2 ccc0 6f2c cdc0
00000080: c1ce c5c1 763a d8c0 4ad9 11c1 0678 cec0
00000090: 7da6 c9c0 3cbe 43c1 e94e cec0 7814 d0c0
000000a0: d5ae 46bf fc38 cec0 383e c7c0 8204 cec0
000000b0: e40d 28c1 93b9 92c0 c12e cec0 e244 cdc0
000000c0: fa34 bfc0 768d 14c1 f95a ccc0 7ecd cac0
000000d0: 9b32 cbc0 eb82 cac0 1c8b cdc0 2735 c8c0
000000e0: 5fa5 e7c0 ef62 29c2 4ec1 ccc0 1764 96c0
000000f0: 6714 31be 463f 8b3c ff66 ccc0 f281 2ac2
00000100: c50d 46c0 4323 17c0 9fd5 15c0 5a06 20c0
00000110: ea05 01bf ed65 1cc0 4a2f 18c0 494d 1ac0
00000120: 8c3a 21c0 51cf 23c0 9cac 87c0 f6aa 18c0
00000130: d291 16c0 457e 23c0 5df1 a0c0 8504 15c0
00000140: 4001 00c0 52a9 19c0 f842 353c e7d0 19c0
00000150: 5e7e 1dc0 ea9f 30c0 e976 e2be f130 1ec0
00000160: 0ae0 93bf 859b 1fc0 aeed 20c0 9247 19c0
00000170: 8d52 16c0 2c87 7d3b d1dd 14c0 0080 2ec0
00000180: 8aef 22c2 7df8 28c0 4939 8ec0 590b 23c0
00000190: a9f0 20c0 19bb 2fc0 42d4 21c0 f2cc 1cc0
000001a0: 9019 39c0 8a61 23c0 3ff9 19c0 3d18 1ec0
000001b0: 1764 bfbf e628 e5bf 44ed 19c0 024e 1dc0
000001c0: 1a99 e3bf eb03 8dc0 2961 1cc0 64e4 15c0
000001d0: 71ef 1bc0 2fe4 25c0 9ee1 1cc0 02d5 16c0
000001e0: f577 89c1 c7be e5bf ef82 13c0 933b 1ebf
000001f0: b5dc b1bd 97b5 f43c c994 1bc0 63c5 e5bf
00000200: 49f8 dfbf 4354 90bf f86e f4bf a56c 7cbf
00000210: 7c50 63c0 4434 85bf 8224 95bf 59b5 84bf
00000220: 8d3a 94bf 313a 79c0 8b98 82c0 f077 6ebf
00000230: 4114 8ebf d15c 85bf 8cbb 20c0 5554 89bf
00000240: 0777 08bf c832 88bf 62fa f23c 15c0 6fbf
00000250: 1a7c 91bf 85cc 0ac0 b0d2 87be ced6 84bf
00000260: 1193 3cbf 5f33 75bf 9826 8fbf 5e30 87bf
00000270: da98 8fbf a05e 973d 9dc1 6fbf 50c6 17c0
00000280: 3f41 33c1 0405 68c0 becc 00c0 ef45 8bbf
00000290: 8087 78bf d634 0cc0 6dcf 6abf ae9f 12c0
000002a0: 2c39 3ec0 c266 8abf 98bb 94bf 1c63 8bbf
000002b0: 3dfc 89bf 30c9 59c0 8f53 89bf 1524 78bf
000002c0: c7c2 93be b526 b9bf cf74 94bf 09db 8bbf
000002d0: 8fb1 93bf f217 14c0 e62b 6ebf 4c82 7abf
000002e0: 0ec0 b2c0 3ee1 0ebf c887 11c0 544c 6dc0
000002f0: 5cec 313d 969f 5abd c0fb 8ebf 74f9 87be
00000300: 8f0c 28bf d471 75bf e016 23bf 59f9 53bf
00000310: 13ef 29bf ada7 5ebf abc9 5bbf 8270 73bf
00000320: 74de 3fbf e4e9 25c0 6349 09c0 d572 3dbf
00000330: aa06 4abf 7a24 5dbf a674 eabf 9dfb 47bf
00000340: ba84 b3be e9b2 3ebf 23bd 5bba e6b6 68bf
00000350: 2998 27bf f400 46bf 4d04 f1be f5de 72bf
00000360: 4a5d 0fbf 99ad 4abf dba4 59bf 6484 70bf
00000370: b85f 5bbf 2386 9f3d 37dd 5bbf 9aa1 37bf
00000380: 59e2 88c0 dc48 7dbf 0059 b2bf 1af2 5ebf
00000390: 3373 68bf 2dc5 43bf 9cfa 67bf 1efa a9bf
000003a0: 2eec 1441 e6d6 4dbf fe6f 51bf fa49 60bf
000003b0: 6672 46bf 8b7b 19bf bc2c 57bf 8d69 6fbf
000003c0: f84c 2dbf 3490 49c0 1238 62bf 4a72 36bf
000003d0: 8447 5fbf a6a1 70bf 46d1 69bf b724 4cbf
000003e0: 3180 a2c0 cd20 debe bc87 95bf d215 84bf
000003f0: 15b0 403c 0fe8 64bd 3417 53bf 4dc3 6ebe
-6.4235873 -6.406354 -26.79767 -6.3840365 -5.088199 -6.308638 -6.218596 -6.44817
-6.2274094 -8.30526 -7.751623 -6.4209733 -6.3694906 -6.3253865 -8.606797 -6.366823
-42.231037 -6.4089456 0.0524389 -6.407261 -6.305955 -6.3443856 -0.39727515 -6.397074
-5.820331 -6.3547897 -6.315528 -6.4416485 -6.37928 -0.047263656 -6.4026985 -6.411674
-24.725954 -6.7571363 -9.115549 -6.4521513 -6.3015733 -12.233944 -6.4471326 -6.5024986
-0.7761052 -6.444456 -6.226345 -6.4380503 -10.503391 -4.585153 -6.4432073 -6.4146585
-5.975217 -9.284536 -6.386105 -6.3375845 -6.3499274 -6.328481 -6.423231 -6.2564883
-7.238937 -42.346615 -6.398597 -4.699718 -0.17292939 0.016997945 -6.387573 -42.6269
-3.0945904 -2.3615272 -2.3411634 -2.5003877 -0.5039965 -2.443721 -2.3778863 -2.410967
-2.5191984 -2.5595286 -4.2398205 -2.3854346 -2.3526502 -2.5545819 -5.0294633 -2.3284009
-2.0000763 -2.4009595 0.01106333 -2.4033754 -2.4608378 -2.7597604 -0.44231346 -2.4717371
-1.1552746 -2.4938672 -2.5145068 -2.3949933 -2.3487885 0.0038685305 -2.3260386 -2.7265625
-40.733925 -2.6401665 -4.444493 -2.5475676 -2.5146887 -2.7457945 -2.5285802 -2.4500089
-2.8921852 -2.5528283 -2.4058378 -2.4702294 -1.495242 -1.7903106 -2.4051065 -2.4578862
-1.7781098 -4.4067283 -2.4434302 -2.3420649 -2.4364893 -2.5920522 -2.4512706 -2.356751
-17.183573 -1.7948846 -2.3048666 -0.61809653 -0.08684675 0.029871745 -2.4309561 -1.7950863
-1.7497646 -1.1275715 -1.9096365 -0.9860328 -3.5517874 -1.0406575 -1.1651766 -1.0367843
-1.1580368 -3.8941767 -4.081121 -0.9315176 -1.1099931 -1.041895 -2.511447 -1.0728861
-0.5330662 -1.0640497 0.029660407 -0.9365247 -1.1365998 -2.168733 -0.2652793 -1.0378053
-0.73661906 -0.9578151 -1.1183653 -1.0561635 -1.1218522 0.07391095 -0.93654805 -2.371479
-11.203429 -3.6253061 -2.0124965 -1.0880717 -0.97081757 -2.1907248 -0.91722757 -2.290996
-2.9722395 -1.0812609 -1.1619749 -1.0889621 -1.0780102 -3.4029045 -1.0728625 -0.96930057
-0.2885954 -1.4464937 -1.1598147 -1.0926219 -1.1538562 -2.3139615 -0.93035734 -0.9785507
-5.585944 -0.5581244 -2.2739124 -3.7077837 0.0434383 -0.05337485 -1.1170578 -0.26557505
-0.6564416 -0.9587681 -0.6370678 -0.8280235 -0.66380423 -0.869746 -0.85854596 -0.9509355
-0.7494881 -2.5924006 -2.1451042 -0.74003345 -0.7891642 -0.86383784 -1.8316848 -0.78118306
-0.350622 -0.74491745 -0.00083823706 -0.9090408 -0.6546655 -0.77345204 -0.47073594 -0.94871455
-0.5600172 -0.7917114 -0.85017174 -0.9395201 -0.8569293 0.077892564 -0.8588442 -0.7173096
-4.2776303 -0.989393 -1.3933411 -0.8708817 -0.9080078 -0.7647274 -0.90616775 -1.3279455
9.307661 -0.80406034 -0.8181151 -0.8761288 -0.7751831 -0.59954137 -0.84052634 -0.9352043
-0.6769557 -3.1494265 -0.88366807 -0.7126814 -0.872185 -0.93996656 -0.9133495 -0.7974352
-5.0781484 -0.433844 -1.1682048 -1.0319159 0.011760731 -0.05588537 -0.8245728 -0.23316689

mean_fc.bias f4 [4]
00000000: 38e7 c9bc c47e 0e3d a0b7 8dbc 1236 d53d
-0.024646387 0.034788862 -0.017299473 0.10410704

stdev.weight f4 [4, 64]
00000000: 262b a6be 4664 023e f011 bdbd 798b b0bc
00000010: e58e b2bd f822 80bd 2a7e 223e cf93 5f3d
00000020: 53fe 093e d798 6cbe a3de 833d 6e9b 183e
00000030: 5a11 1b3e 17f5 0c3e 4255 f13f c2fc 063e
00000040: 848f 0340 4dad 723e cdd9 afbc 64f7 6a3e
00000050: af21 b73f 94de 4d3e 83ab babc 58a5 1c3e
00000060: f571 c2bd 909c 013e 2b8a f03d 14b3 893e
00000070: 9b73 0d3e 2d1e e43d 0b3a 773e a98c 793e
00000080: 25d0 76bd 45c0 63bd 555b 3cc0 8c8b 133e
00000090: e4b2 0e3e c430 42bd b521 4abd f0cb 573e
000000a0: 8974 633b e951 a63e caba b43d 2edf 1a3d
000000b0: 6746 0cbe 2e95 a03f efa4 373e 12ef f03f
000000c0: 08ed cb3f 7907 64bf 69fb e13d 9c53 1a3e
000000d0: d8a2 363e 264c ef3f dd2b 933b 6a94 533d
000000e0: 9216 5cbc 3ec0 dd3f 42ee d13f fea7 1240
000000f0: 5a8e 1dbd 09c7 74ba aca3 803e f1c6 0240
00000100: 8040 a8bf d3d3 a3be a46a bd3d c397 46be
00000110: 28ad 29bc 6aa8 03be 81fd 2dbe 63ff b6bd
00000120: 1513 0bbe 807b 0f3e c464 c13f bcd3 3bbd
00000130: b0be a0be 7006 97be 7653 25c0 57b9 48be
00000140: db6f e7be c591 43be 2089 bfbc 7d9b 09be
00000150: 1d26 cdbe 3057 2ebe 887d 323e 06d4 7bbe
00000160: cec8 07bc becf ee3b ce31 04bd 2e1c 8bbe
00000170: ad7a c13b 060a 94bb 891d eebd b717 8dbd
00000180: e213 08be 8b03 cc3c 1321 0440 6792 aabe
00000190: 14e6 33be 9fb6 2f3d f4d9 37be 2f1e d33d
000001a0: 3a20 853d 193b d8bd 9d4b d53c 1ee8 2abf
000001b0: 3d0d ebbd 19c8 cbbd 100e 57bd 1d3d c0be
000001c0: 0eae 46be 4ac2 a6bf 8d70 8cbd e191 01be
000001d0: 2689 e0bd 4750 03bf 0f23 24be 115c 13be
000001e0: 4b21 0b3f dc0b c6be 6193 55be f21a 36be
000001f0: d440 283c 4604 843d fc97 0cbe c557 e6bd
00000200: 5246 1abf 5070 4bbe 035c 453c 3707 cc3d
00000210: fc0c c83f 70a1 68bd 46ab b7bd ef89 2f3d
00000220: de1b 0bbe 882c 2a3f 76d5 153f 77e1 36be
00000230: 4cce cebc 86be 75be 73d8 d5bf ddf7 f5bd
00000240: 7d97 0bbe e547 9dbe f4b6 b93d 7524 2cbe
00000250: 50bf e8be 854f b83e ba92 ec3d 31ff dcbd
00000260: 3571 cdbd 8773 043a 7a10 5ebe e0b6 86be
00000270: 3c82 58be 75b1 bc3d 02b5 6ebe dc68 1e3f
00000280: fc94 42bf 2c89 d3bb 8105 583f a261 a5be
00000290: 3190 28bd fcc3 8fbd db97 97bd 2110 643f
000002a0: 35d8 113e 440c f3bd 7b30 a5bd e424 0b3f
000002b0: 1c65 a6bb d30f de3f 3077 c43d 3ba0 42bf
000002c0: 2bd6 d33c dd4b 6abe 945a 2abe cff2 2bbe
000002d0: 82ff 51be 2d2c edbf 6fa4 3ebd 6722 19be
000002e0: 138e 303d f237 113d 888b abbf 17e1 f63f
000002f0: f01c ca3d 642d 9abc d2c7 a0bd ee80 013d
00000300: d6ba 823e 91b6 363e 3f76 24be b5d8 003e
00000310: 3743 6f3d 1b55 083e cc58 923d b322 5d3d
00000320: b670 2cbb 4246 9ebd 3e63 68bd 77d4 1e3d
00000330: b9e0 8f3e 0293 d33d b036 933f 4bcc d63d
00000340: e02f eb3d 4501 673e 7ee9 153c 6530 09bd
00000350: 033f 843e 35dc 793d 840c 993d 7d4e 523e
00000360: 9ea8 c3bd 3858 88bd babf 943d f923 1c3e
00000370: 6ef1 2c3c df21 de3d 6ee3 1a3d 282d c93c
00000380: 3d81 bfbc de4f 0fbe 4df2 18be 3550 563b
00000390: c8c1 ac3d fcc6 21be 96c8 b6bd 0ca3 3f3e
000003a0: a899 a93a 8bac 883e d7d8 a73d c047 31be
000003b0: 6a33 29be 2db2 c13d 31ad a83d 0d25 1d3e
000003c0: f03a fdbd 0905 7dbf 1387 2a3d df8d d7bc
000003d0: 3fcd 7f3e 4b8d 193f 1520 063e 7478 4a3c
000003e0: c55b 0cbe 4164 12bd 629d ee3e b05a 7cbd
000003f0: 40fb 3cbd 3418 073d 4076 723e 2766 e6bd
-0.32454795 0.12733564 -0.09231937 -0.02155088 -0.08718661 -0.0625667 0.1586844 0.05458432
0.13475923 -0.23105179 0.06438949 0.14903042 0.15143338 0.1376537 1.8854144 0.13182357
2.0556345 0.23698922 -0.02146616 0.22945935 1.4307154 0.20104438 -0.022786861 0.15297449
-0.09494392 0.1265738 0.117451034 0.26894438 0.13813631 0.11138568 0.24143235 0.24370064
-0.060257096 -0.055603284 -2.9430745 0.14408702 0.13935429 -0.047409788 -0.04934855 0.2107389
0.0034706912 0.32484367 0.0882469 0.037810497 -0.13698731 1.2545526 0.17934011 1.8822958
1.5931711 -0.890739 0.11034281 0.15070957 0.17835557 1.8695114 0.004491313 0.05165521
-0.013433116 1.7324293 1.6400836 2.2915034 -0.038465835 -0.000933752 0.25124872 2.0433924
-1.3144684 -0.31997547 0.09248856 -0.1939383 -0.010356225 -0.12857214 -0.16991235 -0.0893543
-0.13581498 0.14011955 1.5108876 -0.045856223 -0.31395483 -0.294971 -2.583219 -0.19601952
-0.45202526 -0.19098575 -0.023380816 -0.1343822 -0.4006814 -0.17025447 0.17430699 -0.245926
-0.008287622 0.0072879484 -0.03227406 -0.27169937 0.0059045167 -0.0045177964 -0.11626727 -0.06889289
-0.13288835 0.024904033 2.0645187 -0.3331482 -0.17568237 0.04289877 -0.17954236 0.103084914
0.06500287 -0.10558147 0.026037032 -0.6676043 -0.114771344 -0.09950275 -0.052503645 -0.37546626
-0.19402334 -1.3028042 -0.06857405 -0.12653305 -0.10963659 -0.5129437 -0.16028999 -0.1439059
0.54347676 -0.38680923 -0.20857002 -0.17783716 0.0102693625 0.064461276 -0.13729852 -0.112472095
-0.6026355 -0.19867063 0.012045863 0.099623136 1.5628963 -0.056794584 -0.08968215 0.042856153
-0.13584849 0.664742 0.5852884 -0.17859446 -0.025244854 -0.2399846 -1.670668 -0.12010167
-0.13632007 -0.30718914 0.09068099 -0.16810782 -0.4545846 0.3599817 0.11551423 -0.107908614
-0.10031358 0.00050526153 -0.21685973 -0.26311398 -0.2114343 0.09213535 -0.23311237 0.6187875
-0.7600858 -0.006455561 0.843834 -0.3230105 -0.041153137 -0.07019803 -0.07402011 0.8908711
0.14242633 -0.11867574 -0.080658875 0.54353166 -0.005077971 1.7348579 0.09593046 -0.7602574
0.02585896 -0.22880502 -0.16636115 -0.16791843 -0.20507625 -1.8529106 -0.046543535 -0.1495453
0.043104243 0.035453744 -1.3401957 1.9287442 0.09868801 -0.018820472 -0.07850613 0.031617098
0.2553317 0.17843081 -0.16060732 0.12582667 0.05841371 0.13313715 0.07145843 0.05398817
-0.0026312298 -0.07728244 -0.05673527 0.03877684 0.28101137 0.10330774 1.1501064 0.104881845
0.11483741 0.22559078 0.009149907 -0.03349342 0.25829324 0.06100102 0.0747309 0.20537753
-0.095536456 -0.066574514 0.072631314 0.15248097 0.010555608 0.10846304 0.03781455 0.024557665
-0.023377055 -0.1399531 -0.1493618 0.0032701616 0.08435398 -0.15798563 -0.089249775 0.18714541
0.001293947 0.2669414 0.08195656 -0.17312527 -0.16523519 0.094578125 0.08236159 0.15346165
-0.12364757 -0.9883581 0.041632723 -0.026312767 0.24980639 0.5998122 0.13098176 0.01235782
-0.13706882 -0.03574014 0.4660445 -0.061609924 -0.04613805 0.032982066 0.23677921 -0.11249953

stdev.bias f4 [4]
00000000: 901e 9ebc ed80 05be 35fa 553d 3068 833d
-0.019301683 -0.13037463 0.05224057 0.064163566
