DeepAcTS/networks/intermediary/100_ep_MAVG_22_Dark_room_agent/intermediary_transnet_rX_end.pth (torch, 23265 bytes, 8 tensors)

fc1.weight f4 [64, 5]
0.68683076 -0.6557671 0.97516674 1.0387763 0.7914091 1.1632152 -0.9776415 0.543011
0.3206097 0.8123745 1.4062175 -0.7053941 0.4609588 0.9576145 0.6133429 1.2714527
-0.78686816 0.15800858 0.568381 1.078478 0.8777386 -0.9404481 0.84070426 1.0142528
1.2987694 1.8942233 1.0917377 2.2461853 2.2344723 1.5253968 0.9630649 -1.1619743
0.8745285 1.0988078 0.8616626 0.8632496 -0.36018592 0.7680874 1.0487928 1.373476
1.3631024 -1.2141744 0.64224046 0.27013883 1.374229 1.2309119 -0.82737935 0.5862842
0.45177725 1.4621091 0.3946051 -0.19346178 0.35064763 -0.35353985 -0.22532429 1.2875696
-1.0636239 0.7240112 0.6703777 0.63324744 0.8105923 -0.42312056 0.91038924 0.5021743
0.89739054 0.53777313 0.45802304 -0.4160977 -0.26026753 0.20706557 0.19257489 0.07068846
0.08012311 -0.33026385 0.22801182 -0.17479032 0.1392057 -0.2096738 -0.07226816 -0.25142795
-0.4399342 -0.14746529 -0.43481258 0.19277835 -0.27805185 1.1087937 -0.9426873 0.46542472
0.49508953 1.3709921 1.3866222 -0.46815693 1.0654655 0.7648013 1.0853045 1.2017059
-0.64364207 0.8880836 0.9476837 1.2458808 1.0425762 -0.3601229 0.60393095 0.75520056
0.8405055 0.57830966 -0.5792864 0.60656244 0.63357323 1.46827 1.1306422 -0.63797605
0.740213 0.96434885 1.1488497 0.86593586 -0.89145267 0.8336957 0.5702404 1.4951332
0.12097251 0.22042614 -0.47423732 0.022724055 0.056552 0.6701473 -1.0060617 0.29145578
0.8033717 1.0175396 1.462376 -0.5650602 0.95689887 1.0938897 0.89481777 2.2549381
0.7825599 2.2452288 1.521862 2.2112572 -0.21854119 0.41702545 0.12525767 0.1825847
-0.29162627 -0.4449598 0.18028031 0.23152345 -0.33171353 -0.33494416 -0.14289357 0.038795456
0.29869086 -0.0883725 -0.007831365 -0.3377395 0.21940409 0.23231854 -0.44806147 -0.19214267
1.0483825 -0.43130848 0.16710714 0.48829156 1.3647668 1.3834554 -0.88510877 0.91571736
0.8215222 1.1296855 0.920589 -0.90876967 0.23470496 0.77912 0.9575782 1.2162216
-1.1003428 0.48090586 0.7318094 1.5112906 0.8583616 -0.82030594 0.7902925 1.1379626
0.75115335 1.5194738 -0.54679924 0.18208149 0.79216886 1.2683324 0.99973506 -0.82170105
0.19391866 0.4546218 1.3558692 1.0964713 -0.505883 0.7463219 1.0262654 0.60885084
1.3638252 -1.190233 0.27248648 1.0684326 1.4805583 0.92759436 -1.1749498 0.7812476
1.0821348 1.4443822 0.8985421 -0.31737214 0.1316429 0.7935929 1.3900237 1.1998079
-1.0064987 0.37382254 0.59361756 1.4494728 1.3693137 -0.61237025 1.0338516 0.55531484
1.251714 -0.30276793 0.27170748 0.1338225 -0.11326069 -0.4056612 1.0050682 -0.58885294
0.8022815 0.7741645 0.63313395 0.30585366 -0.32973894 0.25264728 -0.27943766 -0.18596554
0.045990434 -0.1906818 -0.25655952 -0.310279 0.55867004 1.15055 -0.43571463 0.74994
1.0662271 1.1525227 1.010641 -0.8876588 0.45793432 0.44562104 1.0715905 1.4552243
00000000: 24d4 2f3f 5ae0 27bf 87a4 793f 9ff6 843f
00000010: c999 4a3f 3ce4 943f b746 7abf c502 0b3f
00000020: f426 a43e c6f7 4f3f effe b33f b594 34bf
00000030: cb02 ec3e 3926 753f 0a04 1d3f f6be a23f
00000040: 3170 49bf 00cd 213e 6b81 113f 910b 8a3f
00000050: 7ab3 603f 35c1 70bf 6538 573f 09d3 813f
00000060: 133e a63f e975 f23f 10be 8b3f 80c1 0f40
00000070: 9801 0f40 3440 c33f 6c8b 763f 93bb 94bf
00000080: 1ae1 5f3f bca5 8c3f ec95 5c3f edfd 5c3f
00000090: 4a6a b8be 60a1 443f d83e 863f 10ce af3f
000000a0: 247a ae3f 116a 9bbf df69 243f a34f 8a3e
000000b0: bce6 af3f 858e 9d3f 22cf 53bf b916 163f
000000c0: 594f e73e 6426 bb3f ae09 ca3e d81a 46be
000000d0: 1688 b33e 2d03 b5be 69bb 66be 15cf a43f
000000e0: d424 88bf cc58 393f df9d 2b3f 811c 223f
000000f0: fa82 4f3f 42a3 d8be 450f 693f 7f8e 003f
00000100: 63bb 653f 80ab 093f ff81 ea3e c20a d5be
00000110: c941 85be ff08 543e 5a32 453e 1cc5 903d
00000120: 9617 a43d 5818 a9be ee7b 693e 3cfc 32be
00000130: f08b 0e3e bbb4 56be 5401 94bd 2abb 80be
00000140: 0e3f e1be 2401 17be c19f debe b067 453e
00000150: d05c 8ebe f4ec 8d3f f453 71bf 264c ee3e
00000160: 607c fd3e ab7c af3f d67c b13f 44b2 efbe
00000170: 2c61 883f 05ca 433f 42eb 8a3f 80d1 993f
00000180: bac5 24bf 7259 633f 669b 723f 0679 9f3f
00000190: 2373 853f 0762 b8be 389b 1a3f d354 413f
000001a0: 5e2b 573f 1a0c 143f 1d4c 14bf ad47 1b3f
000001b0: db31 223f 45f0 bb3f e2b8 903f 6652 23bf
000001c0: 997e 3d3f 91df 763f 820d 933f f9ad 5d3f
000001d0: 3e36 64bf 156d 553f 46fb 113f 8660 bf3f
000001e0: 6fc0 f73d 64b7 613e 3ccf f2be cc27 ba3c
000001f0: 12a3 673d c68e 2b3f a1c6 80bf b139 953e
00000200: c5a9 4d3f bd3e 823f 232f bb3f c9a7 10bf
00000210: 53f7 743f 9404 8c3f c712 653f e850 1040
00000220: d855 483f d4b1 0f40 60cc c23f 3d85 0d40
00000230: 43c9 5fbe 5c84 d53e 8c43 003e 7cf7 3a3e
00000240: 0a50 95be c5d1 e3be 679b 383e 7c14 6d3e
00000250: 5bd6 a9be cd7d abbe b152 12be fce7 1e3d
00000260: 02ee 983e a4fc b4bd 204f 00bc 31ec acbe
00000270: 77ab 603e e9e4 6d3e 5068 e5be 0cc1 44be
00000280: 6631 863f 77d4 dcbe 221e 2b3e 5a01 fa3e
00000290: aeb0 ae3f 1115 b13f 7d96 62bf 746c 6a3f
000002a0: 474f 523f 8999 903f b9ab 6b3f 21a5 68bf
000002b0: 7f56 703e 6974 473f d823 753f 26ad 9b3f
000002c0: 08d8 8cbf 4b39 f63e dc57 3b3f f871 c13f
000002d0: 96bd 5b3f 92ff 51bf 9c50 4a3f c2a8 913f
000002e0: 964b 403f 1e7e c23f 09fb 0bbf 9273 3a3e
000002f0: 94cb 4a3f b758 a23f a3ee 7f3f 005b 52bf
00000300: 9d92 463e 30c4 e83e 1f8d ad3f 2c59 8c3f
00000310: 8c81 01bf f40e 3f3f aa5c 833f a6dd 1b3f
00000320: d391 ae3f 8e59 98bf 5983 8b3e 66c2 883f
00000330: ef82 bd3f d376 6d3f c164 96bf d8ff 473f
00000340: 6583 8a3f 84e1 b83f db06 663f 9a7e a2be
00000350: 65cd 063e e728 4b3f 4cec b13f 4e93 993f
00000360: f3d4 80bf ab65 bf3e 52f7 173f 5388 b93f
00000370: ac45 af3f 4cc4 1cbf 4055 843f 1d29 0e3f
00000380: 2a38 a03f 6604 9bbe 3e1d 8b3e c408 093e
00000390: 38f5 e7bd d3b2 cfbe 13a6 803f 11bf 16bf
000003a0: 5262 4d3f a52f 463f 1115 223f da98 9c3e
000003b0: 8bd3 a8be fc5a 813e 7412 8fbe c06d 3ebe
000003c0: 7760 3c3d 1742 43be c55b 83be e4dc 9ebe
000003d0: 0005 0f3f 3945 933f fd15 dfbe 11fc 3f3f
000003e0: 217a 883f dd85 933f af5c 813f 9b3d 63bf
000003f0: 5e76 ea3e 7128 e43e e129 893f ca44 ba3f

fc1.bias f4 [64]
1.2115428 1.1614964 0.7281991 0.8705376 0.8493188 1.458419 1.1555731 1.1050407
1.126667 0.69280815 -0.15180781 0.825213 1.1484723 -0.048858088 -0.26833177 -0.445525
-0.25078493 0.8736589 0.3452944 1.0720667 0.6905867 1.0298986 0.822753 0.61440235
-0.20434342 0.91736865 0.35014117 1.6408526 -0.3338099 0.07445097 -0.23769306 0.031220712
0.68703014 0.6642695 0.49536678 0.40328312 0.90843415 0.8303626 0.8972459 0.96469444
0.8754169 0.6275089 1.1874236 0.449961 0.41936362 -0.16726425 1.1539278 -0.060395926
0.1162658 0.8075975 0.8302569 0.9648213 0.85014355 0.61966676 0.15270717 0.91751105
1.3350341 1.3247118 1.33816 -0.38708025 -0.27360007 1.1286561 1.6708744 1.1677778
00000000: d613 9b3f eaab 943f 426b 3a3f 8ddb 5e3f
00000010: f56c 593f 79ad ba3f d2e9 933f f971 8d3f
00000020: a036 903f e05b 313f 8273 1bbe 2941 533f
00000030: 2401 933f 6b1f 48bd c862 89be da1b e4be
00000040: e266 80be 1ca8 5f3f 6dca b03e 7b39 893f
00000050: 4aca 303f b8d3 833f f19f 523f 7949 1d3f
00000060: 673f 51be acd8 6a3f b445 b33e 7507 d23f
00000070: 22e9 aabe c079 983d cf65 73be 94c2 ff3c
00000080: 35e1 2f3f 910d 2a3f b7a0 fd3e 207b ce3e
00000090: 248f 683f a592 543f e8b1 653f 37f6 763f
000000a0: 521b 603f 6ca4 203f 7ffd 973f 4a61 e63e
000000b0: d4b6 d63e 5247 2bbe e8b3 933f b861 77bd
000000c0: c41c ee3d b6be 4e3f b78b 543f 87fe 763f
000000d0: 02a3 593f 7ba2 1e3f 455f 1c3e 01e2 6a3f
000000e0: 66e2 aa3f 2890 a93f d448 ab3f 622f c6be
000000f0: 4f15 8cbe ce77 903f 36df d53f be79 953f

fc2.weight f4 [64, 64]
0.016067773 -0.104743 -0.033377796 -0.13790673 -0.10456228 -0.11490972 0.092946135 0.10435296
-0.09272193 -0.04331886 0.03820774 -0.08487045 -0.049771786 0.035539266 0.02578415 0.10457863
-0.09289943 0.04746391 -0.020738758 -0.04352525 -0.025438137 -0.049819082 0.08887652 -0.09533842
0.05552206 0.056512177 0.010465919 0.07042198 -0.010629743 0.045372277 0.085594386 0.007327944
0.07713068 0.04557417 -0.073668726 0.10231594 0.0386201 -0.10557968 -0.040104005 -0.0040986766
0.0068822447 -0.04710813 -0.0035845297 0.0107364645 -0.09546932 -0.0641295 -0.1012828 -0.03611344
0.058551893 0.01799893 -0.046321332 0.0283749 -0.12373229 -0.0082355905 -0.13601449 -0.1115537
0.046968997 -0.09359583 0.047320545 -0.0036460161 -0.009099573 0.08821305 0.022060573 -0.013596373
0.06732053 0.013379201 -0.089934155 0.01386171 0.018671937 0.043987513 -0.12750871 -0.115191534
-0.06980178 -0.13878222 0.048684955 -0.03799922 -0.045171306 0.07623087 0.08496379 0.05981967
-0.0996476 -0.123407446 -0.10033466 -0.034669068 0.033222076 -0.030192645 0.0048847036 -0.008579012
0.10048814 -0.098826624 -0.040805086 -0.06665323 -0.04421708 -0.08485842 0.09286776 0.115139216
-0.027280722 -0.028197492 -0.11883494 0.12154479 -0.18391135 0.038310755 -0.0582092 -0.05950511
0.066554196 -0.07336409 0.0512321 -0.10467828 -0.01958803 -0.11189014 -0.04066759 0.011597624
0.014345606 -0.1377843 -0.034561306 -0.08735782 0.047705267 -0.10595114 -0.05073485 0.033678066
0.063340686 -0.008341203 -0.06569222 -0.004218325 0.03617196 -0.011433519 0.07765382 0.033674136
1.1243699 1.0222344 1.0676653 1.1886007 1.1210618 2.288724 1.0658619 1.1986195
1.108558 1.1015242 0.06568636 1.0002291 1.0073624 0.037241034 0.02131341 0.09856798
-0.061127394 0.84714085 0.9447782 1.0192198 1.1156666 1.192879 1.0572851 1.1851814
0.040709484 1.2718049 1.0599338 2.2284207 -0.12364006 0.022131901 0.036513373 -0.18573987
1.2289224 1.0455983 1.0152686 1.1288171 1.1387284 1.0415425 1.1602544 0.8696354
1.0226865 1.1201341 1.0596536 1.0668154 0.95270693 0.11604719 1.0315853 0.061995436
0.28063688 1.1358172 1.1662551 1.1572957 1.1584761 1.0346895 0.2720164 1.0419779
1.3790696 1.4451141 1.9035207 0.05075863 0.14300644 1.0965593 2.2136261 1.0381826
1.0107306 1.056793 1.060354 1.200603 0.99673194 2.2411652 1.1924893 1.1939535
1.1024126 1.0628345 -0.020880654 1.0995549 1.0328121 0.00020697125 -0.038834903 -0.02266343
-0.030620113 0.9816047 1.0636616 1.1314759 0.94996446 0.98902905 1.1877602 1.0455796
0.17113133 1.1895005 1.0319672 2.1153867 -0.10416627 0.062420912 -0.0025650258 0.03520907
1.0573581 1.062154 1.1552774 1.1120425 1.2334118 1.1146783 1.046624 1.1345698
1.053265 1.0848407 1.1356232 1.0031228 1.1546403 -0.08679667 1.0601504 0.038655102
0.09277013 1.0442543 1.1452267 1.0862162 1.2573056 1.1409848 0.18855385 0.9738672
1.5782105 1.3914698 1.8429229 -0.082081124 0.08680224 0.9609282 2.3324604 1.1596354
00000000: 90a0 833c 7f83 d6bd 28b7 08bd 6c37 0dbe
00000010: c024 d6bd ca55 ebbd 8b5a be3d 01b7 d53d
00000020: ffe4 bdbd 1e6f 31bd b87f 1c3d 8fd0 adbd
00000030: 80dd 4bbd 9f91 113d 4839 d33c 522d d63d
00000040: 0e42 bebd 8469 423d 54e4 a9bc 8847 32bd
00000050: a463 d0bc 180f 4cbd e504 b63d ca40 c3bd
00000060: 196b 633d 5079 673d 3f79 2b3c 6639 903d
00000070: 6028 2ebc 48d8 393d 1c4c af3d 401f f03b
00000080: b1f6 9d3d fbab 3a3d a1df 96bd 058b d13d
00000090: 1c30 1e3d 293a d8bd 1944 24bd 314e 86bb
000000a0: 7484 e13b 74f4 40bd 6eea 6abb ffe7 2f3c
000000b0: 6b85 c3bd 5456 83bd 5b6d cfbd b0eb 13bd
000000c0: 1cd4 6f3d 7e72 933c 70bb 3dbd 7a72 e83c
000000d0: 5b67 fdbd 92ee 06bc 6247 0bbe 4476 e4bd
000000e0: 9062 403d 2caf bfbd 30d3 413d 00f2 6ebb
000000f0: 6016 15bc 0ba9 b43d 60b8 b43c 52c3 5ebc
00000100: 59df 893d 7034 5b3c 662f b8bd 3a1c 633c
00000110: e4f5 983c 402c 343d a591 02be 8ae9 ebbd
00000120: 3cf4 8ebd ed1c 0ebe e069 473d 12a5 1bbd
00000130: 8c05 39bd ee1e 9c3d 7f01 ae3d 7805 753d
00000140: 0a14 ccbd 0bbd fcbd 427c cdbd 2701 0ebd
00000150: df13 083d 9156 f7bc dd0f a03b fc8e 0cbc
00000160: bacc cd3d 9d65 cabd 3c23 27bd 7d81 88bd
00000170: f81c 35bd 40ca adbd 7431 be3d 1cce eb3d
00000180: d27b dfbc 6dfe e6bc bc5f f3bd 7aec f83d
00000190: 4253 3cbe bdeb 1c3d c56c 6ebd a1bb 73bd
000001a0: 914d 883d e93f 96bd c0d8 513d 9161 d6bd
000001b0: 1477 a0bc a826 e5bd 0f93 26bd f603 3e3c
000001c0: d509 6b3c 5417 0dbe 2890 0dbd a8e8 b2bd
000001d0: 9966 433d e9fc d8bd 59cf 4fbd 03f2 093d
000001e0: c3b8 813d 8ba9 08bc a589 86bd e039 8abb
000001f0: 0d29 143d a853 3bbc f708 9f3d e4ed 093d
00000200: 5aeb 8f3f 94d8 823f 42a9 883f 1124 983f
00000210: f47e 8f3f 747a 1240 2a6e 883f 5d6c 993f
00000220: 3be5 8d3f bffe 8c3f 9286 863d 8207 803f
00000230: 40f1 803f 0e8a 183d 7699 ae3c 02de c93d
00000240: b860 7abd 39de 583f fcdc 713f cb75 823f
00000250: 2ace 8e3f 42b0 983f 1e55 873f 06b4 973f
00000260: fdbe 263d 81ca a23f e9ab 873f 729e 0e40
00000270: 0037 fdbd f64d b53c 0c8f 153d 9832 3ebe
00000280: 544d 9d3f 2ad6 853f 52f4 813f 147d 903f
00000290: dac1 913f 4451 853f 3783 943f 6da0 5e3f
000002a0: 64e7 823f 8e60 8f3f bba2 873f 688d 883f
000002b0: 9ae4 733f 26aa ed3d fd0a 843f edee 7d3d
000002c0: a3af 8f3e 7562 913f d947 953f 4422 943f
000002d0: f248 943f b570 843f bc45 8b3e 885f 853f
000002e0: 5a85 b03f 80f9 b83f 91a6 f33f 48e8 4f3d
000002f0: 4870 123e 0e5c 8c3f 0dac 0d40 2be3 843f
00000300: 9f5f 813f fe44 873f aeb9 873f 5cad 993f
00000310: d329 7f3f 406f 0f40 7da3 983f 78d3 983f
00000320: db1b 8d3f f60a 883f e80d abbc 37be 8c3f
00000330: 3033 843f 6c06 5939 5911 1fbd a8a8 b9bc
00000340: 08d7 fabc 724a 7b3f 1026 883f 34d4 903f
00000350: df30 733f 0231 7d3f 8708 983f 8dd5 853f
00000360: 0d3d 2f3e 8d41 983f 8017 843f 7f62 0740
00000370: 2055 d5bd 12ad 7f3d fe19 28bb 6337 103d
00000380: 8357 873f aaf4 873f 21e0 933f 6957 8e3f
00000390: 70e0 9d3f c7ad 8e3f c6f7 853f 9539 913f
000003a0: 63d1 863f 0fdc 8a3f 1a5c 913f 5466 803f
000003b0: 41cb 933f 74c2 b1bd 02b3 873f d054 1e3d
000003c0: 44fe bd3d 20aa 853f ca96 923f 2209 8b3f
000003d0: 64ef a03f ca0b 923f 4314 413e 5c4f 793f
000003e0: cd02 ca3f af1b b23f e6e4 eb3f 261a a8bd
000003f0: 5fc5 b13d 64ff 753f 0847 1540 ef6e 943f

fc2.bias f4 [64]
-0.027021805 -0.09809868 39.54907 39.548275 39.355793 -0.089698136 39.538815 39.563683
39.428318 -0.069460385 39.38679 39.433445 39.67883 39.504906 0.041574314 39.5489
39.521202 39.54175 39.43872 0.0758499 0.060207963 39.42425 -0.07644065 39.378258
-0.12476535 39.36008 39.362724 -0.101083025 0.04824622 39.496593 39.527943 -0.12133323
39.542713 39.30769 40.44285 39.372566 -0.06595391 2.255238 39.521732 0.031196337
39.429966 39.726223 39.443413 39.360382 -0.110213384 0.08003981 -0.083792344 0.049360547
0.08364863 39.31001 39.480003 39.556805 39.886833 0.09648757 39.492542 -0.04703778
39.55736 -0.13185348 39.53542 39.42987 -0.0024111462 39.522858 -0.097294204 39.55812
00000000: d55c ddbc f6e7 c8bd 3f32 1e42 6f31 1e42
00000010: 556c 1d42 a8b3 b7bd bf27 1e42 3641 1e42
00000020: 99b6 1d42 3f41 8ebd 138c 1d42 d9bb 1d42
00000030: 1fb7 1e42 0605 1e42 d449 2a3d 1332 1e42
00000040: b615 1e42 c12a 1e42 40c1 1d42 3157 9b3d
00000050: a09c 763d 6fb2 1d42 ea8c 9cbd 5683 1d42
00000060: fa84 ffbd b970 1d42 6e73 1d42 9e04 cfbd
00000070: d49d 453d 83fc 1d42 9d1c 1e42 8e7d f8bd
00000080: bd2b 1e42 133b 1d42 7ac5 2142 827d 1d42
00000090: d812 87bd d255 1040 4116 1e42 768f ff3c
000000a0: 49b8 1d42 a7e7 1e42 0ec6 1d42 0871 1d42
000000b0: 8eb7 e1bd e9eb a33d 529b abbd 492e 4a3d
000000c0: f94f ab3d 733d 1d42 86eb 1d42 2b3a 1e42
000000d0: 1e8c 1f42 469b c53d 5df8 1d42 b0aa 40bd
000000e0: bd3a 1e42 9904 07be 4524 1e42 30b8 1d42
000000f0: 5204 1ebb 6817 1e42 2f42 c7bd 843b 1e42

mean_fc.weight f4 [4, 64]
-0.031087136 -0.020468786 -0.8812137 -0.8731985 -0.8370503 0.06594959 -0.9386179 -0.8672677
-0.98993516 -0.030673934 -0.83029383 -0.8602862 -1.082976 -0.7358472 -0.06759855 -0.8756522
-0.8620006 -0.7592158 -0.758476 0.019846251 -0.019210562 -0.8246528 0.086691156 -0.79873705
0.120280296 -0.80727524 -0.89115834 0.0859094 0.09962045 -0.796046 -0.7927748 0.12352659
-0.94698274 -0.68436456 -1.5644414 -0.96895134 -0.022049233 -1.8398292 -0.8688619 0.10796029
-0.99477714 -1.0452808 -0.80642974 -0.98171574 -0.025214612 0.058502585 -0.12392615 -0.09948585
-0.007215996 -0.7582999 -0.6952902 -0.7137143 -1.2460843 0.036351576 -1.0422485 0.0060327686
-0.83981436 0.024938945 -0.7841148 -0.7522764 -0.006656827 -0.8106235 -0.028688313 -0.7357249
0.036062792 0.08705239 -0.8750807 -0.8631721 -0.75499165 0.047166377 -0.7071958 -0.68850195
-0.7841249 -0.014965652 -0.67310923 -0.8916473 -0.77669126 -0.8614588 -0.059584886 -0.72481424
-0.81665814 -0.7605069 -0.8794884 0.014374279 -0.07885146 -0.7886782 0.10199089 -0.9066588
-0.07418028 -0.8120953 -0.86429703 0.01977925 0.11424415 -0.68310016 -0.71820873 -0.06954849
-0.9003153 -0.6397581 -1.6710218 -0.8655206 -0.019028753 -1.8496201 -0.83836186 -0.08257121
-0.9019688 -1.2595553 -0.6263876 -0.8642683 -0.0775062 -0.087126665 -0.01943031 0.005537711
0.021587377 -0.6748286 -0.7822748 -0.7452022 -1.2249115 -0.016675666 -0.78922653 -0.05251708
-0.8893743 -0.046335075 -0.7581396 -0.6853123 0.02049668 -0.77747536 -0.008157553 -0.79684705
-0.095538594 -0.013280234 0.7125004 0.8038324 0.8687684 -0.049679384 0.83543456 0.81657046
0.8753965 -0.010369243 0.86742806 0.7027138 0.77189386 0.8952816 0.045896962 0.8059159
0.8686837 0.87689924 0.8487592 -0.09934532 -0.095797494 0.784326 0.121857285 0.8932445
-0.053711087 0.7487375 0.7900996 0.04111746 -0.05843602 0.8099877 0.9271753 0.114661366
0.7182869 0.7285144 1.6729635 0.7715613 0.032746196 1.7228665 0.8740423 -0.043721106
0.7955326 1.1417112 0.7264989 0.8572589 -0.03416787 -0.037992798 -0.026629075 0.022871286
0.012554476 0.8409563 0.88935906 0.8674913 1.3029387 0.037386045 0.6688013 -0.07125791
0.7827409 -0.0667548 0.7419379 0.8172218 -0.11756318 0.8201546 0.17215809 0.86129284
0.08728991 0.027501179 -0.7463357 -0.84534764 -0.67549485 -0.020414516 -0.75871503 -0.76621246
-0.8350079 0.068037435 -0.64370936 -0.61387414 -0.9085005 -0.6694354 0.036989972 -0.74918115
-0.66619366 -0.6049628 -0.69077104 0.089917004 -0.055923298 -0.7373524 -0.048442636 -0.62947553
-0.027112348 -0.815369 -0.7804929 -0.062444508 0.08212082 -0.6273488 -0.65627086 -0.06798491
-0.68614435 -0.77087355 -1.520544 -0.6952945 0.06798321 -1.6395019 -0.670644 0.052137036
-0.80292594 -1.012337 -0.75737834 -0.80272925 0.011125073 -0.014071851 0.06292738 0.06857473
-0.05223243 -0.59625345 -0.6574194 -0.7672751 -1.1249185 -0.056011856 -0.82660055 -0.11148409
-0.7465793 0.009506589 -0.63353705 -0.8126587 -0.07200397 -0.8545747 0.02423791 -0.83710957
00000000: 73aa febc 28ae a7bc 3997 61bf f089 5fbf
00000010: ee48 56bf 9410 873d 4349 70bf 4205 5ebf
00000020: 646c 7dbf e747 fbbc 238e 54bf b73b 5cbf
00000030: f59e 8abf 7b60 3cbf 1c71 8abd be2a 60bf
00000040: 12ac 5cbf f75b 42bf 7c2b 42bf 9b94 a23c
00000050: 785f 9dbc 721c 53bf 228b b13d 087a 4cbf
00000060: 8455 f63d 97a9 4ebf f422 64bf 44f1 af3d
00000070: ce05 cc3d acc9 4bbf 4af3 4abf 82fb fc3d
00000080: 766d 72bf 8432 2fbf 9e3f c8bf 320d 78bf
00000090: 98a0 b4bc 867f ebbf bc6d 5ebf 491a dd3d
000000a0: b7a9 7ebf c3cb 85bf 2e72 4ebf b951 7bbf
000000b0: e08e cebc 68a0 6f3d fecc fdbd 3dbf cbbd
000000c0: 2974 ecbb f11f 42bf 8afe 31bf fbb5 36bf
000000d0: b17f 9fbf 64e5 143d 6668 85bf 88ae c53b
000000e0: 13fe 56bf c24c cc3c bfbb 48bf 3095 40bf
000000f0: 8321 dabb 0685 4fbf c103 ebbc 7858 3cbf
00000100: 94b6 133d 8648 b23d 4a05 60bf d9f8 5cbf
00000110: 2247 41bf 8831 413d c90a 35bf aa41 30bf
00000120: 69bc 48bf 7e32 75bc e350 2cbf ff42 64bf
00000130: 3dd5 46bf 9088 5cbf 480f 74bd 6d8d 39bf
00000140: 8210 51bf 95b0 42bf 2726 61bf 1982 6b3c
00000150: e07c a1bd d1e6 49bf 9ae0 d03d cb1a 68bf
00000160: d5eb 97bd 7ae5 4fbf 9242 5dbf 1808 a23c
00000170: d6f8 e93d a7df 2ebf 87dc 37bf 706f 8ebd
00000180: 107b 66bf 30c7 23bf 0be4 d5bf c292 5dbf
00000190: 30e2 9bbc 5ac0 ecbf e29e 56bf 181b a9bd
000001a0: 6de7 66bf 1c39 a1bf f05a 20bf b040 5dbf
000001b0: 92bb 9ebd 776f b2bd 502c 9fbc b075 b53b
000001c0: 03d8 b03c 91c1 2cbf 2943 48bf 92c5 3ebf
000001d0: e6c9 9cbf 689b 88bc c00a 4abf 261c 57bd
000001e0: 09ae 63bf d9c9 3dbd 7015 42bf a070 2fbf
000001f0: a7e8 a73c a008 47bf 42a7 05bc 2bfe 4bbf
00000200: bda9 c3bd 5795 59bc 6d66 363f f6c7 4d3f
00000210: 9b67 5e3f 9c7c 4bbd 0adf 553f c30a 513f
00000220: fc19 603f c2e3 29bc c40f 5e3f 0de5 333f
00000230: d69a 453f 2d31 653f 74fe 3b3d 8150 4e3f
00000240: 0e62 5e3f 787c 603f 4848 593f 8f75 cbbd
00000250: 7a31 c4bd 97c9 483f 5090 f93d acab 643f
00000260: 2800 5cbd 43ad 3f3f f843 4a3f c86a 283d
00000270: 9c5a 6fbd 5b5b 4f3f 5c5b 6d3f 94d3 ea3d
00000280: a6e1 373f eb7f 3a3f ab23 d63f 0b85 453f
00000290: e020 063d e486 dc3f 3cc1 5f3f e714 33bd
000002a0: 06a8 4b3f 9823 923f d5fb 393f 5275 5b3f
000002b0: 9cf3 0bbd 569e 1bbd 3825 dabc 905c bb3c
000002c0: 4ab1 4d3c e948 573f 09ad 633f e913 5e3f
000002d0: b2c6 a63f 1c22 193d 9036 2b3f abef 91bd
000002e0: b561 483f beb6 88bd a4ef 3d3f 7335 513f
000002f0: f7c4 f0bd a7f5 513f 364a 303e b07d 5c3f
00000300: 0dc5 b23d 274a e13c db0f 3fbf b468 58bf
00000310: 3bed 2cbf 583c a7bc 263b 42bf 8026 44bf
00000320: 14c3 55bf 3657 8b3d 23ca 24bf db26 1dbf
00000330: 7d93 68bf 1e60 2bbf cc82 173d 56ca 3fbf
00000340: ab8b 2abf d8de 1abf 5fd6 30bf 6826 b83d
00000350: d40f 65bd 20c3 3cbf c96b 46bd 4f25 21bf
00000360: b71a debc 06bc 50bf 62ce 47bf d0c5 7fbd
00000370: f62e a83d ee99 20bf 5e01 28bf ac3b 8bbd
00000380: 28a7 2fbf f857 45bf 30a1 c2bf d2fe 31bf
00000390: c83a 8b3d 33db d1bf 53af 2bbf a58d 553d
000003a0: 8e8c 4dbf 4294 81bf 8ce3 41bf aa7f 4dbf
000003b0: f045 363c 9f8d 66bc 12e0 803d e870 8c3d
000003c0: acf1 55bd 11a4 18bf a34c 28bf 246c 44bf
000003d0: 54fd 8fbf b06c 65bd 189c 53bf c551 e4bd
000003e0: d21f 3fbf 86c1 1b3c 7c2f 22bf 670a 50bf
000003f0: d176 93bd 68c5 5abf 958e c63c d04c 56bf

mean_fc.bias f4 [4]
-39.80714 -39.59649 39.54824 -39.63506
00000000: 833a 1fc2 ce62 1ec2 6631 1e42 4d8a 1ec2

stdev.weight f4 [4, 64]
0.041108757 0.066395015 -1.0077205 -0.86302257 -0.9593554 0.11960998 -0.9864594 -0.6814275
-0.9891708 -0.06659423 -0.9198706 -0.8409365 -0.786397 -0.8530315 -0.12107395 -0.87329686
-0.6604103 -1.0081334 -0.7968474 -0.027503114 0.026580796 -0.80434436 -0.13788126 -0.6592125
-0.00085319165 -0.95056146 -0.9113243 0.118405536 0.055348843 -0.7661105 -0.7382458 -0.064955026
-0.8390072 -0.903959 -1.306409 -1.0393949 -0.011582479 -1.6227306 -0.8518619 -0.12074239
-0.8342526 -0.6904973 -0.9646466 -1.014953 0.046559542 0.019482577 0.030358613 0.06790682
0.042004827 -0.9968889 -0.9691245 -0.7499735 -1.1250998 0.111430764 -1.0480158 -0.04704166
-0.8855126 0.0076721674 -0.89797527 -0.81734776 -0.08081303 -1.02266 0.039954264 -0.76095605
0.05167532 -0.1108061 -0.26777294 -0.31185746 -0.26559144 0.009798989 -0.28128228 -0.25427368
-0.22346775 0.0055683414 -0.2834163 -0.2934234 -0.2680028 -0.41094255 -0.11770126 -0.41272882
-0.27307913 -0.23671268 -0.3362421 0.07479008 -0.061892062 -0.4090946 0.032554265 -0.3530424
-0.0411216 -0.3458893 -0.26739237 0.10550797 0.04144977 -0.20975442 -0.33807766 0.09271824
-0.42316005 -0.25078282 -0.6415709 -0.33642778 0.10141909 -0.7111896 -0.38401377 0.062827274
-0.2444686 -0.46666747 -0.2549432 -0.24902259 -0.10074289 0.09247043 -0.08805512 0.057625085
0.11236806 -0.23398435 -0.3835847 -0.30271858 -0.36192727 0.10581921 -0.4365228 -0.02491595
-0.3386838 0.035319276 -0.3245722 -0.27149597 0.051519886 -0.38485172 -0.02799096 -0.30480462
-0.045677785 -0.14663775 -0.92325294 -0.8431058 -0.7766399 -0.016582519 -0.82956076 -1.0348012
-0.8462697 0.08303635 -0.8636786 -0.7776273 -0.87981445 -1.0006844 0.12313786 -0.97787446
-1.0823009 -0.8994882 -0.87215436 -0.012340451 0.10481943 -0.9636045 -0.037569497 -0.8752989
-0.05438158 -1.0126345 -0.89693505 0.06482163 0.036285996 -1.0114306 -0.9880403 -0.115608394
-0.9188729 -0.77500266 -1.1709056 -0.9672729 -0.08992812 -1.2660239 -0.83010644 0.05150606
-0.9167809 -1.1039828 -0.866325 -0.90159184 -0.12442051 0.10191092 0.06283866 0.033506352
0.0011000277 -0.9723361 -1.0158834 -0.9504519 -1.2646744 -0.10759376 -0.8724607 -0.011184226
-0.8865809 0.0869026 -0.81294554 -0.88429564 0.038126778 -0.89792836 -0.07332843 -0.9872517
0.022100786 0.06939403 1.1248738 1.0230494 0.9450203 0.06316528 1.0249677 1.0949111
0.9109802 0.053281236 1.0175499 0.8778755 1.2055044 1.0812857 -0.004724115 0.9679515
0.8793063 0.9319446 0.971136 -0.06452288 0.113537386 1.0375646 -0.0654795 0.80470365
0.012451707 1.049074 0.9123002 -0.015853897 -0.051790327 0.98126614 0.97552276 0.08224514
1.0842233 1.0145907 1.4709814 1.0980464 -0.11936292 1.6544211 1.1028976 0.114719264
1.1277672 1.2652822 0.8374257 1.0282558 -0.07228774 -0.05913876 -0.03450121 -0.016457766
-0.11354851 0.9813657 0.8655348 0.873262 1.1304593 -0.0057270527 1.0254693 -0.05211553
0.9532145 -0.025969394 0.9208134 0.9764785 -0.040899135 0.97309136 0.110346906 0.9585755
00000000: a861 283d 1cfa 873d fcfc 80bf 0cef 5cbf
00000010: 5198 75bf 14f6 f43d 9a88 7cbf 0872 2ebf
00000020: 4c3a 7dbf 8e62 88bd a47c 6bbf 9d47 57bf
00000030: 5051 49bf 4660 5abf 9ef5 f7bd 6290 5fbf
00000040: a610 29bf 840a 81bf 31fe 4bbf 364e e1bc
00000050: f8bf d93c 83e9 4dbf bf30 0dbe 27c2 28bf
00000060: b9a8 5fba ff57 73bf 8d4c 69bf 9a7e f23d
00000070: 78b5 623d d11f 44bf adfd 3cbf 2407 85bd
00000080: 2dc9 56bf db69 67bf 6938 a7bf e40a 85bf
00000090: 70c4 3dbc a3b5 cfbf 9f13 5abf c947 f7bd
000000a0: 9491 55bf 6ec4 30bf 14f3 76bf fbe9 81bf
000000b0: 38b5 3e3d ed99 9f3c a0b2 f83c bb12 8b3d
000000c0: 410d 2c3d 1c34 7fbf 8b18 78bf 43fe 3fbf
000000d0: 4503 90bf d035 e43d 6225 86bf c1ae 40bd
000000e0: f4b0 62bf ce66 fb3b b5e1 65bf b43d 51bf
000000f0: 4d81 a5bd 86e6 82bf 15a7 233d 04ce 42bf
00000100: 80a9 533d 4fee e2bd 8919 89be c8ab 9fbe
00000110: 9afb 87be f08b 203c 3b04 90be 2930 82be
00000120: bbd4 64be a276 b63b f11b 91be 983b 96be
00000130: aa37 89be 1067 d2be 5c0d f1bd 3151 d3be
00000140: 07d1 8bbe cf64 72be ed27 acbe 8b2b 993d
00000150: 8882 7dbd d974 d1be 9f57 053d f9c1 b4be
00000160: 1f6f 28bd 6718 b1be a7e7 88be 9014 d83d
00000170: 3cc7 293d ddc9 56be 8418 adbe 10e3 bd3d
00000180: 6fa8 d8be 9b66 80be fe3d 24bf 4340 acbe
00000190: d0b4 cf3d 8610 36bf 749d c4be 96ab 803d
000001a0: fa55 7abe 0aef eebe ea87 82be c7ff 7ebe
000001b0: 4a52 cebd 2361 bd3d 3e56 b4bd 4808 6c3d
000001c0: 3a21 e63d 9899 6fbe 3765 c4be eefd 9abe
000001d0: 884e b9be beb7 d83d eb7f dfbe 891c ccbc
000001e0: f767 adbe f2aa 103d 542e a6be 8501 8bbe
000001f0: 8406 533d 490b c5be 4c4d e5bc 5a0f 9cbe
00000200: a118 3bbd 3528 16be 4e5a 6cbf c8d5 57bf
00000210: dfd1 46bf 10d8 87bc 185e 54bf 5e74 84bf
00000220: 22a5 58bf f60e aa3d 0a1a 5dbf 9512 47bf
00000230: 853b 61bf 6d16 80bf b42f fc3d fb55 7abf
00000240: d688 8abf dc44 66bf 8245 5fbf 9a2f 4abc
00000250: 92ab d63d c9ae 76bf 79e2 19bd 9713 60bf
00000260: 38bf 5ebd 029e 81bf 899d 65bf 34c1 843d
00000270: a0a0 143d 8f76 81bf 36f0 7cbf 18c4 ecbd
00000280: 413b 6bbf 9366 46bf 3ce0 95bf 329f 77bf
00000290: 3c2c b8bd 120d a2bf db81 54bf 05f8 523d
000002a0: 27b2 6abf 4f4f 8dbf 7ac7 5dbf b9ce 66bf
000002b0: 2ed0 febd acb6 d03d 8eb1 803d f53d 093d
000002c0: ce2e 903a 05eb 78bf 7808 82bf d150 73bf
000002d0: dae0 a1bf 1e5a dcbd 9659 5fbf 0b3e 37bc
000002e0: f7f6 62bf fef9 b13d 331d 50bf 3361 62bf
000002f0: d32a 1c3d a2de 65bf 372d 96bd 87bc 7cbf
00000300: b50c b53c 751e 8e3d ddfb 8f3f 48f3 823f
00000310: daec 713f cc5c 813d 2432 833f 0c26 8c3f
00000320: 0036 693f 6d3d 5a3d 133f 823f 73bc 603f
00000330: f84d 9a3f 9267 8a3f c0cc 9abb abcb 773f
00000340: 381a 613f ec93 6e3f 5e9c 783f 9224 84bd
00000350: 4a86 e83d ebce 843f 1e1a 86bd 0f01 4e3f
00000360: 3f02 4c3c 0f48 863f 828c 693f 08e0 81bc
00000370: 1822 54bd 4234 7b3f dcbb 793f 2470 a83d
00000380: d4c7 8a3f 1cde 813f 1e49 bc3f c98c 8c3f
00000390: 8c74 f4bd 12c4 d33f c02b 8d3f eff1 ea3d
000003a0: ad5a 903f c4f4 a13f 8861 563f e39d 833f
000003b0: 980b 94bd 7c3b 72bd 2451 0dbd 70d2 86bc
000003c0: 1f8c e8bd c83a 7b3f b093 5d3f 198e 5f3f
000003d0: e4b2 903f 00aa bbbb 9442 833f 1877 55bd
000003e0: de05 743f c4bd d4bc 6dba 6b3f 7ffa 793f
000003f0: da85 27bd 841c 793f 8ffd e13d 3465 753f

stdev.bias f4 [4]
-34.986515 -18.718416 -33.16117 36.19992
00000000: 31f2 0bc2 51bf 95c1 0aa5 04c2 b8cc 1042
