DeepAcTS/networks/intermediary/100_ep_MAVG_22_Dark_room_agent/intermediary_vartransnet_rX_end.pth (torch, 22335 bytes, 8 tensors)

fc1.weight f4 [64, 1]
0	0xbecfaca8	-0.40561414
1	0x3df26b10	0.11836827
2	0x3e5a1337	0.21296392
3	0x3f083b93	0.53215903
4	0x3f2acfbc	0.6672323
5	0xbf232960	-0.6373501
6	0xbf70a28e	-0.9399804
7	0x3d733c41	0.059383634
8	0xbe81f853	-0.2538477
9	0xbf00b894	-0.50281644
10	0x3e9fd660	0.31218243
11	0xbf283a8c	-0.65714335
12	0x3d9012e0	0.0703485
13	0x3f626c62	0.8844663
14	0xbea8241e	-0.32840055
15	0xbea29118	-0.31751323
16	0xbe801e1f	-0.2502298
17	0xbf695306	-0.9114231
18	0xbe96e428	-0.29470944
19	0xbe17a81c	-0.14810222
20	0xbf733c0e	-0.9501351
21	0x3f3148f8	0.69251966
22	0x3f241f32	0.641101
23	0xbeb54fac	-0.35412347
24	0xbf0e2f9c	-0.55541396
25	0x3f0b1889	0.5433431
26	0x3f6adeed	0.9174641
27	0x3eb2f6f1	0.34954026
28	0xbf3be5ec	-0.7339771
29	0xbf104102	-0.56349194
30	0xbf2ad8d8	-0.6673713
31	0xbe8af324	-0.27138627
32	0x3e1a61ad	0.15076323
33	0xbf6229ac	-0.88344836
34	0xbe971ddc	-0.29514968
35	0x3f7268b2	0.94691
36	0x3f391daa	0.7231089
37	0xbe29419c	-0.16528934
38	0xbe8e6cde	-0.27817434
39	0xbf00ba4e	-0.5028428
40	0xbd39d65b	-0.04537044
41	0x3f642998	0.8912597
42	0xbec5eaf0	-0.38655806
43	0x3f1897b3	0.59606475
44	0x3f194324	0.59868073
45	0xbea01e6c	-0.3127321
46	0xbf7576d5	-0.9588445
47	0xbe2a4c33	-0.1663063
48	0xbc8ae900	-0.016956806
49	0x3e97494d	0.29548112
50	0x3f26a584	0.65096307
51	0x3f6b7d4d	0.9198807
52	0xbf4fe808	-0.81213427
53	0xbf32a5e0	-0.69784355
54	0x3f16c7a8	0.588984
55	0xbf31ed6e	-0.69502914
56	0xbcd3d1c0	-0.025856853
57	0x3f164a75	0.5870736
58	0xbd9c64d0	-0.07636416
59	0x3f34f8ac	0.70691943
60	0x3f0e7692	0.55649674
61	0x3f252fa8	0.6452584
62	0x3f058a24	0.5216391
63	0x3d55f141	0.05223203

fc1.bias f4 [64]
0	0xbf04f13c	-0.51930594
1	0xbeb0a1b4	-0.3449837
2	0xbdd92949	-0.10603578
3	0x3f8177f0	1.0114727
4	0xbf5f8aa6	-0.87320936
5	0x3f5f4808	0.87219286
6	0x3f695e49	0.9115949
7	0x3f278dc9	0.6545072
8	0x3f55b872	0.83484566
9	0xbf5d6d58	-0.8649497
10	0xbe36a72e	-0.17837211
11	0x3def5f25	0.11688069
12	0x3f70f7a7	0.9412789
13	0xbe799a58	-0.24375284
14	0x3ea813c4	0.3282758
15	0xbe162110	-0.1466105
16	0x3f026a7c	0.5094373
17	0x3c429941	0.011877359
18	0xbe2513a8	-0.1612078
19	0x3f198271	0.5996466
20	0xbe1923b0	-0.1495502
21	0xbf5b207e	-0.85596454
22	0xbee778eb	-0.4520944
23	0x3e56a182	0.20960048
24	0xbe8545d4	-0.26029837
25	0xbf06971a	-0.5257431
26	0x3f033824	0.5125754
27	0xbea317d3	-0.31854114
28	0x3ef72b1b	0.48275074
29	0x3e297d70	0.16551757
30	0xbe1a08c8	-0.15042412
31	0xbe1e86f8	-0.15481174
32	0xbe149bd1	-0.14512564
33	0xbd5eae00	-0.054365158
34	0xbf29e080	-0.66358185
35	0xbe820395	-0.25393358
36	0xbf238d00	-0.63887024
37	0x3f70de4f	0.94089216
38	0x3ecd7d66	0.40134734
39	0xbe314b40	-0.17313862
40	0x3f66224f	0.898961
41	0x3f099d4c	0.5375564
42	0x3dbf725c	0.09347984
43	0x3f7032ef	0.9382772
44	0xbf677e60	-0.9042721
45	0xbeb3b538	-0.35099196
46	0x3f7dea3a	0.99185526
47	0x3ee8d5a0	0.45475483
48	0xbedd0a48	-0.43171906
49	0x3f0e8b0d	0.55680925
50	0xbf2c2724	-0.67247224
51	0x3eefffbb	0.46874794
52	0xbeeaa04c	-0.45825422
53	0xbf405570	-0.7513037
54	0xbef65e80	-0.48118973
55	0xbf3049f4	-0.68862844
56	0xbf7f782e	-0.99792755
57	0x3f370b3b	0.7150151
58	0xbf539efc	-0.82664466
59	0xbf1eeb48	-0.6207776
60	0xbf62dfaa	-0.88622534
61	0xbe5052ad	-0.20344038
62	0xbe843bfe	-0.2582702
63	0x3f7712e3	0.96513194

fc2.weight f4 [64, 64]
0	0x3c95a760	0.018268287
1	0xbde72732	-0.11286773
2	0x3d054755	0.03253873
3	0x3e0ff470	0.1405809
4	0x3dd28160	0.102785826
5	0x3db3f85f	0.087876074
6	0x3dbe7246	0.0929914
7	0x3db4af81	0.08822537
8	0x3e0a4b95	0.13505395
9	0x3d0b2d88	0.03397897
10	0xbcd29c7c	-0.025709383
11	0x3db85516	0.09000604
12	0x3bbe1e2e	0.0058019375
13	0xbdc81da3	-0.09771278
14	0x3bd1b1b5	0.006399358
15	0xbc08da30	-0.008352801
16	0xbd870883	-0.0659342
17	0x3df20489	0.11817271
18	0xbc863be8	-0.016385987
19	0x3d12fb6b	0.035884302
20	0x3da7c8a2	0.081925645
21	0x3d9cf880	0.07664585
22	0xbd4b5dcd	-0.049650002
23	0xbd4902f8	-0.049075097
24	0x3d197188	0.037461787
25	0x3d11f831	0.035637084
26	0x3c789453	0.015172082
27	0x3d89a7c8	0.06721455
28	0x3dd47e07	0.103756
29	0x3dc5b27a	0.09653182
30	0x3dccab02	0.09993555
31	0x3dccd1a4	0.10000923
32	0x3d2169ed	0.03940766
33	0x3d54f980	0.051995754
34	0xbc1fb800	-0.009748459
35	0x3d9e44a0	0.07727933
36	0x3db079dc	0.08616993
37	0xbc349b58	-0.011023365
38	0x3e21a140	0.15784168
39	0xbdfea266	-0.12433319
40	0x3c50530b	0.0127151115
41	0x3de4e88e	0.11177169
42	0xbc4fe350	-0.012688473
43	0x3e25feec	0.16210526
44	0xbdcce886	-0.10005288
45	0x3d960764	0.073256284
46	0x3dbcf0dc	0.09225628
47	0xbcbc5822	-0.022991244
48	0x3c93e438	0.01805316
49	0x3db245e4	0.08704737
50	0x3d841592	0.06449427
51	0x3dad02ba	0.08447786
52	0xbdb929a4	-0.090411454
53	0x3c507990	0.012724295
54	0x3d3837e2	0.04497517
55	0x3c4c5c10	0.012473121
56	0xbd97e8e2	-0.07417466
57	0x3dd1e6e8	0.1024912
58	0xbde0c870	-0.109757304
59	0xbd50febd	-0.051024187
60	0xbd934c34	-0.07192269
61	0xbcfe08b2	-0.031010006
62	0x3b7675de	0.0037606875
63	0x3e369592	0.17830494
64	0xbdab2ffc	-0.08358762
65	0x3d41fea4	0.047361985
66	0xbdce5f68	-0.10076791
67	0xbc1beba3	-0.009516629
68	0x3c1b8920	0.009493142
69	0xbd385a9f	-0.045008298
70	0x3d49cf0e	0.04926973
71	0xbde537ed	-0.111923076
72	0x3d17e6c9	0.03708533
73	0xbd2450a4	-0.040115967
74	0xbc034f30	-0.008014485
75	0xbcbac346	-0.022798192
76	0x3d03848d	0.032108832
77	0x3d3ee2f0	0.046603143
78	0x3d660360	0.056155562
79	0xbc65f400	-0.014035225
80	0xbd37ec66	-0.04490318
81	0xbd91b9e8	-0.07115537
82	0x3d9b6226	0.0758708
83	0xbc70f0d1	-0.014705853
84	0xbdb5f8ca	-0.088853434
85	0xbdd0e994	-0.102008015
86	0x3dcf2330	0.10114133
87	0x3a87643d	0.0010329556
88	0x3dd13cb6	0.10216658
89	0x3d737b18	0.059443563
90	0xbda82861	-0.08210827
91	0xbdfee000	-0.12445068
92	0xbd3d651b	-0.046239
93	0x39a2331a	0.00030937121
94	0xbcb65dd8	-0.022261545
95	0x3d400be4	0.04688634
96	0xbdda4650	-0.10657942
97	0xbdc5ae1e	-0.09652351
98	0x3d69ae94	0.057051256
99	0x3d6b0aa4	0.057383195
100	0x3df65626	0.1202815
101	0x3d9398c5	0.07206873
102	0xbd60b14d	-0.054856587
103	0x3c9a6790	0.01884821
104	0xbe0e8ea7	-0.13921605
105	0xbdbba195	-0.09161679
106	0x3daad909	0.083421774
107	0x3d7f6bb6	0.06235858
108	0x3d8bf1d8	0.068332374
109	0xbda49b4a	-0.080374315
110	0xbd8dd138	-0.06924671
111	0xbdb9f895	-0.090806164
112	0xbdbd35fc	-0.09238812
113	0x3c507c82	0.0127249975
114	0xbdc0a11e	-0.09405731
115	0xbe0b634f	-0.13612102
116	0xbc908ee8	-0.017646268
117	0x3dc7abe0	0.097495794
118	0x3dfd1e3a	0.12359281
119	0x3da1b30a	0.07895477
120	0x3c6b3230	0.014355227
121	0xbd41554d	-0.04720049
122	0xbc90d398	-0.01767902
123	0x3dbe69d0	0.09297526
124	0xbdb4daa0	-0.08830762
125	0xbdf95456	-0.12174289
126	0x3d65b360	0.05607927
127	0xbbeef091	-0.0072918613
128	0x3de2a0b6	0.110658094
129	0xbcd5ae00	-0.026083946
130	0xbd005778	-0.031333417
131	0xbcbb0520	-0.022829592
132	0xbd1da590	-0.03848797
133	0x3bfc6e60	0.0077035874
134	0x3dfcd2ec	0.12344918
135	0xbcb62398	-0.02223377
136	0xbdcd065a	-0.10010977
137	0x3bc31f00	0.005954623
138	0x3d4b0c38	0.0495722
139	0x3ddad362	0.10684849
140	0xbdcd3020	-0.10018945
141	0xbdef7bd4	-0.1169354
142	0x3c861ee0	0.016372144
143	0x3cb76770	0.02238819
144	0xbd1aad5c	-0.037762985
145	0xbcda76e8	-0.026668027
146	0x3dc70af6	0.097188875
147	0xbcfc4b60	-0.03079766
148	0xbdaa1ef8	-0.08306688
149	0xbdf596b2	-0.119916335
150	0x3d9eeb34	0.07759705
151	0xbdb77814	-0.0895845
152	0xbc67f8c0	-0.014158428
153	0x3d4c510c	0.04988198
154	0x3da71c4c	0.08159694
155	0xbde3e95a	-0.11128493
156	0x3d1c5804	0.038169876
157	0xbde29fda	-0.110656455
158	0x3b49fdc0	0.0030821413
159	0xbc512b40	-0.012766659
160	0x3d45ea30	0.04831904
161	0xbd60c1fc	-0.054872498
162	0xbdcfa7fc	-0.10139462
163	0xbde21b80	-0.110404015
164	0xbc1eb1b0	-0.009685919
165	0x3ccce8e8	0.025013402
166	0x3d6625b4	0.0561883
167	0x3bc07e00	0.0058743954
168	0xbdacc70a	-0.08436401
169	0x3bdf1e80	0.006809056
170	0xbd45d6ac	-0.04830043
171	0xbd57be4c	-0.052671716
172	0x3dc43872	0.095810786
173	0xbd45dd50	-0.048306763
174	0x3dbda99c	0.09260866
175	0xbc4a3cd0	-0.0123436
176	0x3d92b6ac	0.07163748
177	0xbdacb13c	-0.08432242
178	0x3d6c8490	0.05774361
179	0x3ddf3d2e	0.10900341
180	0xbd4b6d2c	-0.04966466
181	0xbdd24fda	-0.10269137
182	0x3dc769aa	0.09736951
183	0x3c726890	0.014795437
184	0xbcf199e0	-0.029492319
185	0x3d206b0c	0.039164588
186	0xbd1532d4	-0.036425427
187	0x3d56de8c	0.05245833
188	0x3d55162c	0.052023098
189	0x3ca3b008	0.0199814
190	0x3de1c5c4	0.11024049
191	0xbdd72d88	-0.10506731
192	0xbb7d9440	-0.00386931
193	0xbde7b620	-0.113140345
194	0x3de1ad1d	0.11019347
195	0x3cc24196	0.023712914
196	0x3cf2e3a8	0.02964957
197	0x3dc910c6	0.098176524
198	0x3c04a368	0.0080956
199	0xbda452e6	-0.08023624
200	0xbca5b520	-0.020227969
201	0xbde11e5c	-0.10992119
202	0xba76a05b	-0.000940805
203	0x3da3f945	0.08006529
204	0x3ca7034d	0.020387316
205	0xbdf11ed5	-0.11773459
206	0x3d41739a	0.047229387
207	0x3bbf3820	0.005835548
208	0xbc08f7e9	-0.008359888
209	0x3de2393f	0.11046075
210	0x3df1429e	0.11780284
211	0x3c5c143b	0.013432558
212	0x3d12bf6c	0.035827085
213	0xbc9a3378	-0.01882337
214	0x3c1b3fc3	0.009475651
215	0x3d1e582a	0.0386583
216	0x3db20620	0.086925745
217	0x3c1a3bbc	0.009413656
218	0x3cbc5fcf	0.022994904
219	0x3dcead49	0.10091645
220	0xbdf9ef4b	-0.12203845
221	0xbd7bf00a	-0.061508216
222	0x3cb91448	0.022592679
223	0xbddac3ba	-0.10681863
224	0x3b013481	0.0019715133
225	0x3dccf3cc	0.10007438
226	0x3c28ba40	0.010298312
227	0x3d9a0030	0.07519567
228	0x3d0ce8f2	0.03440184
229	0xbcfc280f	-0.03078082
230	0xbdd1a5a1	-0.10236669
231	0xbc214c20	-0.00984481
232	0xbd79de95	-0.061003286
233	0xbc9d8df7	-0.019232733
234	0xbe05037b	-0.12989609
235	0x3db900f9	0.09033389
236	0xbda56936	-0.08076708
237	0x3de447f2	0.11146535
238	0xbdc57af0	-0.09642589
239	0x3db58d61	0.088648565
240	0x3908f800	0.00013062358
241	0xbdaf0d0c	-0.0854741
242	0x3df29a9f	0.11845898
243	0x3ce140d3	0.02749673
244	0x3d6d5b14	0.057948187
245	0xbdd3d716	-0.10343759
246	0xbc5687a1	-0.01309386
247	0x3d7402cc	0.05957298
248	0x3cd7d9c8	0.026348963
249	0xbccac60b	-0.024752637
250	0xbc8be798	-0.017078206
251	0xbdb61029	-0.08889801
252	0x3dca0610	0.098644376
253	0x3b8ae234	0.0042383913
254	0xbdcf30f6	-0.101167604
255	0xbd9bfde9	-0.07616789

fc2.bias f4 [64]
0	0x3e0297bd	0.12753196
1	0x3da7f22f	0.0820049
2	0xbd522244	-0.05130221
3	0x3d4eec88	0.050518543
4	0x3e1b8cf1	0.15190484
5	0xbd184843	-0.03717829
6	0xbded3e70	-0.11584175
7	0xbb50ca1f	-0.0031858755
8	0xbca12937	-0.019672973
9	0x3d9f9846	0.07792716
10	0x3db661cd	0.08905373
11	0x3dd973fc	0.106178254
12	0x3e082797	0.13296352
13	0x3d7b4cb2	0.06135244
14	0xbcb0e9ad	-0.0215958
15	0xbdb3cb9c	-0.0877907
16	0xbcb5a225	-0.022172043
17	0x3dcd0cf4	0.10012236
18	0xbd3b4da2	-0.045728333
19	0xbca01614	-0.019541778
20	0xbdb64062	-0.08898999
21	0xbd323fa4	-0.043517724
22	0xbdee585a	-0.116379455
23	0x3ccba93b	0.024860969
24	0x3dbbac4e	0.09163724
25	0xbdf56da2	-0.119838014
26	0xbcb385b7	-0.021914346
27	0xbdaa2836	-0.08308451
28	0x3d8216ca	0.06352003
29	0xbd3fd3ee	-0.04683297
30	0x3daa0a54	0.08302751
31	0x3cfdb53c	0.030970208
32	0x3e139234	0.14411241
33	0x3dc92f79	0.09823508
34	0x3d05b3bb	0.032642107
35	0x3ba28e8f	0.004960842
36	0xbde4b9a8	-0.111682236
37	0x3d8f6770	0.07002151
38	0x3e0abc48	0.13548386
39	0xbd7984bc	-0.0609176
40	0x3d931baa	0.07183011
41	0x3ddc4353	0.107550286
42	0x3e066c4f	0.13127254
43	0x3dc68224	0.09692791
44	0x3cfaa7ce	0.030597594
45	0x3d169d03	0.03677083
46	0xbd8c4db8	-0.06850761
47	0xbdc8c1c9	-0.098025866
48	0x3c9cea99	0.019154834
49	0x3e32803a	0.17431727
50	0xbd88ad6e	-0.06673704
51	0x3da25c82	0.07927801
52	0xbda3502a	-0.079742745
53	0xbde5bf14	-0.11218086
54	0x3d11b2a0	0.03557074
55	0xbdcc0434	-0.09961739
56	0x3dd30933	0.10304489
57	0x3d86fd4e	0.06591283
58	0xbdbc6978	-0.09199804
59	0xbdf2496c	-0.1183041
60	0x3dcdc810	0.100479245
61	0xbc53e8d1	-0.012933926
62	0x3de5fe30	0.11230123
63	0x3dde70e6	0.108613774

mean_fc.weight f4 [4, 64]
0	0xbd349504	-0.044087425
1	0x3d910bd9	0.07082338
2	0x3d595af0	0.05306524
3	0xbd09caee	-0.033640794
4	0x3d291143	0.041276228
5	0xbb98655e	-0.004650756
6	0x3cc20240	0.023682714
7	0x3da0d82a	0.0785373
8	0xbc99937a	-0.01874708
9	0x3be1d802	0.006892205
10	0xbd0efd7d	-0.034909714
11	0xbc7e4f50	-0.015521839
12	0xbcfc2630	-0.030779928
13	0x3df342ac	0.11877951
14	0xbde2bf09	-0.11071593
15	0x3d5a4854	0.053291634
16	0x3d39b5e9	0.0453395
17	0x3dbd5b47	0.092459254
18	0xbd9a3fb2	-0.0753168
19	0x3e021231	0.12702252
20	0x3ded03ba	0.115729764
21	0xbdab2f20	-0.08358598
22	0xbdd662aa	-0.104680374
23	0x3dc59e72	0.09649362
24	0x3d927770	0.07151687
25	0x3b764d80	0.0037582815
26	0x3d5ff9f9	0.054681752
27	0x3c105910	0.008810297
28	0x3d8c7fc6	0.06860308
29	0x3d947710	0.07249272
30	0x3d37bf99	0.044860456
31	0x3e03a10c	0.12854403
32	0x3d9fae4d	0.07796917
33	0x3c12f961	0.008970589
34	0xbc0acec9	-0.008472153
35	0x3b034ae6	0.0020033657
36	0xbc470900	-0.012148142
37	0x3e0b3489	0.1359426
38	0x3bd33b9f	0.0064463164
39	0xbdab0b78	-0.08351797
40	0x3d08918f	0.03334194
41	0xbd918489	-0.07105357
42	0x3e18f53e	0.14937302
43	0xbc9a4eec	-0.018836461
44	0xbc8f0b15	-0.017461339
45	0x3df5b452	0.11997284
46	0x3dbf5abc	0.09343478
47	0x3dd2a1b6	0.1028475
48	0x3cdb3965	0.026760766
49	0x3dc37021	0.09542871
50	0x3c8e82ae	0.017396297
51	0xbbc62b00	-0.0060476065
52	0xbd6c1d00	-0.057644844
53	0x3df489fc	0.11940381
54	0xbdb8c41a	-0.090217784
55	0xbd9f55ea	-0.07780059
56	0xbdbfe682	-0.09370138
57	0x3dc47426	0.09592466
58	0x3dd24658	0.10267323
59	0x3e0944fc	0.13405222
60	0xbd652d04	-0.055951133
61	0xbdc5bd99	-0.096553035
62	0x3db31853	0.08744874
63	0xbc8e7668	-0.017390445
64	0xbbefd355	-0.007318894
65	0x3ce84ba7	0.028356386
66	0xbdd260ca	-0.10272367
67	0xbd050e43	-0.032484304
68	0xbd67f76b	-0.05663244
69	0xbda3657a	-0.079783395
70	0x3d60018c	0.054688975
71	0x3e14ef06	0.14544305
72	0xbd6b06bc	-0.05737947
73	0x3d184c7e	0.037182324
74	0xbcb1de78	-0.021712527
75	0x3d991b36	0.07475893
76	0xbe2c9464	-0.16853482
77	0x3d885159	0.06656141
78	0xbdaae57f	-0.08344554
79	0xbbac11e0	-0.0052511543
80	0xbc288014	-0.010284442
81	0x3cb71c31	0.02235231
82	0x3d889588	0.06669146
83	0x3cde7fef	0.027160613
84	0x3d0a8128	0.03381458
85	0x3dc08f3c	0.0940232
86	0xba473500	-0.0007599145
87	0x3c3ee160	0.011650413
88	0xbd9a69fa	-0.07539745
89	0xbdf5ad2c	-0.119959205
90	0xbdc2e375	-0.0951604
91	0xbd68a51c	-0.056798086
92	0x3bc1dbe0	0.0059161037
93	0xbd1ede69	-0.038786326
94	0x3cb87a63	0.022519296
95	0x3e01332f	0.12617181
96	0xbe03ed90	-0.12883592
97	0xbdbeb0a3	-0.093110345
98	0xbd66eca4	-0.05637802
99	0xbcdae6cc	-0.02672138
100	0xbdc0bb14	-0.09410682
101	0x3dc13237	0.09433406
102	0xbdb97a80	-0.09056568
103	0x3dfc7d06	0.12328534
104	0xbdec3967	-0.11534386
105	0x3dd933bd	0.106055714
106	0xbdad5e6a	-0.08465274
107	0x3cd02489	0.025408046
108	0x3d1cd82b	0.03829209
109	0x3e053f66	0.13012466
110	0xbd85e2e4	-0.065374166
111	0xbd3b2b22	-0.04569543
112	0xbe16f527	-0.14741956
113	0xbc1ea37e	-0.009682534
114	0x3cf141e2	0.02945036
115	0xbcd66d40	-0.026175141
116	0xbda5e8b7	-0.081010275
117	0xba1bc400	-0.0005941987
118	0xbdc576ca	-0.09641798
119	0xbd88a44c	-0.06671962
120	0x3d26a435	0.040683944
121	0xbd9d51ac	-0.07681593
122	0x3d609744	0.05483176
123	0x3e0dc51f	0.13844727
124	0xbdc94766	-0.09828071
125	0xbd26a8ba	-0.040688254
126	0x3d521716	0.051291548
127	0xbd8af342	-0.06784679
128	0x3d5e46a0	0.054266572
129	0xbce049f2	-0.02737901
130	0x3c5022b0	0.012703583
131	0xbd2b1769	-0.041770373
132	0x3dd34a04	0.10316852
133	0x3d583980	0.05278921
134	0x3c177910	0.009245172
135	0x3d967c23	0.07347896
136	0xbde96498	-0.1139614
137	0xbd2d2593	-0.04227216
138	0xbdf9d7df	-0.12199377
139	0xbd290708	-0.04126647
140	0x3df88cbb	0.12136217
141	0x3d332655	0.04373773
142	0x3da27bc5	0.079337634
143	0x3dc01f9c	0.09381029
144	0xbd1d3531	-0.038380805
145	0xbdba53f6	-0.090980455
146	0xbd579eb6	-0.052641593
147	0x3d865630	0.06559408
148	0xbca03a78	-0.01955913
149	0x3bc6d500	0.006067872
150	0x3ce1a3b8	0.027543887
151	0xbe014f72	-0.12627962
152	0x3db7c67c	0.08973405
153	0xbdc612fc	-0.0967159
154	0xbd814b14	-0.06313148
155	0x3dcbf042	0.09957935
156	0xbd377854	-0.04479249
157	0xbdc864c4	-0.097848445
158	0xbe027509	-0.12739958
159	0xbcc54bbe	-0.024083968
160	0x3dc504da	0.09620066
161	0xb9ebb620	-0.00044958387
162	0xbdcf5630	-0.10123861
163	0xbcfe68fe	-0.031055924
164	0x3ddae748	0.10688645
165	0xbdcd3d66	-0.100214764
166	0xbe0cdea5	-0.13756807
167	0xbd6df768	-0.058097273
168	0x3c9fc55c	0.019503288
169	0x3d49ce36	0.049268924
170	0x3dacecb6	0.084435865
171	0xbd7aa45b	-0.061191898
172	0x3db41587	0.087931685
173	0x3cc9eed2	0.024650011
174	0x3a0dfc00	0.0005416274
175	0x3d4206d6	0.0473698
176	0xbdacf4a4	-0.08445099
177	0xbdd08a6a	-0.101826504
178	0xbd4c582c	-0.049888775
179	0x3db423a2	0.08795859
180	0xbd17f9ef	-0.03710359
181	0xbd10c0c8	-0.0353401
182	0xbddb0ddc	-0.10696003
183	0xbc9c99b0	-0.019116253
184	0x3dfeb5c3	0.12437012
185	0x3cc368d0	0.02385369
186	0xbdd7cb8e	-0.10536872
187	0xbe13492c	-0.14383382
188	0xbd4c7d18	-0.049923986
189	0x3d25a023	0.04043592
190	0x3dd9dcbc	0.10637805
191	0xbdbb61e8	-0.091495335
192	0x3df91732	0.12162627
193	0xbd23a5fe	-0.039953224
194	0xbc9a8c00	-0.018865585
195	0x3ba2b45e	0.004965349
196	0x3d26c4d7	0.040715065
197	0xbd2460cc	-0.040131375
198	0x3df4f290	0.119603276
199	0x3dff1da3	0.12456825
200	0x3d833c17	0.064079456
201	0x3cb513f3	0.02210424
202	0xbdd2b0ce	-0.10287629
203	0x3dae4a04	0.08510211
204	0x3d4ab56b	0.04948942
205	0x3e141f58	0.14465082
206	0xbbc51da8	-0.006015498
207	0x3d325140	0.043534517
208	0x3dab2706	0.083570525
209	0x3e767e34	0.2407158
210	0x3dadfe31	0.08495749
211	0x3e110ee2	0.14165834
212	0x3d1c3aec	0.03814213
213	0xbc025c60	-0.007956594
214	0xbbd0c1e0	-0.006370768
215	0xbc993065	-0.018699834
216	0x3ce9a008	0.028518692
217	0xbdd78000	-0.10522461
218	0x3d87e0bb	0.06634661
219	0xbd00117c	-0.031266674
220	0x3dd7a69e	0.105298266
221	0xbdd3a5a4	-0.10334328
222	0x3c084e2a	0.008319417
223	0x3c26f4f5	0.010190238
224	0x3d97e8b5	0.07417432
225	0x3d83c7f1	0.0643462
226	0x3e0212b8	0.12702453
227	0x3d34f6a6	0.044180535
228	0x3d4044e8	0.046940714
229	0x3e101746	0.14071378
230	0x3e75e9c3	0.24014954
231	0xbd8099d0	-0.062793374
232	0xbb4d08ae	-0.003128569
233	0xbdb50d7f	-0.08840465
234	0x3e520f2e	0.20513603
235	0xbdacf0cb	-0.08444365
236	0x3e6f38c7	0.23361503
237	0x3dbff61b	0.09373113
238	0xbd006fbc	-0.03135656
239	0x3e204268	0.15650332
240	0x3e18ba65	0.14914854
241	0x3e2501a0	0.16113901
242	0x3e00a4ab	0.12562816
243	0x3bba7c20	0.0056910664
244	0xbd954b6b	-0.072897755
245	0x3d6bb2c8	0.057543546
246	0xbdd03650	-0.10166609
247	0xbd12cf04	-0.035841957
248	0x3e5a1d4c	0.21300238
249	0x3d3dfc74	0.046383336
250	0xbda3bbaa	-0.079947785
251	0xbd41602d	-0.04721086
252	0x3d96b2ec	0.073583454
253	0xbdab6d02	-0.08370401
254	0x3e1e4507	0.1545602
255	0x3ca5ac70	0.020223826

mean_fc.bias f4 [4]
0	0xbd561948	-0.052270204
1	0xbcc47837	-0.023983104
2	0x3d9cd339	0.07657475
3	0x3d59c186	0.053163074

stdev.weight f4 [4, 64]
0	0xc2145ef3	-37.092724
1	0x3c27490a	0.010210285
2	0xbd018794	-0.031623438
3	0xbc48473d	-0.012224016
4	0xc21463e6	-37.097557
5	0xbd98b46a	-0.07456286
6	0xbd340d8c	-0.04395823
7	0xc20cc0d7	-35.18832
8	0xbc68ea3b	-0.014216001
9	0xbf03d9fb	-0.51504487
10	0x3d81a8c5	0.06331018
11	0x3d1b55c0	0.037923574
12	0xc2151002	-37.265633
13	0xbe4c9231	-0.19977643
14	0x3dda0314	0.10645118
15	0x3dda080a	0.106460646
16	0xc03f5eb0	-2.9901543
17	0xc2136d7d	-36.856922
18	0xc210ed4b	-36.23173
19	0xbea6901f	-0.3253183
20	0xbd791e08	-0.060819656
21	0x3cc36558	0.023852035
22	0xbd4ce444	-0.05002238
23	0xbe97e583	-0.2966729
24	0xbc406d60	-0.011744827
25	0x3de043a8	0.109504044
26	0x3cfc34c0	0.030786872
27	0x3d840e90	0.0644809
28	0xbc2bae10	-0.010478511
29	0x3d2e6546	0.04257705
30	0xbe35ede8	-0.17766535
31	0x3d9db915	0.07701317
32	0xc21484fe	-37.129875
33	0xc218048d	-38.004444
34	0xc215846e	-37.379326
35	0xbe985d5f	-0.29758736
36	0x3cb7dbc8	0.022443667
37	0xc20ef827	-35.742336
38	0xc214d021	-37.20325
39	0x3d8b620e	0.06805812
40	0xbdc471a1	-0.095919855
41	0xbd3ed7f6	-0.046592675
42	0xc2148402	-37.128914
43	0xbe759325	-0.23981912
44	0xc2139321	-36.89368
45	0xbe6388b3	-0.22220115
46	0x3decf90e	0.11570941
47	0xc21472c1	-37.112064
48	0xc2159d4d	-37.403614
49	0xc2136dd8	-36.85727
50	0xbeb1aa14	-0.34700072
51	0xbded6a4a	-0.11592539
52	0xbc27e817	-0.010248206
53	0xbdd75878	-0.10514921
54	0x3c9d1168	0.019173339
55	0x3da504ce	0.08057557
56	0xc214b151	-37.17316
57	0x3c8b4cb8	0.017004356
58	0xbde02a38	-0.109455526
59	0xbf84108d	-1.0317551
60	0x3c7a4bd0	0.015276864
61	0xbc2407f4	-0.010011662
62	0xc21415b3	-37.02119
63	0xbdec5e68	-0.11541444
64	0x420ba2df	34.909054
65	0x3dfe4007	0.12414556
66	0xbd8bcbb4	-0.06825963
67	0xbd97d66a	-0.07413943
68	0x420d1971	35.274845
69	0x3c95e338	0.018296823
70	0xbddc9f44	-0.10772565
71	0x42051f49	33.280552
72	0x3d3e4dd5	0.046460945
73	0x3e8a2b49	0.2698615
74	0x3df9c9c1	0.12196685
75	0x3c57f950	0.013181999
76	0x420c2cf9	35.04392
77	0x3e0834e2	0.13301423
78	0xbd9d8b21	-0.07692552
79	0xbd2448f4	-0.040108636
80	0x3f9f0dd3	1.2426094
81	0x420ba55e	34.91149
82	0x420771f5	33.861286
83	0xbaaebd51	-0.0013331567
84	0x3dff55ac	0.124675125
85	0x3dfc134a	0.123083666
86	0x3daa8f3e	0.083281025
87	0x3e5f3320	0.21796846
88	0xbdddd79e	-0.10832141
89	0xbdf8712e	-0.12130962
90	0xbd5321db	-0.05154596
91	0x3bb656e0	0.0055645555
92	0x3d5430ec	0.051804468
93	0xbafe704b	-0.0019412128
94	0xbc2df8c1	-0.01061839
95	0xbc20f73f	-0.009824573
96	0x420bd17c	34.954575
97	0x420cb229	35.173985
98	0x4208c6c5	34.19411
99	0xbc729718	-0.014806531
100	0xbc97efe8	-0.018547013
101	0x42056eca	33.358192
102	0x420c654b	35.09892
103	0x3d32200c	0.043487594
104	0xbdc94b0f	-0.098287694
105	0x3d9ed535	0.0775551
106	0x420bd45d	34.957386
107	0xbdd7ac3f	-0.105309
108	0x420d031a	35.25303
109	0x3e2dd66e	0.1697633
110	0x3d64e04c	0.05587797
111	0x420b4d9d	34.825794
112	0x42095acf	34.33868
113	0x4208b739	34.17893
114	0x3def6e22	0.11690928
115	0x3daea71a	0.08527966
116	0xbd2aedc2	-0.04173065
117	0xbdbfbeec	-0.09362587
118	0x3dc95a58	0.09831685
119	0x3cc1f748	0.023677483
120	0x420c901d	35.140736
121	0xbbbedf80	-0.005824983
122	0x3c1d9680	0.0096184015
123	0x3ebd2f04	0.36949933
124	0x3d883856	0.0665137
125	0x3d6a2051	0.057159726
126	0x420bc5c1	34.94312
127	0xbd8eaa90	-0.06966126
128	0x42102634	36.037308
129	0xbd5c2e56	-0.053755127
130	0x3dbd7770	0.092512965
131	0x3d6a3dfa	0.05718801
132	0x420f5cf5	35.84078
133	0xbdaf25b4	-0.08552113
134	0x3da43ff0	0.080200076
135	0x420962b2	34.346382
136	0xbdb90c41	-0.0903554
137	0x3ce73c44	0.02822698
138	0x3dbd5027	0.092438035
139	0xbdbc6d14	-0.092004925
140	0x420ea47e	35.660637
141	0x3d99c8b8	0.07508987
142	0x3de90700	0.11378288
143	0xbc8df800	-0.01733017
144	0x40114979	2.2701094
145	0x420f70f6	35.860313
146	0x420a51a3	34.579723
147	0x3e402781	0.1876507
148	0xbd18525c	-0.03718792
149	0xbd64ea84	-0.055887714
150	0x3dbcb0c2	0.092134014
151	0xbcb0f9d9	-0.021603512
152	0x3d00ed7c	0.031476483
153	0x3d7a7478	0.06114623
154	0xbcda5cf6	-0.026655655
155	0xbcb2b950	-0.02181688
156	0x3cd750d0	0.026283652
157	0x3d1d1ed4	0.038359478
158	0x3df5b391	0.1199714
159	0x3d1ce6b6	0.03830596
160	0x42100a77	36.01022
161	0x4211f81e	36.492302
162	0x420ff9e0	35.99402
163	0x3cd1d695	0.025615016
164	0xbb9cd4a0	-0.004786089
165	0x420ac25f	34.689816
166	0x42113d56	36.3099
167	0x3dde48a4	0.10853699
168	0xbdc5c4a0	-0.09656644
169	0x3bc9d398	0.006159257
170	0x42109f67	36.155666
171	0x3deb5a09	0.11491782
172	0x42106a33	36.10371
173	0x3e8a231a	0.26979905
174	0x3a98c600	0.0011655688
175	0x420f4e28	35.826324
176	0x420f5684	35.834488
177	0x420fefe1	35.984257
178	0xba4aa3ca	-0.0007730095
179	0x3d9450fa	0.072420076
180	0x3deeb621	0.11655832
181	0xbd3fab60	-0.046794295
182	0x3dc6c7fa	0.09706111
183	0x3a4f1c00	0.00079005957
184	0x420f5335	35.831257
185	0xbdcbef4e	-0.09957753
186	0xbcac7568	-0.021052077
187	0x3e95c68c	0.29253042
188	0xbd837c84	-0.06420234
189	0x3cd392e7	0.025826884
190	0x420f2c02	35.792976
191	0x3cad2848	0.021137372
192	0x41fe5282	31.790287
193	0xbcf8e93d	-0.030384654
194	0xbd42fe3c	-0.047605738
195	0xbd2cbeaa	-0.04217402
196	0x41fe2dfa	31.77245
197	0xbd1c7163	-0.03819407
198	0xbd616fb0	-0.055038154
199	0x41f66728	30.80037
200	0xbb8142f5	-0.0039447495
201	0x3e0f288d	0.13980313
202	0xbd98188d	-0.07426558
203	0xbd5864c0	-0.052830458
204	0x41f72e57	30.897627
205	0xbd46e8f1	-0.048561994
206	0xbcb641fd	-0.022248263
207	0x3de4f31e	0.111791834
208	0x3f594fc1	0.8488732
209	0x4201b49b	32.426373
210	0x41f23854	30.277504
211	0xbd32f12c	-0.04368703
212	0x3dd11114	0.102083355
213	0xbd3a6374	-0.045505002
214	0x3cdd5680	0.027018785
215	0xbd29dcea	-0.041470446
216	0xbd5b3f78	-0.053527325
217	0xbd03f920	-0.032220006
218	0x3d335860	0.043785453
219	0x3d915b64	0.070975095
220	0x3b9cb8e0	0.004782781
221	0xbd8b1142	-0.06790401
222	0xbdaeab56	-0.085287735
223	0x3d944cee	0.07241236
224	0x42002f71	32.04633
225	0x41feddac	31.858238
226	0x41f6838b	30.81423
227	0xbdbf195e	-0.0933101
228	0x3d5a42a0	0.053286195
229	0x41f44ad6	30.536541
230	0x42023473	32.55122
231	0xbde89262	-0.11356045
232	0x3d589c03	0.05288316
233	0xbcd95b7c	-0.026532881
234	0x41ff5610	31.917023
235	0xbd41ccb7	-0.047314372
236	0x42033be9	32.808506
237	0x3dc6ac4d	0.097008325
238	0x3d0990b4	0.033585265
239	0x41fb58da	31.418385
240	0x41f43c44	30.529427
241	0x4200a4e5	32.16103
242	0xbadab583	-0.0016686175
243	0x3dc03ff4	0.09387198
244	0xb7175d6c	-9.022053e-06
245	0x3d85f4c6	0.065408275
246	0x3dcf257a	0.1011457
247	0xbbb181c0	-0.0054170787
248	0x41faf2fe	31.368649
249	0x3c66cda0	0.014087111
250	0x3d857e78	0.065182626
251	0x3dfa5395	0.12222973
252	0x3de0afcc	0.109710306
253	0xbd98942e	-0.07450138
254	0x4200351d	32.05187
255	0xbcf039b0	-0.029324383

stdev.bias f4 [4]
0	0xc2124920	-36.57141
1	0x4208a5c8	34.161896
2	0x420c613d	35.09496
3	0x41f49fe5	30.578074
